data/quanted_transformer_model/self_attn/in_proj_weight.npy (npy, 196736 bytes, 1 tensors)

array f4 [384, 128]
00000000: 26d9 92bd 1c80 2fbd d2cd 7d3d 40f8 853b
00000010: 0446 d43c 0e5e a1bd 34d2 d93c dcbf 923c
00000020: 6e04 2abd 60ee 6a3c 8e72 81bd 38a7 22bd
00000030: be73 0c3d b7f4 56bd 1906 7abd 8a91 1c3d
00000040: 924b 673d 5ff5 b53d 61d1 43bd d742 75bd
00000050: 3758 b53d d547 923d 4029 32bb 40cb 9fbc
00000060: 9634 7cbd 33f8 c23d 018d 67bd aaf1 4f3d
00000070: 2ad8 0b3d 302c 88bd a1dd d63d 858f 973d
00000080: 3c86 8c3c 27e7 8f3d a9e3 cf3d c05b 053b
00000090: 817a a2bd f9d7 49bd c2a9 38bd f922 b53d
000000a0: f848 cfbd 82bd 7a3d d67d 393d 17ce 5abd
000000b0: 42dc 1b3d 9839 243c b07c 843c fef3 1cbd
000000c0: 1e8e 41bd 38f8 27bc 1066 1abc 595a 73bd
000000d0: eaf7 69bd 2476 2abd 0317 99bd 3450 d1bd
000000e0: fe54 84bd ced8 223d a902 ae3d 1f42 b23d
000000f0: 8fbd b13d 759a c23d 126f 323d ba58 b5bd
00000100: 2b4e 843d ba4b 693d bbf4 8ebd e892 9abd
00000110: d0c3 edbb 4a3c 063d 80b5 943b f465 f73c
00000120: 6448 d43c cdb2 b93d 52b4 0a3d 1e1b 20bd
00000130: a81c 0ebd 7510 79bd e01c 993b 110d 99bd
00000140: 006b 16ba 0bd3 bb3d 1c75 dabc 1079 85bc
00000150: 4f45 ca3d 4f14 d3bd 8047 133b 9ecd 343d
00000160: 6f22 dc3d 791e ddbd 18d0 bebd 0aad 37bd
00000170: a954 c1bd f5bd 52bd e67d 533d fc85 c8bd
00000180: f0e9 453c b380 abbd bf71 4abd 2538 a63d
00000190: a4f0 c5bd 96f1 7f3d 5a9b 663d 6bcc 9a3d
000001a0: aed5 673d fc0c 34bd 38e9 5ebc b8e0 2bbd
000001b0: 404d 393c e85d c0bd f8b8 0fbc 50da a4bc
000001c0: 3858 30bc 3093 cdbb 0975 d93d 4157 cd3d
000001d0: 008e 7339 c67a 693d 7007 51bc 6098 5b3c
000001e0: 6424 923c 792d b53d 09cb 9c3d 4986 cd3d
000001f0: 8a84 9abd 4a06 743d 16cf 1a3d 32bf a6bd
00000200: dd03 843d 8b88 953d 3090 bebb 1560 d3bd
00000210: c07c 7e3c 82f9 5b3d 12fb 783d 0065 09bd
00000220: 7687 583d 8643 38bd 0870 81bc cf1b a63d
00000230: ded3 0cbd 3327 57bd 2f66 cbbd 247f ae3c
00000240: 0e85 25bd 7c51 d23c 747a f83c 72e2 233d
00000250: c81f 10bd 8027 76bd cec8 4e3d f16d 8a3d
00000260: 5dbe 913d e067 59bc 22d8 243d 9551 823d
00000270: 394c b33d 91be 5fbd d491 2abd efb6 69bd
00000280: c422 f03c 9cbb d13c d70c b53d 8c0c 803c
00000290: 0cbd 8bbd 64b4 cd3c fe84 05bd 6c49 babc
000002a0: ac0e ba3c ea11 143d 2205 7cbd e0a3 8fbb
000002b0: e273 1bbd 9315 c53d c470 b3bd 38bb 25bc
000002c0: fc8e 2fbd 1cce b83c 08e3 5d3c b66f 6b3d
000002d0: d2e1 39bd c8f2 23bd 52cf 7cbd 941b abbd
000002e0: c0d8 debc d670 5e3d ddf8 a9bd a8ed e5bc
000002f0: 464e 313d 4cfb 8e3c 00ec 5a3a f0af ee3b
00000300: bcfc 83bc 0872 3dbd 808d 5c3a 2cc9 9c3c
00000310: e8a7 2abc 6430 eabc 8036 4e3a a3c4 8d3d
00000320: 805b 81bb b838 0a3c b404 a0bc aea2 99bd
00000330: cd34 ab3d 107f cfbb 030f a23d 5d6f a93d
00000340: 92e3 4d3d 5db8 be3d 52cf 573d bca1 d4bc
00000350: 0028 123b ed12 cb3d 44c4 f93c b6a2 37bd
00000360: 3160 9d3d 40ab ffbb 5fd6 ae3d 6515 c33d
00000370: 34aa e23c 2e7f cdbd fce6 26bd fa61 1f3d
00000380: a674 00bd 88a4 23bc cd38 6dbd e6ea 143d
00000390: 8473 b1bd 7e5d 2cbd 2a8a 0c3d c2e0 4e3d
000003a0: 8a06 1cbd 2091 7dbb 5936 96bd 8424 dabc
000003b0: e7c5 db3d a070 b4bc 64d1 83bd 2a72 86bd
000003c0: 3912 d83d 4047 b0bd 10a0 6a3c ec18 e33c
000003d0: 783a c6bc a985 aebd 6e5f 80bd 928c cfbd
000003e0: 8a9f 2dbd 45c9 3dbd 8704 c43d 6c5a a0bc
000003f0: d602 253d 8f1b 963d b00a b0bc 2397 ccbd
-0.07170324 -0.042846784 0.061963864 0.0040884316 0.025912292 -0.07879268 0.02658949 0.017913751
-0.04150813 0.01433906 -0.06320678 -0.039710253 0.034290068 -0.052479472 -0.06104097 0.038224734
0.056468554 0.088846914 -0.0478071 -0.059878197 0.08854716 0.07142607 -0.0027185231 -0.019506097
-0.061573587 0.095199965 -0.056530956 0.05076758 0.034141697 -0.06649053 0.10491491 0.07400421
0.017153852 0.07026511 0.101508446 0.0020348877 -0.07933522 -0.049278233 -0.04508377 0.08844561
-0.101213396 0.061215885 0.045286022 -0.0534192 0.03805185 0.010023497 0.016172737 -0.038318627
-0.047254674 -0.010252051 -0.009423748 -0.059412334 -0.057121195 -0.041616574 -0.07475092 -0.10220376
-0.064615235 0.039757542 0.08496601 0.08704018 0.086787336 0.095021166 0.043562956 -0.08854814
0.06460222 0.056956984 -0.069802724 -0.075475514 -0.0072560087 0.03277234 0.004538238 0.030199982
0.025913425 0.09067307 0.033863373 -0.03908836 -0.034695297 -0.06080671 0.0046726316 -0.07473195
-0.000573799 0.091711126 -0.02666717 -0.016293079 0.09876501 -0.10306608 0.0022473037 0.044141404
0.10748755 -0.10796828 -0.093170345 -0.044842757 -0.09439976 -0.05145069 0.051633738 -0.097911805
0.012079701 -0.08374157 -0.049424883 0.081161775 -0.09665039 0.062486254 0.0563005 0.07558521
0.056600265 -0.043957695 -0.013605408 -0.041962355 0.011309922 -0.09392911 -0.008772127 -0.02012363
-0.0107632205 -0.0062736496 0.10618026 0.10026408 0.00023227185 0.05700185 -0.012758121 0.013403028
0.017839618 0.08846564 0.076559134 0.100353785 -0.07544811 0.05957631 0.03779515 -0.08141936
0.06446049 0.07301434 -0.0058155283 -0.103210606 0.015532672 0.053704746 0.060786314 -0.033543587
0.05286356 -0.04498627 -0.015800491 0.08110773 -0.03438174 -0.052527618 -0.09931599 0.02130086
-0.040410094 0.02567362 0.030331828 0.040010877 -0.03518656 -0.060096264 0.05048447 0.06759251
0.07116387 -0.013269395 0.040245183 0.06363217 0.08754773 -0.054625098 -0.04164298 -0.057059225
0.029313453 0.025602154 0.0884034 0.015630983 -0.06823167 0.025110431 -0.032597534 -0.022740088
0.022712074 0.036149897 -0.061528333 -0.004383549 -0.03795231 0.096232556 -0.08761743 -0.010115437
-0.04286097 0.022559218 0.013542898 0.057479583 -0.045381375 -0.040026456 -0.061721154 -0.083548695
-0.027202964 0.054306827 -0.0829942 -0.028067425 0.043287538 0.017453812 0.0008351207 0.007284157
-0.016111724 -0.046251327 0.0008413419 0.019138895 -0.0104160085 -0.028587528 0.00078663975 0.06922271
-0.003947675 0.008436374 -0.019533493 -0.07501732 0.0835968 -0.0063322857 0.079130195 0.08273194
0.050265856 0.09312508 0.05268795 -0.025956027 0.0022301674 0.09915719 0.030489095 -0.044832908
0.07684363 -0.007802397 0.08536982 0.09525565 0.02766905 -0.10034023 -0.040747628 0.038911797
-0.031361245 -0.009987958 -0.057915498 0.03635683 -0.08664611 -0.04208135 0.03431145 0.050507315
-0.038092174 -0.0038691238 -0.07334585 -0.02662874 0.10731106 -0.02202636 -0.064364225 -0.06564744
0.10550351 -0.0860734 0.014320388 0.027721845 -0.024197802 -0.085215874 -0.06268202 -0.101342335
-0.042388476 -0.046334524 0.09571176 -0.019574367 0.040285908 0.07329475 -0.021489471 -0.099897645
