data/quanted_transformer_model/embed/weight.npy (npy, 5248 bytes, 1 tensors)

array f4 [10, 128]
0	0x401ff01c	2.49903
1	0xbf9b0f9a	-1.2114136
2	0x3fa072eb	1.253507
3	0x3f83e14d	1.0303131
4	0x400caa4a	2.1978936
5	0xbf01da10	-0.5072336
6	0x3fdb4390	1.7129993
7	0x3f7be15c	0.98390746
8	0x3fb2c3f1	1.3966047
9	0xbf1af670	-0.60532284
10	0xbed07bb8	-0.4071939
11	0xbf1e9401	-0.61944586
12	0xbf869b4a	-1.051614
13	0x3e947a0c	0.28999364
14	0x3fe6a6b2	1.8019621
15	0xbf1961ee	-0.59915054
16	0x3f184c6c	0.5949161
17	0xbfc8f631	-1.5700132
18	0xbf2e25ce	-0.68026435
19	0xbfef0fb1	-1.8676664
20	0xbf9e1a38	-1.2351751
21	0xbd0832d3	-0.033251595
22	0xbe69747c	-0.22798342
23	0xbfb2eba5	-1.3978163
24	0xbfe69c01	-1.8016359
25	0xbf67c508	-0.9053502
26	0xbf64258f	-0.8911981
27	0x3fab7706	1.3395698
28	0xbe1d5710	-0.15365243
29	0x3fac13dc	1.3443561
30	0xbfd56419	-1.6671172
31	0x3f0d631c	0.55229354
32	0x3e8d9364	0.27651513
33	0x3dfbb08c	0.12289533
34	0xbf63d64d	-0.8899887
35	0x3f0a4e80	0.5402603
36	0xbf7a242c	-0.97711444
37	0x3fbece11	1.4906636
38	0xbfa19952	-1.2624915
39	0x3f5b9cb2	0.85785973
40	0xbe8e3a5a	-0.27778894
41	0xbf639702	-0.88902295
42	0x3fcd8a87	1.60579
43	0x3f1fbb58	0.6239524
44	0xbfdba4a0	-1.7159615
45	0xbeaa5381	-0.33266833
46	0xbedc5723	-0.4303523
47	0xbfb6350a	-1.4234936
48	0x3e227473	0.15864734
49	0x3feceee1	1.85104
50	0x3fd0a071	1.6298963
51	0x3e402a61	0.18766166
52	0x3f32c50e	0.6983193
53	0xbfbb07f0	-1.4611797
54	0x3def1314	0.11673561
55	0x3fc7a9d9	1.5598708
56	0x3f5305d7	0.82430786
57	0x3d7719be	0.060327284
58	0xbf6f2945	-0.9342235
59	0xbf47adc4	-0.7799952
60	0x3e0284d4	0.12745982
61	0xbf0ecba2	-0.5577947
62	0xbf64f2df	-0.8943309
63	0xbef8faff	-0.48628995
64	0xbdd6d168	-0.1048916
65	0x401c30aa	2.4404702
66	0xc0000d09	-2.0007956
67	0xbe4ff68a	-0.20308891
68	0xbe667190	-0.22504258
69	0x3f5cdffa	0.8627926
70	0x3f02599f	0.50918
71	0xbfda3a7f	-1.7049102
72	0xbe20a452	-0.15687683
73	0x3fdb2671	1.7121106
74	0xbf307f93	-0.6894466
75	0x3e999124	0.29993546
76	0xbf1c7cb3	-0.61127776
77	0xbed92b66	-0.42415923
78	0xbfb9ac1a	-1.4505646
79	0x3fc6fddc	1.5546222
80	0xbf38dacd	-0.72208863
81	0x3fe61038	1.79737
82	0x3f1a373c	0.6024053
83	0x3fb4d69f	1.4127997
84	0xc0259b0d	-2.5875885
85	0x3ca8cb8b	0.02060487
86	0xbf4839b1	-0.7821303
87	0xbfcf3ad5	-1.6189829
88	0x3f0d5017	0.5520033
89	0xbf826c8c	-1.0189376
90	0xbf85bccd	-1.0448242
91	0x3f4dc614	0.8038037
92	0x3dfeb0f7	0.12436097
93	0x3ead0faf	0.33801028
94	0x3eae7c30	0.34079123
95	0xbf6b4e0e	-0.91915977
96	0xbedcaad4	-0.43099082
97	0x3da588fb	0.080827676
98	0xbe6fad68	-0.23405993
99	0xbebfc10d	-0.37451974
100	0xbb1ac799	-0.0023617505
101	0x3f24dad6	0.6439642
102	0x4019b3cd	2.4015992
103	0xbe2d3e32	-0.16918257
104	0xbee73d85	-0.45164123
105	0x3f3c3a47	0.73526424
106	0xbd0359a2	-0.032067902
107	0x3fc0d31b	1.5064424
108	0x3ff45e86	1.9091346
109	0xbebf2665	-0.3733398
110	0x3f5430e2	0.8288709
111	0x3f7438f4	0.95399404
112	0xbe4613dd	-0.19343515
113	0x4030a21c	2.7598944
114	0x3e8cfc34	0.27536166
115	0x3f00fcec	0.5038593
116	0x3e188ed7	0.14898239
117	0xbe94ebb5	-0.2908608
118	0x3f9bc716	1.2170131
119	0xbfb38e77	-1.4027852
120	0xbeccd57d	-0.4000663
121	0x3f485703	0.7825777
122	0x3fa4c101	1.28714
123	0x3fdf8d5f	1.7465018
124	0x3e01e26b	0.12684028
125	0x3f73a05a	0.9516655
126	0xbed5d8f3	-0.41767082
127	0xbeb0a4e4	-0.34500802
128	0x3f236bcd	0.63836366
129	0xbf6caea6	-0.9245399
130	0x3e368af9	0.17826451
131	0xbe4e9a13	-0.20175962
132	0x3efe3111	0.4964681
133	0x3ef10685	0.47075287
134	0x3ee665ee	0.4499964
135	0xbf004819	-0.5011001
136	0x3f6604b3	0.8985092
137	0x3ee5b88d	0.44867364
138	0xbf1191e6	-0.5686325
139	0xbfb41652	-1.4069312
140	0x3ecd80f4	0.40137446
141	0x3ed0fff4	0.40820277
142	0xbeee3c53	-0.465304
143	0xbfdd343a	-1.7281563
144	0xbe573a5f	-0.2101836
145	0x3e80ce87	0.25157568
146	0xbec2f5af	-0.38078067
147	0x3dcdb3f4	0.10044089
148	0xbf0cbb58	-0.54973364
149	0xbe6cd673	-0.23128681
150	0x3f589d9b	0.84615487
151	0xbfae3bc6	-1.3611991
152	0x3fd7b3f1	1.6851789
153	0xbed69531	-0.419107
154	0xbe2c70d7	-0.1683992
155	0xbf9c9655	-1.2233378
156	0xbf1f8988	-0.6231923
157	0xbe4158be	-0.18881509
158	0xbf23a3be	-0.63921726
159	0x3f817b24	1.0115705
160	0xbfb4c29e	-1.4121892
161	0xbf522d47	-0.8210034
162	0x3e80dfb8	0.25170684
163	0xbf57a359	-0.84233624
164	0xbf06a711	-0.52598673
165	0x3f411776	0.75426424
166	0x3ee21837	0.441591
167	0x3e8edf80	0.27904892
168	0x3cf0a26f	0.02937433
169	0xbef22149	-0.4729102
170	0xbd75a242	-0.059969194
171	0x3ffd5f2d	1.979467
172	0x3ecc05e7	0.39848253
173	0x3f4e78e6	0.80653226
174	0x3eb2f71c	0.34954154
175	0x3f2bcc9b	0.6710908
176	0xbfd804fb	-1.687652
177	0x3f7e414e	0.993184
178	0xbf84db4b	-1.0379423
179	0xbd3bac46	-0.04581859
180	0xbf10df22	-0.56590474
181	0xbef0a39a	-0.46999818
182	0x3f8cb76a	1.0993474
183	0xbece3d7e	-0.4028129
184	0x3f85d8d8	1.04568
185	0x3dd18258	0.10229939
186	0xbefebf5b	-0.49755368
187	0x3e9b078f	0.30279204
188	0xbf968ab9	-1.1761085
189	0x3e951c32	0.29123074
190	0xbda4ff0c	-0.08056459
191	0xbf2e4cc8	-0.6808591
192	0x3fdecbb4	1.7405915
193	0xbf0c0d7e	-0.5470809
194	0x3f399e16	0.72506845
195	0xbef145f7	-0.4712369
196	0x3ed12295	0.40846696
197	0xbf4c218d	-0.79738694
198	0x3f848e34	1.0355897
199	0x3f5777d5	0.84167224
200	0x40149fbc	2.3222494
201	0xbfdf4f9d	-1.7446171
202	0x3f9a77a0	1.2067757
203	0x3fda6512	1.7062094
204	0x3fa9b205	1.3257452
205	0x3e04ef05	0.12981804
206	0xbd80644a	-0.062691286
207	0xbf7fed01	-0.99971014
208	0x3f28e225	0.6597007
209	0x3ec89e97	0.39183494
210	0x3fe3477d	1.7756191
211	0xbdc755ea	-0.09733184
212	0xbe90ba51	-0.28267148
213	0x3f8da6c3	1.1066517
214	0x3f2f1846	0.68396413
215	0xbf3cf196	-0.7380613
216	0x3b3232bd	0.0027190887
217	0xbf93a280	-1.1533966
218	0x3f6e772e	0.93150604
219	0x3e80ee17	0.25181648
220	0xbf732c4e	-0.9498948
221	0xbf48ee2f	-0.7848844
222	0x4009c6b0	2.152752
223	0x3f63fffe	0.8906249
224	0x3e2d265b	0.16909163
225	0x3f67f38d	0.90606004
226	0xbfaa2573	-1.3292679
227	0x3e511ee4	0.2042194
228	0x3e50e024	0.20398003
229	0x3fe57d0b	1.7928785
230	0xbc046678	-0.008081071
231	0x3fc1b59e	1.513355
232	0xbfd46523	-1.6593364
233	0xbebdaf8c	-0.37047994
234	0xbf71bd00	-0.94429016
235	0x402178db	2.5230014
236	0x3fa2fbb8	1.2733068
237	0x3fada7f0	1.3566875
238	0x3f23eea1	0.64035994
239	0x3ff1e7fa	1.8898919
240	0x3f601b45	0.8754161
241	0x3ec308e1	0.38092712
242	0x3f9da96b	1.2317327
243	0x3f11a87c	0.5689771
244	0x3e44a55f	0.19203709
245	0x3eb3f1ea	0.35145503
246	0xbf584a05	-0.84487945
247	0x3e5929c2	0.21207336
248	0x3fa6eb66	1.3040588
249	0xbd425ae2	-0.047449954
250	0xbee206ad	-0.44145718
251	0x3f6f1884	0.9339678
252	0x3f7d954f	0.9905595
253	0x3f2571bc	0.6462667
254	0xbfcc78ac	-1.5974326
255	0x3e999416	0.29995793
