data/quanted_transformer_model/layernorm1/bias.npy (npy, 640 bytes, 1 tensors)

array f4 [128]
0.0096007055 0.012668831 -0.005553437 -0.014422504 -0.017409276 -0.006666783 0.011455528 0.016981453
0.011035221 -0.008924923 -0.01724438 0.015037647 0.009967787 -0.0136387255 -0.022806395 0.011582297
-0.01581253 -0.015883699 0.011826015 0.013104647 -0.0082054855 -0.014429078 0.013306828 0.015342733
0.002029075 -0.0076818457 -0.010031759 -0.012626081 -0.0053969356 -0.014771773 -0.0069983937 -0.017059298
0.016937185 0.01300532 -0.01130629 -0.011800398 0.013454172 0.0123207625 0.014585848 -0.017134003
-0.011880537 0.020811 -0.004236491 -0.014179449 4.9743066e-05 0.01173061 0.0074153803 0.003294987
0.018581977 0.00561421 0.007740124 -0.014795213 -0.014681937 -0.014048603 -0.009396065 -0.018903853
-0.0123479515 0.015995624 -0.008753076 -0.013002694 -0.010359335 -0.014368288 0.0116750095 -0.008483831
-0.0012218002 -0.013010472 0.015148346 0.012578873 -0.0033969427 -0.011830905 0.015739163 0.015148801
-0.018575296 -0.0022180763 0.0100252535 -0.015998373 -0.0131379925 0.01230973 -0.014931815 0.009705615
0.008946383 0.017575007 -0.02027915 -0.012935443 0.011515292 0.013243408 -0.012094575 -0.011420264
-0.01650072 0.012415783 0.019414341 -0.0046173437 -0.012093604 -0.0088058775 -0.0087807365 -0.014747525
-0.009668744 -0.0117883 -0.006943635 -0.01227742 -0.011626745 -0.0075851404 0.014708151 -0.025309581
0.013650186 -0.0025295168 0.017114036 -0.0012638601 0.015321521 -0.011966372 0.009816576 0.012913521
0.0011020977 -0.014881052 -0.016149176 -0.012262799 0.016668938 -0.0090282485 0.01675178 0.0170427
0.0126801925 0.012150705 0.012538864 0.014048348 -0.008355161 -0.021099111 0.009698784 0.01792091
00000000: 474c 1d3c ee90 4f3c 9bf9 b5bb 5e4c 6cbc
00000010: e69d 8ebc 0775 dabb f8af 3b3c b01c 8b3c
00000020: 12cd 343c d739 12bc 1644 8dbc 7760 763c
00000030: ee4f 233c f674 5fbc 7ad4 babc adc3 3d3c
00000040: 4789 81bc 881e 82bc e7c1 413c e0b4 563c
00000050: 4d70 06bc f167 6cbc e204 5a3c 1660 7b3c
00000060: 3bfa 043b feb7 fbbb 3f5c 24bc 9fdd 4ebc
00000070: c7d8 b0bb 4e05 72bc c852 e5bb f1bf 8bbc
00000080: dabf 8a3c 4414 553c 043e 39bc 7556 41bc
00000090: e36e 5c3c 06dd 493c 7bf9 6e3c 9c5c 8cbc
000000a0: 95a6 42bc d57b aa3c 43d2 8abb eb50 68bc
000000b0: 36a3 5038 bf31 403c b8fc f23b b5f0 573b
000000c0: 3b39 983c 68f7 b73b dea0 fd3b 9f67 72bc
000000d0: 828c 70bc 1d2c 66bc f4f1 19bc 41dc 9abc
000000e0: 104f 4abc 4109 833c 1069 0fbc 4009 55bc
000000f0: 33ba 29bc f868 6bbc 8a48 3f3c c4ff 0abc
00000100: d024 a0ba e029 55bc c530 783c 9e17 4e3c
00000110: 3e9f 5ebb 6ad6 41bc 6bef 803c ad32 783c
00000120: 382b 98bc 255d 11bb f640 243c 050f 83bc
00000130: bc40 57bc c0ae 493c 92a4 74bc 4d04 1f3c
00000140: da93 123c 76f9 8f3c 7620 a6bc 2eef 53bc
00000150: a3aa 3c3c e1fa 583c 5328 46bc 0f1c 3bbc
00000160: 852c 87bc 916b 4b3c d30a 9f3c 164d 97bb
00000170: 4024 46bc 8746 10bc 14dd 0fbc 9a9f 71bc
00000180: a769 1ebc b723 41bc 6f87 e3bb 3b27 49bc
00000190: 1a7e 3ebc c58c f8bb 75fa 703c 0a56 cfbc
000001a0: 08a5 5f3c 40c6 25bb bc32 8c3c 1ca8 a5ba
000001b0: 1e07 7b3c 9a0e 44bc b4d5 203c 3c93 533c
000001c0: 4374 903a a8cf 73bc 474b 84bc e8e9 48bc
000001d0: 4c8d 883c 38eb 13bc 073b 893c 229d 8b3c
000001e0: 95c0 4f3c c013 473c cf6f 4d3c 0b2b 663c
000001f0: 16e4 08bc 0bd8 acbc a6e7 1e3c dfce 923c
