data/quanted_transformer_model/self_attn_out_proj/bias.npy (npy, 640 bytes, 1 tensors)

array f4 [128]
0.009685655 0.012421495 0.0041341744 -0.014306659 -0.018050522 -0.008417318 0.013111815 0.01675868
0.016515078 -0.008468087 -0.016860984 0.015338654 0.010291175 -0.013945369 -0.021789651 0.012793449
-0.01593465 -0.016043218 0.013483204 0.012797906 -0.013157591 -0.015414119 0.014762059 0.012747242
0.008770644 -0.003937292 -0.009420019 -0.014200871 -0.009072432 -0.014999702 -0.0059370673 -0.017154962
0.015684567 0.013141502 -0.011226421 -0.011891892 0.012779467 0.013526192 0.01459907 -0.016884258
-0.0077199833 0.018337512 -0.008545864 -0.0141190905 0.0046249167 0.011643152 0.0039262306 0.0010833372
0.01891901 0.0063314764 0.0071355775 -0.014542522 -0.014820279 -0.015078073 -0.008106712 -0.01737247
-0.013208443 0.015979387 -0.007908372 -0.013859617 -0.00956587 -0.014521966 0.01169335 -0.009150185
-0.0003459197 -0.011582377 0.014762854 0.01336053 -0.0026721184 -0.012943133 0.015706666 0.015321524
-0.018712979 -0.0034013116 0.0102452645 -0.015081829 -0.012798144 0.012631804 -0.014978055 0.009038153
0.009915129 0.017384939 -0.020101143 -0.01274297 0.0021447788 0.013831553 -0.012577352 -0.011506588
-0.0166373 0.0113766715 0.019425867 -0.0043832357 -0.008355696 -0.008205026 -0.007476146 -0.015014459
-0.00961749 -0.011787033 -0.0035903037 -0.010247862 -0.016827583 -0.006299154 0.015409284 -0.025266383
0.0124426875 -0.0034955204 0.01703587 0.0019271219 0.014364551 -0.012135311 0.012282129 0.013135854
0.0030444667 -0.014981265 -0.014118475 -0.012574144 0.016766474 -0.014126187 0.015884098 0.014782218
0.01272354 0.015762143 0.01279377 0.014357766 -0.0020641014 -0.011782407 0.009884883 0.018071176
00000000: 95b0 1e3c 8783 4b3c f877 873b 7a66 6abc
00000010: b0de 93bc cae8 09bc f0d2 563c 8049 893c
00000020: a14a 873c bbbd 0abc 0c20 8abc fa4e 7b3c
00000030: 519c 283c 1e7b 64bc 3680 b2bc 9d9b 513c
00000040: 6289 82bc 116d 83bc a8e8 5c3c 4fae 513c
00000050: f092 57bc 808b 7cbc 90dc 713c cfd9 503c
00000060: bfb2 0f3c 6604 81bb 6c56 1abc c5aa 68bc
00000070: 8aa4 14bc 4fc1 75bc bb8b c2bb 9088 8cbc
00000080: ec7c 803c 744f 573c 06ef 37bc 36d6 42bc
00000090: f860 513c f69c 5d3c f030 6f3c db50 8abc
000000a0: eaf7 fcbb 8d38 963c f403 0cbc c253 67bc
000000b0: 9d8c 973b ebc2 3e3c 9ca7 803b c4fe 8d3a
000000c0: 0afc 9a3c 4678 cf3b 90d1 e93b c243 6ebc
000000d0: c1d0 72bc 060a 77bc 04d2 04bc b650 8ebc
000000e0: 3a68 58bc 34e7 823c 1e92 01bc 7213 63bc
000000f0: 2bba 1cbc 8aed 6dbc 7795 3f3c a8ea 15bc
00000100: 8e5c b5b9 03c4 3dbc e6df 713c 20e6 5a3c
00000110: b51e 2fbb 6f0f 54bc 44ab 803c 2107 7b3c
00000120: f64b 99bc 8ae8 5ebb c1db 273c c719 77bc
00000130: 4eaf 51bc a0f5 4e3c 8466 75bc c314 143c
00000140: 1173 223c dc6a 8e3c 27ab a4bc e4c7 50bc
00000150: 6b8f 0c3b bd9d 623c 3d11 4ebc 2186 3cbc
00000160: f24a 88bc 3865 3a3c ff22 9f3c 3fa1 8fbb
00000170: 54e6 08bc 606e 06bc 75fa f4bb 35ff 75bc
00000180: ad92 1dbc 661e 41bc 4d4b 6bbb a6e6 27bc
00000190: 00da 89bc 2269 cebb 3977 7c3c 72fb cebc
000001a0: 6adc 4b3c 1a15 65bb cf8e 8b3c 7b97 fc3a
000001b0: 4b59 6b3c 2fd3 46bc fc3a 493c c437 573c
000001c0: ad85 473b fb73 75bc 2d51 67bc c803 4ebc
000001d0: d859 893c 8671 67bc 5e1f 823c 1e31 723c
000001e0: 6576 503c 9c1f 813c f69c 513c d63c 6b3c
000001f0: e045 07bb ff0a 41bc 34f4 213c 010a 943c
