data/quanted_transformer_model/self_attn_out_proj/weight.npy (npy, 16512 bytes, 1 tensors)

array i1 [128, 128]
93 5 3 62 -14 -49 18 6
93 10 -26 -12 5 -88 -93 94
75 -28 -56 -19 -114 -72 115 75
12 -97 -34 -82 4 70 -76 -35
123 -32 47 -105 -11 -74 -72 -74
4 48 28 -85 81 -61 0 76
-119 19 78 61 -87 -82 57 78
3 53 -67 59 1 -111 36 72
-20 85 -10 -74 69 -54 127 112
86 -71 -102 -57 28 -10 -93 -103
4 -20 8 -64 114 -61 59 53
-36 -109 37 43 47 63 10 -50
45 -21 53 5 9 52 34 17
10 -37 -56 -78 -35 -30 -90 23
15 -33 -58 17 78 119 -6 65
9 97 -73 119 28 -23 -97 82
17 -66 2 -13 85 -121 58 -2
71 78 97 -27 -20 -103 -63 -27
-111 31 -87 7 -2 -96 3 -108
54 21 -101 -54 19 82 -41 -89
76 -53 -60 -100 31 117 -29 21
-72 9 -30 42 -108 -112 -6 -14
101 42 5 -96 49 -38 23 -90
-38 -55 95 -86 -103 109 -27 -69
114 -113 -30 -70 -55 56 17 61
4 94 -62 9 42 -125 24 -58
-29 17 -70 -87 -22 -77 5 -78
25 79 -85 0 121 31 -31 28
107 -45 -64 -18 70 -100 104 -99
127 46 -61 34 -72 -15 113 10
-9 -28 15 -14 49 108 -33 -20
55 -32 91 -117 4 69 -84 -42
00000000: 5d05 033e f2cf 1206 5d0a e6f4 05a8 a35e
00000010: 4be4 c8ed 8eb8 734b 0c9f deae 0446 b4dd
00000020: 7be0 2f97 f5b6 b8b6 0430 1cab 51c3 004c
00000030: 8913 4e3d a9ae 394e 0335 bd3b 0191 2448
00000040: ec55 f6b6 45ca 7f70 56b9 9ac7 1cf6 a399
00000050: 04ec 08c0 72c3 3b35 dc93 252b 2f3f 0ace
00000060: 2deb 3505 0934 2211 0adb c8b2 dde2 a617
00000070: 0fdf c611 4e77 fa41 0961 b777 1ce9 9f52
00000080: 11be 02f3 5587 3afe 474e 61e5 ec99 c1e5
00000090: 911f a907 fea0 0394 3615 9bca 1352 d7a7
000000a0: 4ccb c49c 1f75 e315 b809 e22a 9490 faf2
000000b0: 652a 05a0 31da 17a6 dac9 5faa 996d e5bb
000000c0: 728f e2ba c938 113d 045e c209 2a83 18c6
000000d0: e311 baa9 eab3 05b2 194f ab00 791f e11c
000000e0: 6bd3 c0ee 469c 689d 7f2e c322 b8f1 710a
000000f0: f7e4 0ff2 316c dfec 37e0 5b8b 0445 acd6
