data/time_predict/model_weights.pth (torch, 41536 bytes, 4 tensors)

conv1.weight f4 [64, 1, 3]
000000 27 65 97 3e fc ff bc bd 64 b7 03 3c d4 11 7f 3d
       0.2956936 -0.09228513 0.008039329 0.06227286
000010 21 05 b9 be c3 23 03 3f 19 17 3d 3e 79 a2 af be
       -0.36136726 0.51226443 0.18465842 -0.34303644
000020 b4 7a ea be 33 14 47 3e c3 bc 2c be e4 a3 47 3e
       -0.4579674 0.19441299 -0.16868882 0.19496113
000030 6b 42 e5 be 52 f2 55 be 06 02 56 be 75 b9 8b 3e
       -0.44777235 -0.20893219 -0.2089921 0.2728993
000040 3f 47 1c be f4 fa 1b be 8b 6c 1a 3e 20 d2 f4 be
       -0.15261553 -0.1523245 0.15080468 -0.47816563
000050 6e e9 c5 3e b3 29 db be bc be b9 3e 31 41 ec bd
       0.38654655 -0.4280525 0.3627833 -0.11535872
000060 37 fe ed be 95 ff 51 3e 95 09 0e bd 19 ef 9e 3d
       -0.46483013 0.20507653 -0.034677107 0.07760448
000070 0f d5 e4 3e cf e2 c7 3e 39 37 83 3e fa 8a ae 3e
       0.446938 0.3904023 0.2562807 0.34090406
000080 51 90 2c 3e 14 81 63 3a dc 47 ac be 78 6d f7 3e
       0.16851927 0.0008678597 -0.33648574 0.48325706
000090 38 ce bd 3e 5e e0 e4 3e 12 fc fc be d8 ec c4 bc
       0.37071395 0.4470243 -0.49411064 -0.024038717
0000a0 a7 a2 c2 bd e2 fc c2 bd 04 61 cf 3e 07 12 85 3e
       -0.0950368 -0.0952089 0.40503705 0.25990316
0000b0 02 89 da 3d be f4 70 3e c9 06 74 bc f0 45 f6 3e
       0.106706634 0.23530862 -0.014894196 0.48100233
0000c0 0d f4 00 be 9f 30 03 3f 9b 8e 7e 3e a5 b3 01 be
       -0.12593098 0.51246065 0.24859087 -0.12666185
0000d0 e8 24 e2 3d 17 44 7c 3e dd 4e 08 be 43 d8 1d be
       0.110421956 0.24635349 -0.13311334 -0.15414529
0000e0 7e dc 37 3d 07 58 9e 3e 38 e7 a5 b9 45 47 d1 be
       0.044888012 0.30926535 -0.00031643524 -0.40874687
0000f0 a7 7b 02 3f bd 09 07 3f e7 9d 24 3e df 46 81 be
       0.5096993 0.52749234 0.1607586 -0.25249383
000100 79 87 a7 3e 87 d3 16 3e ef 5c 06 3f 6c 75 dc be
       0.32720545 0.14729129 0.52485555 -0.43058336
000110 46 6b d9 be cc 5a ac be f9 b1 ac be 8f 7a 04 be
       -0.42464656 -0.33663023 -0.33729532 -0.12937377
000120 88 1f 9f 3e 29 4a 98 3e d9 df 01 bf 56 2f 4d 3e
       0.31078744 0.2974408 -0.5073219 0.20037588
000130 3b 9e b8 3e de a1 da 3e 02 a9 1a 3d 5e 3e 01 be
       0.3605822 0.4270162 0.037758835 -0.12621447
000140 89 e0 bb be f0 b1 b5 3e 64 be 0e bf ec e9 ac 3e
       -0.36694744 0.35487318 -0.55759263 0.33772218
000150 b8 d3 df bd af 07 d8 3e 4c e9 7a 3e b9 21 6e 3d
       -0.10929054 0.42193362 0.24503058 0.05813763
000160 4d 3a 08 3f 78 e0 e6 be c1 c7 50 3e 07 b8 89 3e
       0.5321396 -0.4509313 0.203887 0.26898214
000170 9d ce 78 bd 08 ee a5 be 3b 49 2a 3e ee 60 dd be
       -0.060743917 -0.32408166 0.16629498 -0.43238014
000180 22 38 3c 3e be 62 ab 3e 36 7d b8 bc 43 aa 86 3e
       0.18380788 0.33473772 -0.022520643 0.26301774
000190 31 cf 8a be 72 c0 aa 3d 3f 70 9a ba 04 95 17 3f
       -0.271112 0.08337487 -0.001178272 0.59211755
0001a0 33 2d b4 be 8c ff d2 37 e0 72 e2 3e 71 8b e9 be
       -0.35190734 2.515295e-05 0.44228268 -0.45614198
0001b0 34 ad 92 3e 58 4f 8f 3e 39 91 d6 be f3 d9 bc 3e
       0.28647768 0.27990222 -0.4190767 0.36885032
0001c0 f5 82 87 be 52 d2 d5 3d df 79 d7 bd e7 01 da bd
       -0.264671 0.10440506 -0.10521292 -0.10644894
0001d0 68 60 da bd dd a5 f7 3e fb d7 f7 b9 99 35 f6 be
       -0.10662919 0.4836873 -0.0004727243 -0.48087767
0001e0 2c cc 82 be ee e4 c9 be 75 45 ce be 0d c3 e6 3e
       -0.25546396 -0.39432472 -0.40287367 0.45070687
0001f0 b9 cf 64 3d da 90 e6 3e 1e ad fd bd dc 2b ed 3e
       0.055862162 0.45032388 -0.12386535 0.46322525
000200 0f be be be 5d cf e3 bd 65 b3 f7 be fc 6f 38 3e
       -0.37254378 -0.11123536 -0.48379055 0.18011469
000210 e3 4f dc 3e ed c7 9f bd 63 14 05 bb 04 40 68 be
       0.430297 -0.07801805 -0.002030634 -0.2268067
000220 70 e2 be 3e d3 5c d8 3e 94 f3 97 be 0b 34 98 be
       0.37282133 0.4225832 -0.29678023 -0.29727206
000230 7e ee 70 3e 3c 7a 7f 3e 69 37 f9 3d 4b 22 ba 3e
       0.23528478 0.24948972 0.12168772 0.36354288
000240 8a 48 85 3d a7 4d 01 3f ae a9 b4 be c8 71 a1 be
       0.06507976 0.50509113 -0.35285705 -0.3153212
000250 02 e5 de be 0c d7 b3 be e5 75 ef 3e 3f 36 d4 be
       -0.43534094 -0.35125005 0.46769634 -0.41447636
000260 5a 0a d4 be 99 5e 9c 3e 72 6d 80 be 12 f7 f7 be
       -0.41414148 0.30540922 -0.250835 -0.48430687
000270 2a 18 be 3e 20 06 fd be d5 22 57 3e a8 67 da bd
       0.3712781 -0.49418736 0.21009381 -0.10664302
000280 6f 68 42 be 47 e5 a0 3e 8b e6 ab 3e d2 92 07 bf
       -0.18985151 0.31424925 0.33574328 -0.52958405
000290 62 27 ff bd 6e d5 b3 bd 04 68 0c 3f 52 2b 3a 3e
       -0.124586836 -0.08780943 0.54846215 0.18180588
0002a0 a9 e5 e9 3d 2d 02 36 be 9c 4f 33 3d fe c6 5e bd
       0.11420757 -0.17774267 0.043777093 -0.054388992
0002b0 f2 c5 81 3e 65 25 82 3e 75 30 9f 3e 26 de 20 3e
       0.25346333 0.25419155 0.31091657 0.15709743
0002c0 70 1e c8 bc 31 13 b4 3e 7d f2 d5 bd 18 fe 9e be
       -0.024428576 0.35170892 -0.104466416 -0.31053233
0002d0 db cd b9 3e a2 1b 89 bd 04 bd 3e 3e be b9 45 3d
       0.36289868 -0.06694724 0.18626791 0.04827284
0002e0 49 a3 60 bd 38 1d 60 bd 8b 89 0f 3f 9e de 92 be
       -0.05484322 -0.054715365 0.5606925 -0.28685468
0002f0 8c b5 11 be c4 5b 7b 3e 59 9d 7b 3e ca 21 ba be
       -0.14229411 0.24546725 0.24571742 -0.36353904

conv1.bias f4 [64]
000000 1c e7 cd be 1c 4d 95 be 77 3c 66 3e 99 9e 3e be
       -0.40215385 -0.29160392 0.22484003 -0.18615188
000010 91 4f 39 3d 00 4b f8 3e f4 91 0c bf 99 04 e7 be
       0.045241896 0.4849472 -0.54910207 -0.45120695
000020 10 b4 49 3c 54 41 9d bd 5f 6a 5c bd 89 11 6c bd
       0.012310997 -0.07678476 -0.05381238 -0.05763391
000030 74 07 1b bf 7c 81 7f 3d f1 0e ef 3e 56 15 9e be
       -0.6055825 0.062379345 0.46691087 -0.30875653
000040 02 03 ad 3e ef 9e 59 3e bc 94 14 bf 7e 5e 13 be
       0.33791357 0.21252035 -0.5803945 -0.14391515
000050 b3 3a fa 3e 7f 7d cf 3d 11 fa c6 be c3 8d 63 be
       0.4887291 0.10131358 -0.3886266 -0.22222047
000060 7a 4b d5 3c 73 d3 98 be a8 2d a3 be e9 90 01 3e
       0.026036967 -0.29848823 -0.3187077 0.12652935
000070 bb ae f7 3e 3e c6 73 3e ad ac cc 3d ad 8b 96 be
       0.48375496 0.23806092 0.09993873 -0.2940344
000080 2b 36 45 3e 89 e8 c5 be c5 75 87 be c0 54 f8 be
       0.19258945 -0.38653973 -0.2645704 -0.4850216
000090 7a 82 0f bd 72 93 28 3f 93 87 0f be 64 4c 51 3d
       -0.03503654 0.65849984 -0.14016561 0.051098242
0000a0 3d 20 b8 be 83 ec ef be 20 35 b5 3e 5b 2b 92 be
       -0.35962096 -0.46860132 0.35392094 -0.28548703
0000b0 ad 16 ea be 17 a9 21 bf 84 c5 a2 3e c2 b8 8a 3e
       -0.45720425 -0.63148636 0.31791317 0.27094084
0000c0 14 13 9f be 51 b6 9e 3e 3f 59 1e be 50 0e 93 be
       -0.31069243 0.3099847 -0.15463732 -0.28721857
0000d0 e9 b7 f2 3e 5d 4d e7 3e 74 f3 77 3d e4 90 cb be
       0.47405937 0.4517621 0.06053491 -0.3975898
0000e0 de 6b 38 3e 38 18 4c be 11 ec e0 bd 78 b5 a9 be
       0.18009898 -0.19931114 -0.10982526 -0.33146262
0000f0 3c 72 19 3f 2c 7b e4 3d e6 e4 11 3e 33 c5 97 be
       0.5993993 0.11156306 0.14247474 -0.2964264

fc1.weight f4 [10, 960]
000000 e5 d9 f8 bc 71 66 89 3c f4 23 c2 3b c1 75 0e 3c
       -0.030377338 0.01677248 0.005924696 0.008695067
000010 a7 3d b0 3a 97 9b af 3c 25 b9 e5 3c 33 ba 13 bc
       0.0013446108 0.021436496 0.028042385 -0.009016561
000020 61 d0 80 bb 4f c4 c9 3c d8 3c 15 3d 05 e0 e4 bc
       -0.0039310907 0.02462974 0.03643498 -0.027938852
000030 e1 cc ef 3c c8 c2 6e bb 0b 77 82 3d 52 58 3f 3c
       0.029272499 -0.0036432017 0.06370362 0.011678772
000040 d0 39 c1 bc ac b3 45 3c 3e 7c cb ba 01 5a 17 3d
       -0.023587137 0.012066763 -0.0015524698 0.03695107
000050 c2 4f c7 3c d1 d1 8a 3c 0d 6e 11 3c e8 a4 82 3b
       0.024330024 0.016945751 0.008876336 0.0039869435
000060 98 1c b1 3c fa df 6d 3c de 0a 36 bc aa de cf ba
       0.02162008 0.014518732 -0.011110989 -0.0015859206
000070 ed ae 02 3c ee a4 a5 3c 69 13 2f bb 20 65 58 bb
       0.007976276 0.020220246 -0.002671445 -0.003301926
000080 3d f8 56 bc 93 ff 86 bb 9e ab 69 bd eb 6e e0 bc
       -0.013120708 -0.0041198223 -0.057048433 -0.02739664
000090 3e 72 ff bc bd 5f bf 3c de 06 16 bd 82 f1 60 bc
       -0.031182405 0.023361081 -0.036627643 -0.013729455
0000a0 e3 32 80 bc 53 40 ee 3c 2c 0f 8c 3c 3a 5b 2c 3c
       -0.015649265 0.029083407 0.017097078 0.010519797
0000b0 46 3f 79 bd f1 22 83 bc ea 7c f4 3c 74 7a bd 3c
       -0.060851358 -0.016007872 0.02984472 0.02312968
0000c0 ce dd 7d 3c 3b 61 a6 bc d2 71 08 3c 35 d4 82 3c
       0.015494777 -0.020310035 0.008327918 0.015970329
0000d0 95 7b 56 3c ae dd f9 bb f3 22 de 3c 5b 24 79 3d
       0.013090988 -0.007625303 0.027116274 0.060825687
0000e0 4d 01 8f bc b3 55 4c bb 9c 14 f6 3c 6e af 2a bb
       -0.017456675 -0.003117901 0.030039124 -0.0026044506
0000f0 fc 44 65 bc c9 b0 e1 bc f3 fa 73 3c 94 51 0b 3d
       -0.013993498 -0.027550118 0.014891374 0.034013346
000100 de b1 17 3b fe db 15 bd 64 bd ae 3c 19 98 01 bc
       0.0023146789 -0.036586754 0.021330543 -0.007909798
000110 bc 04 c0 3c a0 5d a5 bc 1c c2 b4 3b ad 42 18 bd
       0.023439758 -0.020186245 0.0055163037 -0.037172962
000120 3f c2 10 3d 70 22 bd bc 4c 8b 58 bd ec 95 e0 3c
       0.035341498 -0.02308771 -0.05286722 0.027415238
000130 2a 3e 74 bd fa 42 99 3c 50 e9 2b bc f2 d7 83 bd
       -0.059629597 0.018708695 -0.010492638 -0.06437673
000140 33 c7 59 bd 3d 85 27 3d 5d f0 1d 3d 44 b2 ff bc
       -0.053168487 0.04089855 0.038559306 -0.031212933
000150 22 0f 88 bc 1c 8a fa bb e0 6f 80 bc 18 8c 10 3d
       -0.016608778 -0.0076458585 -0.015678346 0.035289854
000160 0e 0b 00 bd 49 65 3c bd 4b 2f c8 bc 99 88 1b bc
       -0.031260543 -0.04599503 -0.024436614 -0.009493017
000170 0a 86 0c 3c 33 4f 92 bc ca c0 8a 3c 31 5f 38 3c
       0.008576879 -0.01786003 0.016937632 0.011253164
000180 85 da fd ba ca d3 cd bb 30 4b db bb 86 de 09 bc
       -0.0019367492 -0.0062813507 -0.0066923127 -0.00841487
000190 07 98 ae bb be b2 ec 3b b0 23 4c bd 26 5d 1e 3d
       -0.0053281817 0.007223456 -0.04983872 0.038663052
0001a0 34 dc 53 3c d5 c4 a5 bc d0 2e 54 bc 3e 45 b9 3c
       0.0129309185 -0.020235458 -0.012950614 0.022616025
0001b0 9a ad 9d bb ea e0 61 bc 8c 15 c2 3b ef 25 39 3d
       -0.0048119547 -0.013786534 0.0059229787 0.045202192
0001c0 67 4f ab bc 36 e1 31 bc 08 39 83 3b 1c f8 db 3c
       -0.020911885 -0.010856917 0.0040046014 0.026851706
0001d0 38 1b bd bc 86 66 8f 3a 9f 9a 82 bc 20 fb 36 ba
       -0.023084268 0.0010940589 -0.01594287 -0.00069801696
0001e0 0a 83 57 bc 14 fa a2 bc 6c 24 2b 3c 31 13 7a bb
       -0.013153801 -0.019894637 0.010445695 -0.0038158412
0001f0 ab 59 05 3d e1 bb ec bc ea 51 1b 3d 9b c7 1a 3c
       0.032556217 -0.028898181 0.037919916 0.009447004
000200 74 67 07 3d 0c 9c ce 3c 52 3a 02 3c 32 d4 5b 3c
       0.033057645 0.025220893 0.007948475 0.0134172905
000210 ba f5 c3 3a 50 6c d7 bc 6d 4d 8b 3c 75 f3 15 3d
       0.0014950552 -0.026296765 0.017004693 0.03660913
000220 f9 86 bc bb e5 f8 06 3d af 1a 0b 3c 23 ba d6 3a
       -0.0057533947 0.032952208 0.008490249 0.0016382377
000230 fc c5 15 bc 5e 70 70 3c f6 29 af 3c 34 cc c8 bc
       -0.009141441 0.014675228 0.021382313 -0.024511434
000240 b0 5c d7 3c e9 3f 21 bd 06 26 aa bc 9f 83 08 bd
       0.026289314 -0.03936759 -0.020770084 -0.03332865
000250 a9 2f cc 3b ce c8 39 3d 5b 7e c1 bc e1 c0 bb bc
       0.0062312675 0.045357518 -0.023619821 -0.02291912
000260 18 0e d7 bb b0 4e fb 3c 36 43 84 bc 14 d9 61 3a
       -0.0065629594 0.03067717 -0.01614533 0.0008615416
000270 3c c9 a3 bb 7f d4 be bc 93 54 a5 bc a9 1f 1d 3c
       -0.0049983542 -0.023294685 -0.02018193 0.009590068
000280 70 a5 b2 3c 25 a9 43 bc f7 4d 07 3c 1b 01 7a bc
       0.021807402 -0.011942183 0.008258334 -0.015259053
000290 11 e9 a6 3d f2 51 02 bd b6 a3 e4 bc 0d f6 1c 3c
       0.08149923 -0.03181643 -0.027910095 0.009580147
0002a0 ec c8 eb 3b c0 85 91 3b df 5f 97 3c 3c 1d 39 bd
       0.0071955826 0.004440993 0.018478332 -0.045193896
0002b0 4b e4 b8 bc 5b 68 75 bc 12 38 8c 3c 36 f4 51 bb
       -0.022569796 -0.014978494 0.01711658 -0.003203643
0002c0 a1 12 42 3d 8b 10 42 bc e1 c9 5a 3d 62 6a b7 3c
       0.047381047 -0.011844764 0.053415183 0.022389594
0002d0 f3 d5 48 3c 56 65 0d bd 75 c4 0e 3b 52 f3 ce 3b
       0.012258041 -0.03452047 0.0021784578 0.006315627
0002e0 3d 17 10 3d cd 4e a4 bc 15 88 3a bd 40 11 be bc
       0.03517841 -0.020057106 -0.045539934 -0.023201585
0002f0 d6 8c 53 3c 48 30 a2 bc 34 fd 21 bc 58 f8 5d bd
       0.012911996 -0.019798413 -0.0098870285 -0.054191917
000300 b7 35 0c 3d 36 45 7f 3c 4c 86 2f 3d ae fe 11 bb
       0.034230914 0.015580466 0.042852685 -0.0022277045
000310 d9 ce 81 3c ba 02 13 bc 97 ff 96 bc 7f 0d 17 bb
       0.015845703 -0.008972818 -0.018432422 -0.0023048816
000320 0e 63 e4 bb 44 d0 b9 bc c0 04 ae b9 29 79 d3 ba
       -0.006969816 -0.022682317 -0.00033191405 -0.0016134131
000330 91 5a c0 bc dc ed 1f bd 69 b9 87 3b 8c 5b 86 3c
       -0.023480685 -0.0390452 0.0041419757 0.016401075
000340 4a 88 61 bc dd f4 d1 bc 54 55 c4 3c 4b 11 db bc
       -0.013765404 -0.025629455 0.023966469 -0.026741644
000350 95 df a2 bc 12 cf 00 3d 43 7b 02 3d 65 5d 4f 3c
       -0.019882003 0.031447478 0.031855833 0.012656544
000360 bd 0b e9 bb 7b a2 d3 3c c1 08 8f bc 02 cf 7a 3c
       -0.007111995 0.025834313 -0.017460229 0.015308144
000370 84 5a 0f 3d 8b 7b 40 bd cc 38 57 bc 72 36 b2 bc
       0.03499843 -0.04699282 -0.0131361 -0.021754477
000380 94 39 68 3d 15 71 32 bc 96 b0 94 3c 3f 72 8c bc
       0.056695536 -0.010891219 0.018150609 -0.01714432
000390 c7 98 9f 3c 44 9b 31 bc f7 cd 35 3d d1 b4 e7 bc
       0.01948203 -0.010840241 0.044385877 -0.028284462
0003a0 df 11 4d bb dc d1 61 bc 86 f8 a9 bc bb 88 86 3c
       -0.003129117 -0.0137829445 -0.020748388 0.01642262
0003b0 a9 72 da 3a dc 50 e4 ba d2 07 0e bc ab 02 43 bc
       0.0016666251 -0.0017419118 -0.008668857 -0.011902492
0003c0 46 8a 34 bc f0 f7 23 3c 99 ea d5 3c b1 8a 54 bc
       -0.011019295 0.010007843 0.026112841 -0.01297252
0003d0 5f b2 aa bc c0 7c 29 bd 4b 92 14 bc c4 dd 3e 3b
       -0.020837007 -0.041378736 -0.009068082 0.0029123882
0003e0 ec 7d 3d 3b 0b ca 5f 3c 7b 60 4a bd ae ec f3 3c
       0.0028914167 0.013659011 -0.049408417 0.029775944
0003f0 10 bd 0b 3b ab 52 1c 3d f1 3e fb 3d 9f b0 5d bc
       0.0021322407 0.038164776 0.122678645 -0.013530879

fc1.bias f4 [10]
000000 7a 0e ea bd e3 0b 89 bd 3b 2d 4e 3d 56 50 ad 3d
       -0.114285424 -0.0669172 0.050336104 0.084625885
000010 e8 14 45 3d 3e e4 3b 3b 26 08 2c 3c 3b 49 09 3e
       0.04811564 0.0028669978 0.01049999 0.13406841
000020 bb dc a8 3d 91 bb 8c 3d
       0.08245226 0.06871713
