data/quanted_transformer_model/ffn_2/bias.npy (npy, 640 bytes, 1 tensors)

array f4 [128]
000000 91 bf bf bb e0 d1 fb 3b 94 1f a2 3c 15 d5 63 3c
       -0.005851694 0.007684931 0.019790448 0.013905783
000010 22 b8 1b bd 24 52 02 3c 9e 4f 1e bc 81 24 96 3b
       -0.0380174 0.007954154 -0.009662537 0.0045819883
000020 1e 45 13 bd a8 95 93 3c 44 23 d6 bc 76 91 9d ba
       -0.035954587 0.018015698 -0.026139863 -0.00120215
000030 61 9e 2f 3d a0 6d a4 3a 61 8b 5a bd 0b 03 a3 bc
       0.04287565 0.0012544878 -0.05335558 -0.019898912
000040 d6 c6 05 bd 34 45 3c 3a 14 b9 08 3d 19 9e cb bc
       -0.032660328 0.0007181943 0.03337963 -0.02485566
000050 59 5c 4b bd 4b ca a0 3c 00 22 c6 3c 92 08 c2 3b
       -0.049648616 0.01962771 0.024186134 0.005921432
000060 a0 d1 3e 3c 7c a0 04 bc bd e1 02 b9 ee bd 13 bd
       0.011646658 -0.008094903 -0.0001248186 -0.036069803
000070 0d 30 12 bc 15 16 46 bd 42 db 05 bc d3 de cf 3c
       -0.008922589 -0.048360903 -0.008169951 0.025374806
000080 d5 a8 d5 bc ed df dc 3c c9 ae 26 bd 29 5e e8 3b
       -0.026081482 0.026962245 -0.040694032 0.007091303
000090 da 15 59 3d 44 2f bc 3c 26 27 f2 bc 95 69 9f bc
       0.052999355 0.022971757 -0.029559683 -0.019459525
0000a0 b1 c6 4a bd 2e f0 2c 3d 9d a3 c6 bc 21 1e d4 3c
       -0.049505893 0.04222124 -0.024247939 0.025893273
0000b0 7c 55 f0 39 5c 6c 90 3c de f4 af 3c b6 64 c1 bb
       0.00045840058 0.017629795 0.021479066 -0.0059018983
0000c0 21 0d 1a 3d 95 eb d9 bc 6e ef 0a 3d 43 24 eb bb
       0.037610177 -0.026601592 0.033919744 -0.0071759536
0000d0 ab 20 5b 3b 23 38 f6 bc fc 32 06 3c d7 3f c1 3c
       0.003343622 -0.030056065 0.008190867 0.023590012
0000e0 85 d1 04 3d ba 89 80 3c b2 bf 92 3c ae a4 53 bd
       0.032426376 0.015690673 0.017913673 -0.051670723
0000f0 93 0f 53 3c c9 4f c9 bc f2 6c e7 bb 64 22 e5 bc
       0.012882131 -0.024574177 -0.007062548 -0.0279705
000100 26 19 29 3c c2 23 da 3c d6 e9 d0 bc be e3 28 bc
       0.010320937 0.026628379 -0.025502127 -0.010308204
000110 16 19 2a 3c b6 19 e8 bc e2 3f f2 3c 0f b9 a7 bc
       0.0103819575 -0.028332572 0.029571477 -0.020473985
000120 9d b7 44 bc a5 a6 02 3d 39 73 a5 3c e9 34 45 3c
       -0.012006667 0.031897206 0.020196544 0.012036541
000130 dc bc f1 bc 1d 03 42 3c 11 44 c9 bc 23 73 17 3b
       -0.029509 0.011841563 -0.02456859 0.0023109398
000140 60 1a 03 bd ba 57 77 3c 39 ee 58 bd 5d f0 29 bd
       -0.032007575 0.015096599 -0.05296156 -0.041488994
000150 04 7a 9a 3c f6 e9 ef 3c 36 04 34 3a d0 0f 38 bc
       0.01885701 0.029286366 0.00068670826 -0.011234239
000160 dd 70 13 bd df a9 2f bb 1f 3a 73 bc 19 ca 8f bc
       -0.035996307 -0.0026804132 -0.0148454 -0.017552422
000170 11 3a ba 3a f8 01 56 bc f1 03 b1 3c 75 db 18 bc
       0.0014207979 -0.013061993 0.021608325 -0.009329666
000180 9b a7 78 bc a2 51 94 bc 03 06 e1 3c 7f 46 a5 3c
       -0.015176679 -0.018105332 0.027468687 0.020175217
000190 20 ba 6f 3d 75 86 10 bd 54 e9 00 3b 5a 5f 9e 3c
       0.058527112 -0.03528448 0.0019670324 0.019332577
0001a0 d9 2f d2 bc 55 1b e8 bb b7 13 b4 3c 37 55 2b 3d
       -0.025657581 -0.0070833364 0.021982057 0.041829314
0001b0 dd 30 06 bc bc 52 af 3c 6c a9 0a bd de 53 c6 3c
       -0.008190361 0.021401756 -0.03385298 0.024209913
0001c0 03 c0 27 bb ee e4 47 bc 0e 4d dd bb f1 16 ea 3b
       -0.0025596626 -0.012200577 -0.0067535704 0.007143848
0001d0 bc 5d bb 3c ae 44 a6 3c bd 9f 97 bc 11 97 03 3d
       0.022871844 0.02029642 -0.018508786 0.03212649
0001e0 c0 ee 8b 3c 4f 5a 33 3d 50 2f fd 3c 85 eb d8 bc
       0.017081618 0.043787297 0.03090635 -0.026479492
0001f0 ad 92 5e bd 74 c2 3d 3c 4a 1d 97 3c 51 30 08 3d
       -0.0543391 0.011582006 0.018446583 0.033249203
