data/quanted_transformer_model/ffn_2/weight.npy (npy, 65664 bytes, 1 tensors)

array i1 [128, 512]
00000000: b26b 3a19 dddf b1be 0b6c 38e1 a923 b343
00000010: 013e 2f9f 5330 ddc3 fc07 f59f 9ffc 012f
00000020: c8d4 2717 2340 cad9 4927 0450 4ec9 9feb
00000030: e8d6 bd52 e838 25c8 2ac6 3dfd 0eef dfe3
00000040: 0a37 176a 20fb 2c38 e0b9 29c8 08d9 3c5a
00000050: 6659 0500 6223 a4d9 a748 dd3a 5aba 04eb
00000060: eb04 2109 ced1 9fde 02ee 164a d8eb 0f13
00000070: bbb6 e211 3164 f9e7 d943 f45b bbcb 9620
00000080: 5fdb ca22 66bd 3362 1a24 3cdb 2f2d 2bd1
00000090: de49 2b33 0bd9 4206 431e ba49 50f0 fd46
000000a0: db49 49ae f2f0 d5e8 253e 224d 2701 3f64
000000b0: b8e4 cbf0 e6dd a038 6701 a836 afe1 c5dd
000000c0: 46ea e3e6 3a47 c16c 3262 fb3e 51dd 53e4
000000d0: 3e9c f52e 2157 da5d 27e9 b8a3 2298 33ad
000000e0: 03a5 5206 e5da 2bb7 4bb9 2330 1f0b fde5
000000f0: 0aed 3c56 c5dd ddec e823 ccb3 e90e 4831
-78 107 58 25 -35 -33 -79 -66
11 108 56 -31 -87 35 -77 67
1 62 47 -97 83 48 -35 -61
-4 7 -11 -97 -97 -4 1 47
-56 -44 39 23 35 64 -54 -39
73 39 4 80 78 -55 -97 -21
-24 -42 -67 82 -24 56 37 -56
42 -58 61 -3 14 -17 -33 -29
10 55 23 106 32 -5 44 56
-32 -71 41 -56 8 -39 60 90
102 89 5 0 98 35 -92 -39
-89 72 -35 58 90 -70 4 -21
-21 4 33 9 -50 -47 -97 -34
2 -18 22 74 -40 -21 15 19
-69 -74 -30 17 49 100 -7 -25
-39 67 -12 91 -69 -53 -106 32
95 -37 -54 34 102 -67 51 98
26 36 60 -37 47 45 43 -47
-34 73 43 51 11 -39 66 6
67 30 -70 73 80 -16 -3 70
-37 73 73 -82 -14 -16 -43 -24
37 62 34 77 39 1 63 100
-72 -28 -53 -16 -26 -35 -96 56
103 1 -88 54 -81 -31 -59 -35
70 -22 -29 -26 58 71 -63 108
50 98 -5 62 81 -35 83 -28
62 -100 -11 46 33 87 -38 93
39 -23 -72 -93 34 -104 51 -83
3 -91 82 6 -27 -38 43 -73
75 -71 35 48 31 11 -3 -27
10 -19 60 86 -59 -35 -35 -20
-24 35 -52 -77 -23 14 72 49
