data/npy_layer_weights/ffn_0_weight.npy (npy, 528 bytes, 1 tensors)

array f4 [20, 5]
-0.067917526 -0.1848866 -0.20752577 -0.4791959 0.003773196 0.070322074 0.22101223 0.29886883
-0.31896085 -0.08287959 0.17137821 0.20184544 -0.48366737 0.38845727 -0.338948 0.0058674784
-0.30804262 -0.24643409 0.2757715 -0.37258488 -0.33930492 -0.43569836 -0.069403276 -0.48967868
0.20435409 -0.2542428 0.43051785 -0.09830722 -0.41017842 -0.22712359 -0.33058366 0.108850725
-0.5120016 0.0483781 -0.2902686 -0.423012 0.029977227 -0.3064339 -0.3264187 0.3197571
0.28026998 0.16879897 0.16561408 0.40448055 -0.36944678 -0.26370355 -0.037671935 0.11301581
0.26579642 0.04395059 -0.23511842 0.28736696 0.19157797 -0.36864248 0.12771866 0.40754217
-0.53358614 -0.10923811 -0.04201466 0.5167803 -0.11064126 -0.05532063 -0.10309754 0.19362222
-0.31935093 0.0 0.09917131 0.46647245 0.05142216 0.18365057 -0.381424 0.40430945
-0.4844085 -0.34709585 0.02669968 0.4293676 0.20285083 0.41246337 -0.19946998 -0.3516081
-0.017050344 0.17050344 -0.1832912 0.46888447 -0.54134846 -0.26141918 0.27578288 0.25854644
-0.3246194 0.36483777 -0.060731106 -0.4001108 -0.36795905 0.4536971 0.14646913 -0.37202358
0.4415607 0.361593 0.041722268 0.0069537116
00000000: 5818 8bbd ea52 3dbe a381 54be 2a59 f5be
00000010: b947 773b 0505 903d 0851 623e 5605 993e
00000020: d64e a3be c6bc a9bd c57d 2f3e 92b0 4e3e
00000030: 40a3 f7be dfe3 c63e 988a adbe fa43 c03b
00000040: c3b7 9dbe 3859 7cbe ec31 8d3e 72c3 bebe
00000050: 60b9 adbe db13 dfbe 4e23 8ebd 2ab7 fabe
00000060: 3342 513e 1d2c 82be d66c dc3e 4c55 c9bd
00000070: e802 d2be 1693 68be 4342 a9be 21ed de3d
00000080: 8912 03bf 1d28 463d 169e 94be 0795 d8be
00000090: cd92 f53c e7e4 9cbe 5a20 a7be 34b7 a33e
000000a0: 8c7f 8f3e a3d9 2c3e bd96 293e 1318 cf3e
000000b0: 2128 bdbe 2704 87be e34d 1abd d574 e73d
000000c0: 7816 883e 8905 343d e2c2 70be c321 933e
000000d0: 042d 443e b5be bcbe aec8 023e 5ea9 d03e
000000e0: 1a99 08bf 3bb8 dfbd 9017 2cbd b74b 043f
000000f0: e397 e2bd e397 62bd ce24 d3bd e744 463e
00000100: f781 a3be 0000 0000 541a cb3d 7ad5 ee3e
00000110: 0ba0 523d e50e 3c3e 024a c3be a601 cf3e
00000120: 6404 f8be 8cb6 b1be 4ab9 da3c 12d6 db3e
00000130: 21b8 4f3e 662e d33e dc41 4cbe fa05 b4be
00000140: 2aad 8bbc 7498 2e3e b0b0 3bbe a011 f03e
00000150: d095 0abf bcd8 85be 6a33 8d3e 3360 843e
00000160: 8434 a6be 04cc ba3e 2ec1 78bd 53db ccbe
00000170: 2165 bcbe fc4a e83e 01fc 153e e079 bebe
00000180: 3e14 e23e b822 b93e f8e4 2a3d f6db e33b
