data/npy_layer_weights/ffn_2_weight.npy (npy, 528 bytes, 1 tensors)

array f4 [5, 20]
000000 72 6e 6f be a8 0d 5e be d4 91 eb bd 0c 32 a2 bd
       -0.23381975 -0.21684897 -0.11502424 -0.07919702
000010 3f d0 48 bd 98 d9 2b 3e 3f d0 48 be 72 6e 6f bd
       -0.049026724 0.16782224 -0.1961069 -0.05845494
000020 61 39 75 be 90 bf 92 3d 86 a4 b1 3d 04 18 09 be
       -0.2394767 0.07165444 0.086739585 -0.13388067
000030 53 06 8b 3d a8 0d 5e be 3f d0 48 bd aa 0e 26 be
       0.067883156 -0.21684897 -0.049026724 -0.16216531
000040 e0 ad 14 be a2 f4 0c be 7c 89 50 be 96 d8 e3 bd
       -0.14519453 -0.13765195 -0.20364946 -0.11125295
000050 5a 8b f3 3c 8c c0 1a be 7c eb 03 3d 7c eb 83 bd
       0.029729534 -0.15112513 0.032206997 -0.064413995
000060 00 4a 9d bd 5a 8b f3 3b 2d 18 a1 be 4a 11 0e be
       -0.0768013 0.0074323835 -0.31463757 -0.13873783
000070 29 b1 fd bd 4a 11 0e bd a5 ad 15 3e 42 9e f8 3d
       -0.12387306 -0.034684457 0.14617021 0.1213956
000080 ef 19 55 bd 8c 65 69 3e 52 ce c0 bd 31 c9 61 be
       -0.052026685 0.22792643 -0.094143525 -0.22049405
000090 be 3f 5f be 4a 11 8e bd 21 f4 4a 3c 63 fe 88 3d
       -0.2180166 -0.069368914 0.012387306 0.066891454
0000a0 a3 a5 8b be 21 47 15 be 9b 2b b2 3d 5e b9 23 3e
       -0.27274808 -0.14577915 0.08699723 0.1598868
0000b0 5e b9 23 3e d8 9d c0 bd 52 82 5d bd 44 3d 09 3e
       0.1598868 -0.09405106 -0.05407936 0.13402277
0000c0 ba 64 39 3e dc 5a ad 3c 8b 37 7f be 02 0e 0e be
       0.1810483 0.02116149 -0.24923532 -0.13872531
0000d0 1d 8a a8 3d dc 5a 2d 3e a3 a5 8b be 84 6c 04 be
       0.08229468 0.16929191 -0.27274808 -0.1293202
0000e0 b0 e3 98 3e fe 50 21 be 52 82 dd bd d0 23 e7 3b
       0.29861212 -0.15753552 -0.10815872 0.0070538297
0000f0 19 a1 8c 3e 77 2a 12 be 36 2e ef 3d a4 76 5d bd
       0.27466658 -0.14274012 0.11678736 -0.054068223
000100 60 89 68 3e 72 3e 3c be bb 17 07 be 92 bc 0d bb
       0.22708654 -0.18383196 -0.13192646 -0.002162729
000110 17 ab 21 be d7 a9 02 be d7 a9 82 3e 0d d3 75 3e
       -0.15787922 -0.12760101 0.25520203 0.2400629
000120 c0 08 d9 bd ed 4f 28 3d e4 72 80 3e 36 2e 6f bd
       -0.10597372 0.04109185 0.25087655 -0.05839368
000130 b6 2b b1 3d 2d 51 c7 bd 50 c5 83 3e 12 bf 4b 3d
       0.08650915 -0.0973228 0.25736475 0.049742766
000140 92 4d 79 3d 7e 55 df bd 5f 61 38 3e a5 c0 cf 3c
       0.060864992 -0.10904978 0.18005894 0.025360415
000150 a5 c0 cf bd b7 33 26 3d a5 c0 4f be 88 51 6c be
       -0.10144166 0.040576663 -0.20288332 -0.23077977
000160 ad 37 19 3e e8 9a a3 be 50 e7 a4 be 05 0a 87 bd
       0.14962645 -0.31954122 -0.32207727 -0.06593708
000170 de 9e 96 bd 1c 87 64 bd 1c 87 64 3d 30 7f fe bd
       -0.0735452 -0.055792913 0.055792913 -0.12426603
000180 f2 96 30 be 2e fa 3a 3d f2 96 30 bd 7e 55 df bd
       -0.17245081 0.045648746 -0.043112703 -0.10904978
