data/npy_layer_weights/self_attn_in_proj_weight.npy (npy, 428 bytes, 1 tensors)

array f4 [15, 5]
00000000: 1cb2 ec3e 0045 d53b 3052 08bf 7c7f f33e
00000010: 542b d23e e60d ae3e 8060 b93d 3856 ad3d
00000020: 70db 1c3e 72eb 16be c2c4 f7be cc40 c2bd
00000030: b4b6 b4bd 5609 23be 9c3f 473e d024 6fbd
00000040: f5ed 8bbe 76a2 c83e 2c9a e9be 9e69 86be
00000050: b217 d8be bcaf d53e 442f b2bd 2818 1fbe
00000060: c86f aabd becb d93e 3566 92be 5cda f83e
00000070: 10ef 24bd 4c64 7a3e 4c08 80bd 44d9 4b3e
00000080: a090 123e 10d3 233e faac 07bf b8e4 97be
00000090: 34d1 f03e fc11 0bbe 2481 8dbd f4f8 633e
000000a0: 08b2 a73d 64cb 67be e885 273e d900 0abf
000000b0: 68d4 97be f8d5 0dbe 5c8a 9bbe 1e84 b43e
000000c0: 0078 e7b9 a047 f13c 859a 1c3f 471b f8be
000000d0: d943 033f cd16 94be 6110 ddbe ad56 933e
000000e0: b2dd 923e 4d22 903e 6435 173e 158a c7be
000000f0: b77e b7ba bf97 003f a4d7 143f af10 cabe
00000100: 5921 953e 20d9 4d3e e581 df3e a155 94be
00000110: 0271 d13e ced7 45be 955a ba3d b3dd 01bd
00000120: 0192 8bbe c2d5 a9be 4cae bf3e
0.46229637 0.0065084696 -0.5325041 0.475582 0.41048682 0.3399498 0.09051609 0.084637105
0.15318084 -0.14738253 -0.48392302 -0.09485015 -0.0882391 -0.1592153 0.19457859 -0.058384717
-0.27329984 0.39186448 -0.45625436 -0.26252455 -0.42205578 0.41735637 -0.087004215 -0.15536559
-0.08322102 0.42538255 -0.28593603 0.48604095 -0.04026705 0.24452323 -0.062515825 0.19907099
0.14312983 0.15998483 -0.52998316 -0.29666686 0.4703461 -0.13581079 -0.06909397 0.22262937
0.08188254 -0.22636181 0.16359675 -0.53907543 -0.2965424 -0.13851154 -0.30378997 0.35257047
-0.0004414916 0.029453099 0.6117328 -0.4845831 0.512754 -0.28923646 -0.4317656 0.28777066
0.28684765 0.2815117 0.1476646 -0.38972536 -0.0013999556 0.50231546 0.5814154 -0.39465854
0.29127005 0.20102358 0.4365379 -0.2897158 0.4090653 -0.19320604 0.090993084 -0.03170557
-0.2725983 -0.33170897 0.37437665
