data/quantized_weights_npy/self_attn_in_proj_weight.npy (npy, 428 bytes, 1 tensors)

array f4 [15, 5]
0	0x3ef20e50	0.47276545
1	0x3eb3a538	0.3508699
2	0x3ec65aa8	0.3874104
3	0x3ed30784	0.4121667
4	0xbde442d8	-0.11145562
5	0xbeb286cb	-0.34868464
6	0xbf01056a	-0.50398886
7	0xbee9cedc	-0.45665634
8	0x3ec95b5a	0.39327508
9	0x3edbfaa6	0.42964667
10	0xbe79cc2c	-0.24394292
11	0xbef2af39	-0.4739931
12	0x3ea861ea	0.32887203
13	0x3d1ecbd0	0.03876859
14	0x3ef3973c	0.4757632
15	0xbf075cd8	-0.52876043
16	0xbe3a0558	-0.18166101
17	0xbe7bfa44	-0.24607188
18	0x3db7d098	0.08975333
19	0xbd2f3080	-0.042770863
20	0xbcc30ce0	-0.02380985
21	0xbb8e5600	-0.004343748
22	0x3e4fe940	0.20303822
23	0xbef06424	-0.469514
24	0xbeb7de94	-0.35912
25	0xbe60fddc	-0.2197184
26	0xbddc0c68	-0.10744554
27	0x3d5b7a00	0.053583145
28	0x3e516794	0.20449668
29	0xbe0df826	-0.13864192
30	0xbedc9a18	-0.43086314
31	0x3e8f7f60	0.28026867
32	0xbd0c0ec0	-0.034193754
33	0xbe88ded5	-0.26732507
34	0xbe1d5b40	-0.1536684
35	0x3e0cf3fc	0.13764948
36	0xbdca9930	-0.098924994
37	0x3cbca380	0.023027182
38	0x3e7dde24	0.24791771
39	0xbedb9f54	-0.42894995
40	0x3ec59536	0.385904
41	0xbe8ca9a9	-0.2747319
42	0x3f06f662	0.527197
43	0xbe268c82	-0.16264537
44	0x3e6a7524	0.22896248
45	0xbea6cabc	-0.3257655
46	0xbebe0d36	-0.37119454
47	0xbe93199f	-0.28730485
48	0xbef3251e	-0.47489256
49	0x3e31ad00	0.1735115
50	0x3d6661d7	0.05624565
51	0x3eecc801	0.4624634
52	0xbe60e4c0	-0.21962261
53	0xbea2534a	-0.3170417
54	0xbf184134	-0.5947449
55	0xbd350c88	-0.044201404
56	0x3e7bf361	0.2460456
57	0x3ed328d3	0.41242084
58	0x3ea899f8	0.3292997
59	0xbf153dca	-0.5829741
60	0xbf2a08e3	-0.6641981
61	0xbd64bfa5	-0.05584683
62	0xbe81171f	-0.25212952
63	0x3f18dfee	0.5971669
64	0xbecff53c	-0.40616786
65	0x3eea6728	0.45781827
66	0xbe9bc553	-0.30423984
67	0xbdd04e51	-0.10171188
68	0xbf1683f7	-0.5879511
69	0x3f0eaa54	0.5572865
70	0x3e720258	0.23633707
71	0xbcc81d43	-0.024428016
72	0x3d263ce3	0.04058541
73	0x3e1a0ed3	0.15044717
74	0x3e69537f	0.22785757
