data/quanted_transformer_model/ffn_0/bias.npy (npy, 2176 bytes, 1 tensors)

array f4 [512]
0	0xbd812493	-0.06305804
1	0xbd9f4822	-0.0777743
2	0x3b1b7513	0.0023720905
3	0x3d90cd30	0.070703864
4	0x3d69b4b4	0.057057098
5	0x3d1a9f0a	0.037749328
6	0xbca74caa	-0.020422298
7	0x3d48dcf8	0.049038857
8	0xbd75722c	-0.059923336
9	0xbca1452e	-0.019686308
10	0xbaf591fa	-0.0018735521
11	0x3c844ff7	0.016151411
12	0x3c8b46cd	0.017001534
13	0x3d4b4d1e	0.04963409
14	0xbd77c8c9	-0.060494218
15	0x3d476e59	0.04868922
16	0xbd32f36b	-0.043689173
17	0xbd8bf5b8	-0.068339765
18	0xbcacaba0	-0.02107793
19	0x3d7fdd60	0.06246698
20	0xbcb21492	-0.021738324
21	0x3d50206b	0.050812166
22	0x3d50240c	0.050815627
23	0xbd39aeba	-0.045332648
24	0x3da50494	0.08057514
25	0xbc58177c	-0.013189193
26	0x3d1290a5	0.035782475
27	0x3cbbccad	0.022924745
28	0x3c0e48c2	0.008684339
29	0xbcf1b215	-0.029503861
30	0xbb4ccfd3	-0.0031251803
31	0xbdb82b75	-0.08992664
32	0x3d34e081	0.044159416
33	0x3d98d53e	0.07462548
34	0xbd57e51e	-0.052708738
35	0xbd97026c	-0.07373509
36	0x3a9c6764	0.0011932668
37	0xbdb73fd6	-0.089477226
38	0x3da1cbc1	0.07900191
39	0xba9da8ae	-0.001202842
40	0x3dc6f627	0.097149186
41	0xbd41a457	-0.047275867
42	0x3c0a363c	0.008435782
43	0x3d33c726	0.043891095
44	0xbce594f1	-0.028025122
45	0xbd9d8a01	-0.07692338
46	0xbd2cdbec	-0.04220192
47	0xbd59493b	-0.053048354
48	0x3db81205	0.08987812
49	0x3d760509	0.060063396
50	0xbd3852ad	-0.04500072
51	0xbd1b9ccd	-0.037991334
52	0x3ca01637	0.019541843
53	0x3cc865b8	0.024462566
54	0x3ac5df3e	0.0015096439
55	0x3bfa26c9	0.007634018
56	0xbc2f40ae	-0.010696573
57	0x3d039907	0.03212836
58	0x3c814d35	0.015783885
59	0xbdbf139a	-0.093299106
60	0xbc28980b	-0.010290156
61	0x3cc2bf26	0.023772787
62	0x3d90f9f2	0.07078923
63	0xbce77d13	-0.028257882
64	0x3d254601	0.040349964
65	0xbd26bf63	-0.040709864
66	0x3d3aa2ee	0.045565538
67	0x3b9414c5	0.0045190775
68	0xbd7486ef	-0.059698995
69	0x3cae0073	0.021240449
70	0xbd432bf5	-0.047649343
71	0xba558109	-0.0008144533
72	0x3db90e22	0.09035899
73	0xbca0dd73	-0.019636845
74	0xbd92a3a7	-0.071601205
75	0x3cade49f	0.02122718
76	0x3cf87cae	0.03033289
77	0x3d518112	0.05114848
78	0xbcb47f66	-0.022033405
79	0xbd130baa	-0.035899796
80	0xbc23447f	-0.009965061
81	0xbce74d2a	-0.028235037
82	0xbca5a3a9	-0.02021964
83	0x3bac19f6	0.005252118
84	0x3cdbacb6	0.026815753
85	0xbd638d5d	-0.055554736
86	0x3b5d8e69	0.0033806807
87	0xbda1e62c	-0.0790523
88	0xbdaae463	-0.083443426
89	0x3dbd9935	0.092577375
90	0x3da09187	0.07840257
91	0x3d823bd1	0.06359065
92	0x3c8cb6df	0.017177043
93	0x3d537791	0.0516277
94	0x3baadc79	0.0052142707
95	0x3d2bec01	0.041973118
96	0x3d4a4a2a	0.049387135
97	0x3dcbffd2	0.09960903
98	0x3dbeef14	0.09322944
99	0x3d8f87e7	0.07008343
100	0x3cb39a2e	0.021924105
101	0x3d8a60ff	0.06756782
102	0x3c41b001	0.011821748
103	0x3dc486f4	0.09596053
104	0x3cf1768f	0.029475478
105	0xba9b1c7d	-0.0011834052
106	0x3d92184c	0.071335405
107	0x3cc5acf9	0.024130331
108	0xbd978a73	-0.07399454
109	0x3dc764c0	0.097360134
110	0xbce69f78	-0.028152213
111	0xb98518a0	-0.00025386084
112	0x3d69a3e9	0.057041083
113	0x3d9ad3d7	0.075599365
114	0x3d2bcda1	0.04194415
115	0x3d4f5e30	0.050626934
116	0xbd8cd05c	-0.06875679
117	0x3db6be29	0.08922989
118	0x3d236f4d	0.039901067
119	0x3dafac78	0.08577818
120	0x3dc934a7	0.09824496
121	0x3d41fc9c	0.047360048
122	0x3d920838	0.07130474
123	0x3b406b1a	0.0029360713
124	0xbd9817e6	-0.07426433
125	0x3dcb198d	0.09916983
126	0x3cb9f419	0.022699403
127	0x3b3b0f33	0.0028542995
128	0xbcb13461	-0.021631422
129	0x3d483909	0.048882518
130	0x3d67048f	0.05640083
131	0x3d1a593f	0.037682768
132	0x3d0ac360	0.03387773
133	0x3d8482d9	0.0647027
134	0xbc8fa385	-0.017534027
135	0xbd40cecc	-0.047072217
136	0x3c9a723a	0.018853296
137	0xbd0e4b90	-0.03474003
138	0x3c4e8622	0.012605222
139	0xbd83bb7f	-0.064322464
140	0xbd3ad2bc	-0.04561113
141	0xbd34bd31	-0.04412574
142	0xbd709191	-0.058732573
143	0xbd5751c5	-0.052568216
144	0x3d43f065	0.04783668
145	0x3cc1d5a3	0.02366144
146	0xbd77531b	-0.06038199
147	0xbd233568	-0.039845854
148	0x3dce44e0	0.100717306
149	0x3d98e28e	0.07465087
150	0xbd9a3c8f	-0.07531082
151	0x3ce05d5c	0.027388267
152	0xbd928039	-0.07153363
153	0x3da3a070	0.079895854
154	0xbd874354	-0.06604639
155	0xbd1e9bef	-0.03872293
156	0xbd7f064e	-0.062261872
157	0x3b117fe3	0.002220147
158	0xbd4bb136	-0.04972955
159	0x3d8a8c33	0.06765022
160	0xbd58b7b5	-0.05290957
161	0x3dac2b8e	0.08406745
162	0x3cc7f43e	0.024408456
163	0xbc3bbd75	-0.011458744
164	0xbd2f2f06	-0.042769454
165	0x3d51c990	0.051217616
166	0x3d1f18bb	0.038841944
167	0xbb2b1a43	-0.0026108183
168	0x3c90a11c	0.017654948
169	0xbb2d2934	-0.0026422264
170	0xbd571ace	-0.052515797
171	0x3c7140e7	0.014724947
172	0x3d59c7db	0.053169113
173	0x3dd96609	0.10615165
174	0x3c492bdf	0.012278526
175	0x3ca4b730	0.020106882
176	0xbdbacb2e	-0.09120785
177	0xbdb08053	-0.08618226
178	0xbc64714a	-0.013943026
179	0xbd7621eb	-0.06009094
180	0x3cd3ee17	0.025870366
181	0x3d07df60	0.03317201
182	0x3d45634d	0.048190404
183	0x3d18cf54	0.0373071
184	0xbd6c56d5	-0.057699997
185	0x3c028719	0.00796678
186	0x3cb65b35	0.022260288
187	0x3d93e0d7	0.07220619
188	0xbcb21e04	-0.021742828
189	0xbd14adfd	-0.03629874
190	0x3bdbbb44	0.0067056734
191	0x3c9ab71d	0.018886143
192	0x3d4b0bbf	0.04957175
193	0x3da67167	0.081270985
194	0xbc40273a	-0.011728102
195	0x3db3f24d	0.087864496
196	0x3da768b2	0.08174266
197	0x3c769d76	0.01505219
198	0x3d51fd6a	0.051267065
199	0xbda03c83	-0.07824042
200	0xbc8662b1	-0.016404482
201	0x3c4c7f53	0.012481528
202	0xbc739d32	-0.014869021
203	0x3b1be56a	0.0023787864
204	0xbd028c3b	-0.031872015
205	0xbd433a52	-0.04766304
206	0x3c393d59	0.01130613
207	0xbd36eaea	-0.044657625
208	0x3cf5c46f	0.030000893
209	0x3c84aa09	0.01619436
210	0x3d11018d	0.03540187
211	0xbd228b9a	-0.039683916
212	0xbdb1cf5c	-0.08682129
213	0x3c39f4f9	0.01134991
214	0xbd920dd4	-0.07131544
215	0x3d7748d9	0.060372207
216	0xbdacc5f7	-0.08436196
217	0x3d97f9fb	0.07420727
218	0xbd8639e4	-0.065540105
219	0xbcf1b6ec	-0.02950617
220	0x3d8ea21f	0.06964516
221	0x3d73a42c	0.05948274
222	0x3c627f6b	0.013824324
223	0x3d8e68b4	0.06953564
224	0x3cd9dfa1	0.026595892
225	0xbd7389e0	-0.05945766
226	0xbc8f0627	-0.017458988
227	0xbc5380e9	-0.012909153
228	0x3d664273	0.056215715
229	0x3bc9860e	0.006150014
230	0x3c449e40	0.01200062
231	0x3bebcce6	0.0071960567
232	0x3d1ea604	0.038732544
233	0x3d9f0b6a	0.07765849
234	0xbcf783f6	-0.030214291
235	0xbafcc550	-0.0019284878
236	0xbd2a93d1	-0.041644875
237	0x3dc4d502	0.096109405
238	0x3d9f6654	0.077831894
239	0x3da46d6b	0.08028682
240	0xbd41f477	-0.04735228
241	0xbc99b25c	-0.018761806
242	0x3c85e458	0.016344234
243	0x3b61ba5f	0.0034443361
244	0xbd0035d4	-0.031301335
245	0x3d28408a	0.041077174
246	0xbbb6468a	-0.005562608
247	0x3d3f205f	0.04666173
248	0xbd1af460	-0.03783071
249	0x3ca16f8c	0.01970651
250	0x3da5adbb	0.08089777
251	0x3d85f4a7	0.06540804
252	0xbd376238	-0.044771403
253	0x3d2827f8	0.041053742
254	0x3d7757cb	0.06038646
255	0x3d607f89	0.054809127
