data/quanted_transformer_model/ffn_0/weight.npy (npy, 65664 bytes, 1 tensors)

array i1 [512, 128]
0	0xc7	-57
1	0x12	18
2	0x5b	91
3	0x5a	90
4	0xae	-82
5	0xee	-18
6	0x09	9
7	0x16	22
8	0xf2	-14
9	0x7f	127
10	0x73	115
11	0x78	120
12	0x83	-125
13	0xc6	-58
14	0x0c	12
15	0xbe	-66
16	0xc2	-62
17	0xc5	-59
18	0xc0	-64
19	0x61	97
20	0x06	6
21	0xcb	-53
22	0x3d	61
23	0x3c	60
24	0x03	3
25	0x33	51
26	0x43	67
27	0xe6	-26
28	0xd7	-41
29	0xa6	-90
30	0x5b	91
31	0x8f	-113
32	0x99	-103
33	0xe1	-31
34	0x86	-122
35	0x2e	46
36	0x91	-111
37	0xa0	-96
38	0xd2	-46
39	0xe3	-29
40	0x5f	95
41	0x41	65
42	0x69	105
43	0x4b	75
44	0x50	80
45	0x16	22
46	0x16	22
47	0xbf	-65
48	0x54	84
49	0x41	65
50	0x09	9
51	0x3a	58
52	0xa3	-93
53	0xbb	-69
54	0x9b	-101
55	0xc8	-56
56	0x24	36
57	0xb9	-71
58	0xcf	-49
59	0xed	-19
60	0x9b	-101
61	0x13	19
62	0x84	-124
63	0x32	50
64	0x5c	92
65	0xfb	-5
66	0x16	22
67	0xce	-50
68	0x66	102
69	0x61	97
70	0xc5	-59
71	0x95	-107
72	0xe4	-28
73	0x7d	125
74	0x29	41
75	0xc0	-64
76	0x5a	90
77	0x77	119
78	0xe4	-28
79	0x39	57
80	0x4a	74
81	0x29	41
82	0x00	0
83	0x95	-107
84	0xfb	-5
85	0xbd	-67
86	0xdb	-37
87	0x39	57
88	0x58	88
89	0x05	5
90	0x4b	75
91	0xa4	-92
92	0x10	16
93	0xf3	-13
94	0x91	-111
95	0xf9	-7
96	0xbd	-67
97	0xc9	-55
98	0x7d	125
99	0x44	68
100	0xe0	-32
101	0x0f	15
102	0x57	87
103	0x01	1
104	0xc4	-60
105	0xa5	-91
106	0xb7	-73
107	0x84	-124
108	0xe8	-24
109	0x3a	58
110	0x1d	29
111	0x53	83
112	0x8d	-115
113	0x37	55
114	0x5f	95
115	0x33	51
116	0xa4	-92
117	0xc2	-62
118	0x66	102
119	0xd6	-42
120	0x95	-107
121	0xbf	-65
122	0x1e	30
123	0xf9	-7
124	0x5b	91
125	0x6c	108
126	0xeb	-21
127	0x32	50
128	0xdb	-37
129	0x06	6
130	0x5b	91
131	0xce	-50
132	0xfb	-5
133	0xdd	-35
134	0xe2	-30
135	0x6d	109
136	0x10	16
137	0x13	19
138	0x31	49
139	0x0a	10
140	0xf2	-14
141	0xfa	-6
142	0xf5	-11
143	0xb1	-79
144	0xb5	-75
145	0xb2	-78
146	0xf0	-16
147	0xa8	-88
148	0x72	114
149	0x42	66
150	0x6c	108
151	0x43	67
152	0xfe	-2
153	0x81	-127
154	0x4a	74
155	0xf2	-14
156	0x3e	62
157	0xfc	-4
158	0xe7	-25
159	0x10	16
160	0xe5	-27
161	0x26	38
162	0x3a	58
163	0xee	-18
164	0x9c	-100
165	0xd3	-45
166	0xa9	-87
167	0x4d	77
168	0xd8	-40
169	0x9c	-100
170	0x48	72
171	0xb9	-71
172	0x98	-104
173	0xec	-20
174	0x54	84
175	0xe1	-31
176	0xb5	-75
177	0xbc	-68
178	0xa0	-96
179	0x75	117
180	0x39	57
181	0x32	50
182	0xa4	-92
183	0x38	56
184	0x98	-104
185	0xfb	-5
186	0x3d	61
187	0x00	0
188	0x34	52
189	0x52	82
190	0xbe	-66
191	0xe9	-23
192	0x0a	10
193	0x2c	44
194	0xd4	-44
195	0x1c	28
196	0xa6	-90
197	0x65	101
198	0xe5	-27
199	0x0d	13
200	0x16	22
201	0xf3	-13
202	0xae	-82
203	0xe2	-30
204	0xd2	-46
205	0x09	9
206	0x50	80
207	0x30	48
208	0xfd	-3
209	0x46	70
210	0x5b	91
211	0x06	6
212	0x09	9
213	0x50	80
214	0x1f	31
215	0x9d	-99
216	0xc3	-61
217	0x3b	59
218	0xc9	-55
219	0x3c	60
220	0xdc	-36
221	0x39	57
222	0x16	22
223	0xea	-22
224	0x57	87
225	0x87	-121
226	0xc0	-64
227	0x13	19
228	0xd7	-41
229	0xee	-18
230	0xd3	-45
231	0x58	88
232	0x09	9
233	0xac	-84
234	0x20	32
235	0xc3	-61
236	0xfe	-2
237	0x18	24
238	0x10	16
239	0x9e	-98
240	0xa0	-96
241	0xad	-83
242	0x9c	-100
243	0x39	57
244	0x0a	10
245	0xc7	-57
246	0xd9	-39
247	0x69	105
248	0x26	38
249	0xbb	-69
250	0x9c	-100
251	0xd2	-46
252	0xf6	-10
253	0xf9	-7
254	0x05	5
255	0x6d	109
