data/brevitas_quant/quant_weight.npy (npy, 10128 bytes, 1 tensors)

array (column-major) i1 [100, 100]
00000000: 65de b2c1 101d c024 f15f d0b9 1407 487c
00000010: cd76 3c6c 27ed 1103 a2d6 6019 220c 1ba8
00000020: e8e5 d5b0 f3fd d6e1 d9ec 9b68 bc42 90fa
00000030: f494 07a1 2d4f ec15 c02e 887f f91a 6c97
00000040: be17 811d f589 e0a3 0c5e 7989 2d9e 2d46
00000050: 87a4 8ef4 2fa3 f8d4 738c b9ff 9d62 8bd7
00000060: cbff c45b 93bd c687 822d 78ed cf38 4b8e
00000070: c36b 398a 02a0 9ec1 7eb7 578d f773 e3d4
00000080: c8a4 29a3 af6e 5fbe 03de 618e 8e3e 06db
00000090: 4134 aa49 4aee 9235 4c82 8af1 91c1 6317
000000a0: 4c1e 7c35 2560 ce6d 0c74 b4aa 5cb7 1978
000000b0: 18a6 b3ba aa44 12f5 234a 0b52 ef31 1b01
000000c0: 5c7b 66e0 d769 c60e b8df d14f c8c9 36f9
000000d0: 0ca1 c840 3a8c a825 9cbd b89f c259 8b54
000000e0: 92de d651 99c1 83db 3378 6ede bc1c 5472
000000f0: 57fe 97b3 4d94 a3af de3b 5862 3b1d dfb2
101 -34 -78 -63 16 29 -64 36
-15 95 -48 -71 20 7 72 124
-51 118 60 108 39 -19 17 3
-94 -42 96 25 34 12 27 -88
-24 -27 -43 -80 -13 -3 -42 -31
-39 -20 -101 104 -68 66 -112 -6
-12 -108 7 -95 45 79 -20 21
-64 46 -120 127 -7 26 108 -105
-66 23 -127 29 -11 -119 -32 -93
12 94 121 -119 45 -98 45 70
-121 -92 -114 -12 47 -93 -8 -44
115 -116 -71 -1 -99 98 -117 -41
-53 -1 -60 91 -109 -67 -58 -121
-126 45 120 -19 -49 56 75 -114
-61 107 57 -118 2 -96 -98 -63
126 -73 87 -115 -9 115 -29 -44
-56 -92 41 -93 -81 110 95 -66
3 -34 97 -114 -114 62 6 -37
65 52 -86 73 74 -18 -110 53
76 -126 -118 -15 -111 -63 99 23
76 30 124 53 37 96 -50 109
12 116 -76 -86 92 -73 25 120
24 -90 -77 -70 -86 68 18 -11
35 74 11 82 -17 49 27 1
92 123 102 -32 -41 105 -58 14
-72 -33 -47 79 -56 -55 54 -7
12 -95 -56 64 58 -116 -88 37
-100 -67 -72 -97 -62 89 -117 84
-110 -34 -42 81 -103 -63 -125 -37
51 120 110 -34 -68 28 84 114
87 -2 -105 -77 77 -108 -93 -81
-34 59 88 98 59 29 -33 -78
