data/b_weight_act_bias_lenet.onnx (onnx, 386604 bytes, 3 tensors)

/fc1/weight_quant/export_handler/Constant_1_output_0 i1 [120, 3072]
000000 75 fb e8 e0 ae 50 5f 2b 53 b4 34 48 af 4e 17 fb
       117 -5 -24 -32 -82 80 95 43 83 -76 52 72 -81 78 23 -5
000010 c4 92 ac cf dc 57 76 70 d7 28 04 e0 75 82 92 38
       -60 -110 -84 -49 -36 87 118 112 -41 40 4 -32 117 -126 -110 56
000020 c1 ce 77 6d ea b2 3e fb 65 10 13 fc 59 12 54 54
       -63 -50 119 109 -22 -78 62 -5 101 16 19 -4 89 18 84 84
000030 01 fb fb 4e 9c 74 a5 1e 33 8c 75 ef 77 fc 38 76
       1 -5 -5 78 -100 116 -91 30 51 -116 117 -17 119 -4 56 118
000040 a5 24 27 6b a9 a6 0c fe 01 70 a7 04 04 cb da b5
       -91 36 39 107 -87 -90 12 -2 1 112 -89 4 4 -53 -38 -75
000050 39 7e 94 74 f1 88 3c f9 84 7a d3 a9 5d db 51 25
       57 126 -108 116 -15 -120 60 -7 -124 122 -45 -87 93 -37 81 37
000060 42 90 5f 4e 3d 62 2b b7 14 91 69 48 8f 31 60 27
       66 -112 95 78 61 98 43 -73 20 -111 105 72 -113 49 96 39
000070 0b dc 50 0d ba 25 71 1b 03 b8 3d 18 6e ca 4c 02
       11 -36 80 13 -70 37 113 27 3 -72 61 24 110 -54 76 2
000080 9e da b1 40 39 cf c8 5f 27 a1 56 e1 f0 27 5c ab
       -98 -38 -79 64 57 -49 -56 95 39 -95 86 -31 -16 39 92 -85
000090 fb 69 cb ab 8e 52 bd ac a7 87 5a 30 0c f6 1e b6
       -5 105 -53 -85 -114 82 -67 -84 -89 -121 90 48 12 -10 30 -74
0000a0 5c 29 48 9f 6c fe 60 55 98 e1 57 d1 98 67 cf c3
       92 41 72 -97 108 -2 96 85 -104 -31 87 -47 -104 103 -49 -61
0000b0 ae c4 f9 2b 3b e2 9e 27 61 af c6 47 83 ac e8 1a
       -82 -60 -7 43 59 -30 -98 39 97 -81 -58 71 -125 -84 -24 26
0000c0 f7 d6 3e b8 89 ef 7d 64 b3 10 18 85 05 dc ab 7b
       -9 -42 62 -72 -119 -17 125 100 -77 16 24 -123 5 -36 -85 123
0000d0 f4 1d c0 e2 aa ca 91 2d ab b7 18 fa a7 f5 93 e3
       -12 29 -64 -30 -86 -54 -111 45 -85 -73 24 -6 -89 -11 -109 -29
0000e0 e3 a8 2b e2 2f cd f2 a9 e3 5f ba 87 1c d4 09 97
       -29 -88 43 -30 47 -51 -14 -87 -29 95 -70 -121 28 -44 9 -105
0000f0 e6 ec cc ed 63 23 76 40 d9 0b 77 a9 c0 ec e5 b9
       -26 -20 -52 -19 99 35 118 64 -39 11 119 -87 -64 -20 -27 -71

/fc2/weight_quant/export_handler/Constant_1_output_0 i1 [84, 120]
000000 0a 7c 01 e6 30 1d c7 e5 a3 8b f1 94 43 da 7b e7
       10 124 1 -26 48 29 -57 -27 -93 -117 -15 -108 67 -38 123 -25
000010 6c 82 e0 f6 5f 0f 6b 77 14 cd 83 7d c2 1a 30 c1
       108 -126 -32 -10 95 15 107 119 20 -51 -125 125 -62 26 48 -63
000020 83 25 be d1 bf 22 d4 a8 da 7d af 89 38 83 56 1f
       -125 37 -66 -47 -65 34 -44 -88 -38 125 -81 -119 56 -125 86 31
000030 d2 b9 57 df 1f f8 59 0b 56 a7 06 3a 04 a7 f4 44
       -46 -71 87 -33 31 -8 89 11 86 -89 6 58 4 -89 -12 68
000040 14 3c 61 17 17 e2 eb 76 a5 88 fa 34 9b 6d f2 74
       20 60 97 23 23 -30 -21 118 -91 -120 -6 52 -101 109 -14 116
000050 0d 2a 95 ef d3 be 12 1d 2b 56 47 25 52 86 ae 4a
       13 42 -107 -17 -45 -66 18 29 43 86 71 37 82 -122 -82 74
000060 a0 39 e6 0f e3 77 02 be 32 6a 59 6b ee 90 c3 cb
       -96 57 -26 15 -29 119 2 -66 50 106 89 107 -18 -112 -61 -53
000070 51 f7 3d 5d 9d ee dc 34 a6 70 86 a7 0f 8c 72 e4
       81 -9 61 93 -99 -18 -36 52 -90 112 -122 -89 15 -116 114 -28
000080 ee 3d 6a 59 74 75 18 71 83 47 b5 89 91 9b 18 4a
       -18 61 106 89 116 117 24 113 -125 71 -75 -119 -111 -101 24 74
000090 3e 44 72 26 30 6a 3a 39 f7 58 4d 72 b0 d4 1e 10
       62 68 114 38 48 106 58 57 -9 88 77 114 -80 -44 30 16
0000a0 bb e8 48 8d 0f 1b 75 63 87 d6 eb 72 84 03 ff 43
       -69 -24 72 -115 15 27 117 99 -121 -42 -21 114 -124 3 -1 67
0000b0 52 21 ec ec ee cc 61 2a e3 07 0d 3f 2a bd 60 37
       82 33 -20 -20 -18 -52 97 42 -29 7 13 63 42 -67 96 55
0000c0 ec 0f dd 0c d7 2a 67 6c fa 36 c4 25 ed fa 40 26
       -20 15 -35 12 -41 42 103 108 -6 54 -60 37 -19 -6 64 38
0000d0 a8 dc 6c 6a 1c e6 43 93 a0 04 26 53 37 8a bb 84
       -88 -36 108 106 28 -26 67 -109 -96 4 38 83 55 -118 -69 -124
0000e0 d1 93 6b d0 ce cf 68 e8 b1 b2 59 c7 7b e2 78 34
       -47 -109 107 -48 -50 -49 104 -24 -79 -78 89 -57 123 -30 120 52
0000f0 83 41 2a e3 22 1d 7b 87 f4 b6 3f e7 a0 18 9b 85
       -125 65 42 -29 34 29 123 -121 -12 -74 63 -25 -96 24 -101 -123

/fc3/weight_quant/export_handler/Constant_1_output_0 i1 [10, 84]
000000 89 9c de 56 1d a0 8d 29 44 e0 2c db 9c f6 ce c1
       -119 -100 -34 86 29 -96 -115 41 68 -32 44 -37 -100 -10 -50 -63
000010 24 6a 5e da 9d 2b 2b 79 42 4a bf 6c 3f 6d 61 b0
       36 106 94 -38 -99 43 43 121 66 74 -65 108 63 109 97 -80
000020 b6 38 b3 f0 36 53 5d 6c ac 21 c3 ac d8 90 08 ef
       -74 56 -77 -16 54 83 93 108 -84 33 -61 -84 -40 -112 8 -17
000030 3a 63 e3 e3 0a d0 2b d5 f2 a2 67 eb 91 b8 55 68
       58 99 -29 -29 10 -48 43 -43 -14 -94 103 -21 -111 -72 85 104
000040 98 fd d6 50 1e db 1e 8b 5b 86 2d 73 45 58 d3 fd
       -104 -3 -42 80 30 -37 30 -117 91 -122 45 115 69 88 -45 -3
000050 cf 91 58 f0 a4 b5 65 2f 8f fb 22 a0 c5 b9 25 b1
       -49 -111 88 -16 -92 -75 101 47 -113 -5 34 -96 -59 -71 37 -79
000060 31 2f f0 16 a4 f1 b1 9a e3 89 99 b3 2c 70 c5 88
       49 47 -16 22 -92 -15 -79 -102 -29 -119 -103 -77 44 112 -59 -120
000070 5d fc 96 42 4a d0 95 31 b2 d0 aa e9 1f 12 d9 32
       93 -4 -106 66 74 -48 -107 49 -78 -48 -86 -23 31 18 -39 50
000080 2b 97 61 55 5d 07 3d 13 c8 d8 09 a4 53 92 c7 22
       43 -105 97 85 93 7 61 19 -56 -40 9 -92 83 -110 -57 34
000090 b8 2a 28 7a cd e1 b0 e6 44 1d 9d 96 3b 42 90 64
       -72 42 40 122 -51 -31 -80 -26 68 29 -99 -106 59 66 -112 100
0000a0 39 c2 3b b4 30 c2 2d e8 d7 4e 2e 33 83 a9 a5 40
       57 -62 59 -76 48 -62 45 -24 -41 78 46 51 -125 -87 -91 64
0000b0 9e 40 a6 8a bc b1 f4 07 19 31 01 05 d5 81 b8 dc
       -98 64 -90 -118 -68 -79 -12 7 25 49 1 5 -43 -127 -72 -36
0000c0 1b 78 1f 2b 9b 51 4e 4a 06 9e c4 06 ab 97 2f 0f
       27 120 31 43 -101 81 78 74 6 -98 -60 6 -85 -105 47 15
0000d0 bf 85 56 d7 6c af 60 fa c4 5c ae 2d 41 0e 25 7a
       -65 -123 86 -41 108 -81 96 -6 -60 92 -82 45 65 14 37 122
0000e0 8d 5b 51 72 5a f8 13 20 5e 27 01 8e eb 03 c6 30
       -115 91 81 114 90 -8 19 32 94 39 1 -114 -21 3 -58 48
0000f0 e6 8c 72 11 b3 72 6b bf b6 36 b5 72 63 44 ea 5c
       -26 -116 114 17 -77 114 107 -65 -74 54 -75 114 99 68 -22 92
