data/linear_weight_quantized.npy (npy, 7968 bytes, 1 tensors)

array i1 [10, 784]
0	0xff	-1
1	0x01	1
2	0x08	8
3	0xf6	-10
4	0xf5	-11
5	0xfa	-6
6	0x05	5
7	0xf7	-9
8	0x00	0
9	0xfa	-6
10	0x09	9
11	0x04	4
12	0x01	1
13	0xfc	-4
14	0x00	0
15	0xf9	-7
16	0xfb	-5
17	0xf7	-9
18	0xfe	-2
19	0x09	9
20	0xff	-1
21	0x04	4
22	0xf6	-10
23	0x00	0
24	0xf7	-9
25	0x04	4
26	0x06	6
27	0xfc	-4
28	0x09	9
29	0x00	0
30	0xf9	-7
31	0x02	2
32	0x06	6
33	0x06	6
34	0xf7	-9
35	0xf8	-8
36	0x01	1
37	0xf5	-11
38	0x06	6
39	0x06	6
40	0x06	6
41	0xfc	-4
42	0xfd	-3
43	0x08	8
44	0x0b	11
45	0xff	-1
46	0xfe	-2
47	0x05	5
48	0x08	8
49	0x07	7
50	0x08	8
51	0x07	7
52	0xfc	-4
53	0xf7	-9
54	0x07	7
55	0x02	2
56	0xfe	-2
57	0x05	5
58	0x07	7
59	0x02	2
60	0x02	2
61	0x02	2
62	0x06	6
63	0xff	-1
64	0x03	3
65	0xf5	-11
66	0x05	5
67	0x01	1
68	0x01	1
69	0xfa	-6
70	0xf6	-10
71	0xf1	-15
72	0xfb	-5
73	0xf7	-9
74	0xf7	-9
75	0xf5	-11
76	0xf8	-8
77	0x07	7
78	0x03	3
79	0xf7	-9
80	0x04	4
81	0x09	9
82	0x03	3
83	0x00	0
84	0x00	0
85	0xfd	-3
86	0x03	3
87	0xfc	-4
88	0xf7	-9
89	0x01	1
90	0x00	0
91	0xf2	-14
92	0xf7	-9
93	0xf1	-15
94	0xf3	-13
95	0x01	1
96	0xfa	-6
97	0x03	3
98	0x02	2
99	0x03	3
100	0x01	1
101	0xf7	-9
102	0xed	-19
103	0xea	-22
104	0xee	-18
105	0xef	-17
106	0xec	-20
107	0xf4	-12
108	0xf6	-10
109	0xff	-1
110	0xfe	-2
111	0x04	4
112	0x01	1
113	0xf9	-7
114	0x00	0
115	0x09	9
116	0x02	2
117	0xf4	-12
118	0xfa	-6
119	0xf6	-10
120	0xfb	-5
121	0x09	9
122	0x04	4
123	0x0a	10
124	0x04	4
125	0x06	6
126	0xf5	-11
127	0x10	16
128	0xf7	-9
129	0x06	6
130	0x01	1
131	0xe7	-25
132	0xeb	-21
133	0xee	-18
134	0xf0	-16
135	0xef	-17
136	0xf2	-14
137	0xfb	-5
138	0x01	1
139	0x07	7
140	0xfe	-2
141	0x04	4
142	0x03	3
143	0x08	8
144	0xf5	-11
145	0xf8	-8
146	0xfe	-2
147	0xf9	-7
148	0xff	-1
149	0x01	1
150	0x0b	11
151	0x12	18
152	0x01	1
153	0x19	25
154	0x26	38
155	0x1c	28
156	0x15	21
157	0x24	36
158	0x22	34
159	0x0d	13
160	0xfe	-2
161	0x07	7
162	0xff	-1
163	0xf3	-13
164	0xf1	-15
165	0xfb	-5
166	0xf7	-9
167	0x08	8
168	0xfc	-4
169	0xfc	-4
170	0x05	5
171	0x00	0
172	0xff	-1
173	0xff	-1
174	0x03	3
175	0x02	2
176	0xfd	-3
177	0xeb	-21
178	0x07	7
179	0x09	9
180	0xf4	-12
181	0x19	25
182	0x20	32
183	0x09	9
184	0x14	20
185	0x1d	29
186	0x29	41
187	0x12	18
188	0x13	19
189	0x27	39
190	0x1f	31
191	0xf5	-11
192	0xe5	-27
193	0xde	-34
194	0xef	-17
195	0x04	4
196	0x02	2
197	0xfa	-6
198	0xff	-1
199	0xfb	-5
200	0xf9	-7
201	0xf9	-7
202	0xf9	-7
203	0xfc	-4
204	0xe9	-23
205	0xfe	-2
206	0x08	8
207	0x06	6
208	0x0b	11
209	0x12	18
210	0x10	16
211	0x06	6
212	0x11	17
213	0x25	37
214	0x24	36
215	0x14	20
216	0x0a	10
217	0x11	17
218	0x14	20
219	0x13	19
220	0xf6	-10
221	0xdb	-37
222	0xf3	-13
223	0xfa	-6
224	0xfd	-3
225	0xfa	-6
226	0xf7	-9
227	0x02	2
228	0xf0	-16
229	0xf5	-11
230	0xee	-18
231	0xf0	-16
232	0x00	0
233	0x13	19
234	0x09	9
235	0x03	3
236	0x09	9
237	0x02	2
238	0x19	25
239	0x2a	42
240	0x3a	58
241	0x2b	43
242	0x28	40
243	0x0c	12
244	0x11	17
245	0x08	8
246	0x22	34
247	0x2c	44
248	0x02	2
249	0xe5	-27
250	0xf4	-12
251	0x08	8
252	0x00	0
253	0x02	2
254	0x03	3
255	0xfc	-4
