data/mnist_linear_model.pth (torch, 205672 bytes, 4 tensors)

linear1.weight f4 [64, 784]
-0.030749714 0.013471107 -0.0043184943 0.00047296257 -0.020666037 -0.016322933 0.009064077 0.017931353
0.01452333 0.015883906 0.0034612108 -0.024484292 -0.02747985 0.017643604 -0.037749905 -0.016161446
-0.03887892 -0.02926762 -0.011657565 -0.038229603 0.006597789 -0.041021597 0.022287924 0.015414868
0.016397066 0.016686425 -0.04533067 -0.033753183 -0.04628932 -0.0050248485 -0.03885633 -0.0030306971
0.014469764 0.0055633085 0.02064595 -0.0148 -0.025635866 -0.0073348605 -0.04929291 -0.01812077
0.002728576 -0.04906398 -0.03283942 -0.016130151 -0.030257689 0.012935963 0.019550277 0.01845714
0.0023133806 0.009510271 -4.3849825e-05 -0.028290432 -0.00454057 -0.0006830746 -0.002206416 0.017014273
0.018188503 -0.010191939 -0.0061046453 -0.01230794 -0.03365715 0.002720098 -0.01942049 -0.04050137
-0.023047727 -0.03271603 -0.0118042845 -0.012307827 -0.058591016 -0.03437089 -0.013502831 -0.013663019
-0.00042540755 -0.047083706 -0.05679968 -0.03062129 -0.03439022 -0.026240738 -0.02672548 -0.048324853
-0.021654582 -0.015998056 -0.021370012 -0.022493612 -0.044686664 -0.00227204 -0.029509153 -0.032217644
-0.032877516 0.008440599 -0.031386595 -0.03124615 0.018097999 -0.026128931 -0.0090509765 0.058142044
0.008837469 0.038239747 0.040755875 -0.0004374283 -0.02000314 0.043294344 0.02869824 -0.0050594155
-0.017974606 0.015933381 0.00094895315 -0.016181085 0.016466511 -0.037878603 0.009498374 -0.033176567
-0.027565714 0.021738995 -0.02010149 -0.0394099 0.018982342 0.026833782 -0.00088883913 0.018987717
-0.017182764 0.03393624 0.05841016 0.017058643 0.026976418 -0.030309897 0.0106832655 -0.011210845
-0.032519683 0.011798624 0.0077671567 -0.025642913 -0.012314572 -0.05201506 -0.0318876 -0.015256183
0.0050913556 -0.028138915 -0.027966108 -0.0295321 -0.027059149 0.0090536205 -0.020847552 0.011706526
-0.026584473 -0.011624498 -0.008703074 0.04565116 0.04081291 0.04475271 0.06485409 0.06457529
0.01580058 0.046984095 0.010136976 -0.019496247 0.037139397 -0.021427773 0.0045370874 -0.038734417
-0.049603965 -0.027051153 -0.0056403005 -0.06465119 -0.0413336 -0.0024287007 -0.014674376 -0.0027064274
0.0090856245 0.011773507 -0.010906999 -0.029435828 -0.022850778 0.055309508 0.03222865 0.054385148
0.09065778 0.076292284 0.0965772 0.056346543 0.02550392 0.022467796 0.0098058805 0.022446299
0.041252125 0.027064873 0.015073862 0.0022367747 0.009367495 -0.018961756 0.007955113 -0.0054461826
-0.028161269 -0.008733784 -0.012267411 -0.004024163 0.011541781 -0.026314512 -0.016453452 -0.029569449
0.04070984 0.073768236 0.048232537 0.051299796 0.044050522 0.049096946 0.019559493 0.07266634
0.047979742 0.04003313 0.008187677 0.010107905 0.046791013 0.03746411 0.02125615 0.043197677
0.0037395293 0.012815785 0.054216098 0.0073800283 -0.03205852 0.007371672 -0.010699931 -0.03710799
-0.017041828 -0.016901713 0.017859342 0.03177203 0.026276333 0.008495379 0.033751115 0.010449449
0.017430177 0.0426085 0.06401576 0.056912396 0.03724169 -0.029819753 0.014591108 0.02613012
0.032526325 -0.0149759995 0.042908125 0.019930571 0.0668062 0.02515821 0.051594347 0.054224055
0.028581569 0.033862203 0.027420895 -0.030460792 -0.04344158 -0.027980454 0.024758283 0.002650647
00000000: d3e6 fbbc ebb5 5c3c 2882 8dbb f6f7 f739
00000010: d24b a9bc acb7 85bc 7f81 143c c6e4 923c
00000020: 43f3 6d3c f71e 823c 7bd5 623b 4893 c8bc
00000030: 6c1d e1bc 5289 903c a59f 1abd 0265 84bc
00000040: 813f 1fbd a6c2 efbc 5fff 3ebc a596 1cbd
00000050: 4432 d83b 4306 28bd 2a95 b63c a48e 7c3c
00000060: 2453 863c f8b1 883c a7ac 39bd c740 0abd
00000070: df99 3dbd 7ca7 a4bb d127 1fbd a99e 46bb
00000080: 9712 6d3c 6a4c b63b b221 a93c b37b 72bc
00000090: 4f02 d2bc 4559 f0bb 5de7 49bd 0272 94bc
000000a0: e9d1 323b 50f7 48bd a182 06bd 6123 84bc
000000b0: f9de f7bc 5df1 533c e727 a03c 6e33 973c
000000c0: 169c 173b f8d0 1b3c 64eb 37b8 56c1 e7bc
000000d0: 10c9 94bb 5c10 33ba 8599 10bb 8461 8b3c
000000e0: 0e00 953c 17fc 26bc 7a09 c8bb 3ea7 49bc
000000f0: 14dc 09bd ac43 323b b817 9fbc c4e4 25bd
00000100: 96ce bcbc 3e01 06bd c266 41bc c5a6 49bc
00000110: 22fd 6fbd 7ec8 0cbd fa3a 5dbc dbda 5fbc
00000120: 3c09 dfb9 d8da 40bd c8a6 68bd 80d9 fabc
00000130: c2dc 0cbd d1f6 d6bc 65ef dabc 48f0 45bd
00000140: f364 b1bc 5b0e 83bc 2a10 afbc 8644 b8bc
00000150: 5d09 37bd 81e6 14bb 2ebd f1bc a6f6 03bd
00000160: 93aa 06bd 704a 0a3c 3b8f 00bd edf7 ffbc
00000170: 4142 943c 570c d6bc 8c4a 14bc 5a26 6e3d
00000180: 08cb 103c 48a1 1c3d a2ef 263d a256 e5b9
00000190: a0dd a3bc 6955 313d 9218 eb3c 74c9 a5bb
000001a0: 7b3f 93bc b986 823c 2bc3 783a 328e 84bc
000001b0: c7e4 863c 9826 1bbd 119f 1b3c 27e4 07bd
000001c0: 7ed1 e1bc fa15 b23c e1ab a4bc 466c 21bd
000001d0: db80 9b3c 85d2 db3c fc00 69ba 218c 9b3c
000001e0: dec2 8cbc ba00 0b3d 7e3f 6f3d 91be 8b3c
000001f0: a6fd dc3c 764c f8bc dd08 2f3c b1ad 37bc
00000200: 5c33 05bd 044f 413c a283 fe3b 1611 d2bc
00000210: 0fc3 49bc be0d 55bd 929c 02bd 12f5 79bc
00000220: 63d5 a63b 9583 e6bc 2e19 e5bc 4ded f1bc
00000230: 26ab ddbc a355 143c 7cc8 aabc bbcc 3f3c
00000240: aec7 d9bc ae74 3ebc 5797 0ebc b6fc 3a3d
00000250: 702b 273d 9e4e 373d 39d2 843d 0d40 843d
00000260: 3870 813c 6572 403d 8f15 263c 98b6 9fbc
00000270: 7b1f 183d 4c89 afbc d9ab 943b fba7 1ebd
00000280: 872d 4bbd 619a ddbc 45d2 b8bb d867 84bd
00000290: 6c4d 29bd d62a 1fbb cb6c 70bc 515e 31bb
000002a0: dfdb 143c abe5 403c 45b3 32bc 6823 f1bc
000002b0: 8e31 bbbc 398c 623d 3002 043d f6c2 5e3d
000002c0: c9aa b93d 213f 9c3d 44ca c53d a2cb 663d
000002d0: 99ed d03c 620e b83c d8a8 203c 4de1 b73c
000002e0: fdf7 283d 27b7 dd3c 5cf8 763c da96 123b
000002f0: 1f7a 193c af55 9bbc 2a56 023c e475 b2bb
00000300: 76b2 e6bc 2518 0fbc 40fd 48bc 20dd 83bb
00000310: bd19 3d3c 8891 d7bc 64c9 86bc a13b f2bc
00000320: 5cbf 263d cd13 973d 7b8f 453d bc1f 523d
00000330: 526e 343d e119 493d 3b3b a03c 17d2 943d
00000340: 6886 443d c8f9 233d 9b25 063c a09b 253c
00000350: efa7 3f3d f773 193d 6121 ae3c 0cf0 303d
00000360: e412 753b 4cf9 513c b311 5e3d 2ad4 f13b
00000370: cb4f 03bd 118e f13b c34e 2fbc 8cfe 17bd
00000380: 4e9b 8bbc 7675 8abc c14d 923c 6323 023d
00000390: 7741 d73c 3430 0b3c 9c3e 0a3d 2a34 2b3c
000003a0: bbc9 8e3c 4086 2e3d b21a 833d f91c 693d
000003b0: be8a 183d 8e48 f4bc 8b0f 6f3c d50e d63c
000003c0: 533a 053d e55d 75bc 6ec0 2f3d 7045 a33c
000003d0: b0d1 883d 9718 ce3c 9854 533d 0b1a 5e3d
000003e0: e523 ea3c 18b3 0a3d c9a1 e03c e988 f9bc
000003f0: ccef 31bd 4437 e5bc e2d1 ca3c 7ab6 2d3b

linear1.bias f4 [64]
0.009846909 0.02199196 0.02835982 -0.02415197 -0.029766314 -0.008974959 0.022023799 0.0059742085
-0.018096395 -0.01573838 -0.024512324 0.010058022 0.0439365 -0.038047727 0.0041747047 -0.048753817
-0.00018451085 0.013994783 0.012986773 -0.015272009 -0.0028740307 0.031731743 -0.0005475909 -0.030518945
-0.025082668 0.019213174 -0.025039569 0.02963077 0.037901513 -0.0075304564 -0.037334863 -0.032129556
-0.014722242 0.03385329 -0.0045135245 0.03575467 0.052337125 -0.013989515 0.01433504 -0.035830792
0.011506709 0.026177572 0.03485361 0.006787134 0.039315604 0.02888133 0.023142667 -0.018490758
-0.008991786 0.022256058 0.0020770542 0.0009024673 0.01895878 0.032298677 0.00034977277 0.009737901
-0.025906613 0.018172039 0.024556799 0.026006315 -0.033166796 0.016071117 0.011899175 0.015210568
00000000: ee54 213c 7c28 b43c da52 e83c 5ada c5bc
00000010: 7cd8 f3bc b50b 13bc 416b b43c 4bc3 c33b
00000020: e43e 94bc c6ed 80bc 12ce c8bc 67ca 243c
00000030: c2f6 333d efd7 1bbd f6cb 883b 15b2 47bd
00000040: 4179 41b9 604a 653c 79c6 543c 7337 7abc
00000050: 3c5a 3cbb 25f9 013d 348c 0fba de02 fabc
00000060: 2b7a cdbc f264 9d3c c81f cdbc 3bbc f23c
00000070: 9e3e 1b3d 0cc2 f6bb 71ec 18bd 489a 03bd
00000080: 8f35 71bc bfa9 0a3d 30e6 93bb 7d73 123d
00000090: 745f 563d 4734 65bc 84dd 6a3c 4fc3 12bd
000000a0: a386 3c3c 5972 d63c a9c2 0e3d 9b66 de3b
000000b0: 6609 213d 8a98 ec3c b195 bd3c ee79 97bc
000000c0: 4952 13bc 5652 b63c 301f 083b 8e93 6c3a
000000d0: 724f 9b3c 9e4b 043d b561 b739 b88b 1f3c
000000e0: 1b3a d4bc 87dd 943c 572b c93c 320b d53c
000000f0: e8d9 07bd 93a7 833c c2f4 423c bf35 793c

linear2.weight f4 [10, 64]
0.020500408 0.15271065 0.16320752 -0.071149714 -0.053301215 -0.19370267 -0.09838083 0.24792767
-0.078794 0.09484588 -0.16836908 -0.0452169 0.20013575 -0.18701676 -0.08989827 -0.1818025
0.22902806 -0.02365348 -0.18348548 -0.07426176 -0.16903579 -0.07274421 0.13635544 -0.06473122
0.10903595 -0.2003355 0.027788375 -0.04828631 -0.2814917 0.008192423 0.29033735 0.17855084
-0.04935419 -0.08121174 0.054388437 -0.12247614 0.032351315 -0.260005 -0.22205831 -0.08939249
0.13715123 0.15178207 0.0026256572 -0.034147803 -0.056919593 0.11173692 0.065506585 -0.10537727
0.19221848 0.05133775 -0.021560766 -0.21237339 0.16872343 -0.044071965 -0.021254973 -0.24515422
0.017950548 -0.09697674 -0.00095013605 -0.16744207 0.20422907 0.22918022 0.19338997 0.13493167
-0.22423567 0.08796499 -0.08504775 0.12365793 0.0859984 -0.110805206 0.005082753 -0.115271375
0.07789368 0.009418558 0.13436703 0.10917368 -0.14347081 0.024116293 -0.2293392 0.16637866
0.10275224 -0.15533826 0.10877581 -0.14506304 -0.0656914 -0.18646231 0.13250276 0.26146957
0.0346339 -0.13821985 0.18024223 0.13455845 -0.0040000165 0.019810874 0.2225423 -0.100446396
0.15604232 0.066190906 0.024815219 -0.010467052 0.1686473 0.06505995 0.15870532 0.026131978
-0.24434805 -0.15445638 -0.028988529 -0.122626916 -0.0144043015 0.091149546 0.1264572 -0.06754312
-0.21440063 -0.16692264 -0.06765076 -0.13495953 -0.22813953 -0.07203813 0.010858318 0.15484431
-0.090162314 0.060195334 -0.09606028 0.0016778021 -0.18176088 0.002491494 -0.1333219 -0.16501373
0.10014622 0.22103572 -0.13393858 0.057864748 -0.16200846 -0.022647237 0.1778675 0.027160676
0.001681524 -0.065890424 -0.031002935 0.055617236 0.19418085 -0.053298302 -0.09130527 0.13209733
-0.0737607 -0.061627142 -0.02325744 0.124425024 0.07414111 0.087776124 -0.10561508 0.036509782
0.022381313 0.0911461 0.036105502 0.053615276 -0.080146365 -0.04014159 -0.012080503 0.09364132
-0.08783168 0.028934168 -0.17538713 -0.031675935 0.08435643 -0.13122383 0.113638334 -0.034322124
-0.0012815357 -0.033305354 0.010525852 0.041738477 0.1823933 0.06786894 0.20189244 0.14126
-0.09112933 -0.22925325 0.048883233 0.175984 0.09587693 0.08828471 -0.013528409 0.2240158
-0.12102208 -0.19963327 0.07199053 -0.0110316 -0.081322804 0.1686551 -0.09686091 0.13545573
0.11210426 0.067474686 -0.007822316 -0.110031895 0.021724986 0.031541415 0.13830344 -0.13119882
0.12409804 0.0066784984 -0.120489515 -0.16100045 0.1487439 -0.021479322 -0.17196871 -0.09918969
0.05332708 0.014316195 -0.076852724 -0.02833698 -0.12209224 0.124305874 0.084357455 -0.15281175
-0.01727859 0.08347651 -0.06983292 0.10704632 0.09456463 -0.045680486 -0.1424237 -0.066759355
0.17779584 0.08019563 -0.15106383 0.084675774 0.22844145 0.017184498 0.00021613063 -0.00967176
0.066459164 -0.07429323 0.028611107 -0.06988503 0.083191976 0.07780281 0.011328872 -0.036740955
-0.107577294 -0.13754824 -0.036591586 0.068388365 0.094569325 -0.03546987 -0.099590816 -0.043523435
-0.11887848 -0.12889762 -0.005163959 0.067899995 -0.12396655 0.07181335 0.1493336 -0.11517911
00000000: 79f0 a73c 2e60 1c3e df1f 273e f1b6 91bd
00000010: 6052 5abd fe59 46be e37b c9bd c0e0 7d3e
00000020: c05e a1bd 8f3e c23d f268 2cbe 5b35 39bd
00000030: 63f0 4c3e 5281 3fbe 961c b8bd 6f2a 3abe
00000040: 5586 6a3e f1c4 c1bc 9ee3 3bbe 8d16 98bd
00000050: b817 2dbe ebfa 94bd c3a0 0b3e cd91 84bd
00000060: 3d4e df3d c024 4dbe 72a4 e33c dec7 45bd
00000070: ae1f 90be 8339 063c 19a7 943e 08d6 363e
00000080: 9e27 4abd 5752 a6bd 69c6 5e3d c5d4 fabd
00000090: d082 043d 601f 85be 4163 63be 6913 b7bd
000000a0: 5f71 0c3e c26c 1b3e 3813 2c3b 91de 0bbd
000000b0: 8524 69bd 54d6 e43d 5128 863d 0ad0 d7bd
000000c0: ecd4 443e 8847 523d 34a0 b0bc 6978 59be
000000d0: d6c5 2c3e ce84 34bd e91e aebc b509 7bbe
000000e0: 070d 933c be9b c6bd 8d12 79ba ef75 2bbe
000000f0: 6d21 513e 38ae 6a3e 0508 463e 872b 0a3e
00000100: 099e 65be fd26 b43d 842d aebd 5e40 fd3d
00000110: ee1f b03d d7ed e2bd 398d a63b 6613 ecbd
00000120: b986 9f3d 4c50 1a3c 8397 093e 7396 df3d
00000130: 03ea 12be 888f c53c e5d7 6abe 2b5f 2a3e
00000140: c46f d23d fe10 1fbe dac5 de3d 688b 14be
00000150: 3689 86bd faef 3ebe ceae 073e 57df 853e
00000160: 47dc 0d3d 8189 0dbe 6b91 383e b1c9 093e
00000170: 9212 83bb 6a4a a23c 21e2 633e d7b6 cdbd
00000180: 8fc9 1f3e 198f 873d 4949 cb3c 007e 2bbc
00000190: e1b1 2c3e 273e 853d a683 223e bb12 d63c
000001a0: 6036 7abe d029 1ebe 5a79 edbc d223 fbbd
000001b0: 0500 6cbc 9dac ba3d ff7d 013e 0c54 8abd
000001c0: d78b 5bbe c5ed 2abe 7b8c 8abd d532 0abe
000001d0: 699d 69be ba88 93bd 16e7 313c 828f 1e3e
000001e0: 05a7 b8bd 628f 763d 41bb c4bd b2e9 db3a
000001f0: 861f 3abe 5548 233b 8985 08be 5cf9 28be
00000200: 7619 cd3d 3057 623e 3227 09be 9603 6d3d
00000210: 8ce5 25be b386 b9bc e622 363e 1180 de3c
00000220: 9566 dc3a 8ff1 86bd def9 fdbc e6ce 633d
00000230: 58d7 463e 524f 5abd 42fe babd 8644 073e
00000240: da0f 97bd be6c 7cbd 6386 bebc 8cd2 fe3d
00000250: 4bd7 973d f8c3 b33d b84c d8bd 488b 153d
00000260: 0459 b73c ceaa ba3d 5de3 133d b19b 5b3d
00000270: c723 a4bd 826b 24bd 4ded 45bc 05c7 bf3d
00000280: 19e1 b3bd 5907 ed3c af98 33be a0be 01bd
00000290: 10c3 ac3d 8a5f 06be 37bb e83d 5b95 0cbd
000002a0: 34f9 a7ba 326b 08bd a074 2c3c f7f5 2a3d
000002b0: 4fc5 3a3e dffe 8a3d e4bc 4e3e 76a6 103e
000002c0: 04a2 babd 5dc1 6abe c939 483d 2635 343e
000002d0: 205b c43d 9dce b43d 43a6 5dbc 6664 653e
000002e0: 6dda f7bd aa6c 4cbe c56f 933d e2bd 34bc
000002f0: 928c a6bd ecb3 2c3e 035f c6bd e8b4 0a3e
00000300: eb96 e53d 2b30 8a3d 2c29 00bc 6758 e1bd
00000310: 99f8 b13c 9231 013d 6b9f 0d3e fc58 06be
00000320: 1d27 fe3d 4ed7 da3b 35c3 f6bd 4ddd 24be
00000330: 5250 183e 67f5 afbc 9118 30be f723 cbbd
00000340: 7f6d 5a3d 798e 6a3c f664 9dbd f422 e8bc
00000350: 7f0b fabd 1494 fe3d 9ac3 ac3d af7a 1cbe
00000360: d48b 8dbc bcf5 aa3d 9004 8fbd 1a3b db3d
00000370: 1aab c13d 761b 3bbd 85d7 11be 21b9 88bd
00000380: 1d10 363e 9b3d a43d 7ab0 1abe 7e6a ad3d
00000390: 8eec 693e 81c6 8c3c 20a1 6239 4d76 1ebc
000003a0: be1b 883d 0d27 98bd d761 ea3c e21f 8fbd
000003b0: 8e60 aa3d 1457 9f3d bc9c 393c af7d 16bd
000003c0: 7c51 dcbd 72d9 0cbe 0fe1 15bd 330f 8c3d
000003d0: 90ad c13d db48 11bd 45f6 cbbd a145 32bd
000003e0: 8f76 f3bd bdfd 03be 6e36 a9bb 270f 8b3d
000003f0: 2de2 fdbd e112 933d e8ea 183e 06e3 ebbd

linear2.bias f4 [10]
-0.20452987 -0.22179104 -0.014796704 0.13956521 -0.10912776 0.18819867 -0.12357061 -0.08897366
0.20823278 0.083351724
00000000: 4770 51be 311d 63be e06d 72bc 2fea 0e3e
00000010: 607e dfbd 27b7 403e 9712 fdbd d237 b6bd
00000020: f93a 553e 4fb4 aa3d
