data/simple_transformer_weights.pth (torch, 803250 bytes, 13 tensors)

embed.weight f4 [10, 128]
2.49903 -1.2114136 1.253507 1.0303131 2.1978936 -0.5072336 1.7129993 0.98390746
1.3966047 -0.60532284 -0.4071939 -0.61944586 -1.051614 0.28999364 1.8019621 -0.59915054
0.5949161 -1.5700132 -0.68026435 -1.8676664 -1.2351751 -0.033251595 -0.22798342 -1.3978163
-1.8016359 -0.9053502 -0.8911981 1.3395698 -0.15365243 1.3443561 -1.6671172 0.55229354
0.27651513 0.12289533 -0.8899887 0.5402603 -0.97711444 1.4906636 -1.2624915 0.85785973
-0.27778894 -0.88902295 1.60579 0.6239524 -1.7159615 -0.33266833 -0.4303523 -1.4234936
0.15864734 1.85104 1.6298963 0.18766166 0.6983193 -1.4611797 0.11673561 1.5598708
0.82430786 0.060327284 -0.9342235 -0.7799952 0.12745982 -0.5577947 -0.8943309 -0.48628995
-0.1048916 2.4404702 -2.0007956 -0.20308891 -0.22504258 0.8627926 0.50918 -1.7049102
-0.15687683 1.7121106 -0.6894466 0.29993546 -0.61127776 -0.42415923 -1.4505646 1.5546222
-0.72208863 1.79737 0.6024053 1.4127997 -2.5875885 0.02060487 -0.7821303 -1.6189829
0.5520033 -1.0189376 -1.0448242 0.8038037 0.12436097 0.33801028 0.34079123 -0.91915977
-0.43099082 0.080827676 -0.23405993 -0.37451974 -0.0023617505 0.6439642 2.4015992 -0.16918257
-0.45164123 0.73526424 -0.032067902 1.5064424 1.9091346 -0.3733398 0.8288709 0.95399404
-0.19343515 2.7598944 0.27536166 0.5038593 0.14898239 -0.2908608 1.2170131 -1.4027852
-0.4000663 0.7825777 1.28714 1.7465018 0.12684028 0.9516655 -0.41767082 -0.34500802
0.6599995 -0.9354843 0.17539012 -0.21072872 0.5115059 0.485522 0.43268758 -0.5234196
0.8790428 0.46540582 -0.5503382 -1.4042139 0.39126027 0.42226523 -0.48117617 -1.7307472
-0.22952105 0.2658304 -0.40496114 0.08706071 -0.5303308 -0.23506829 0.82695544 -1.3510649
1.6691579 -0.39943725 -0.16472259 -1.2059236 -0.6039582 -0.17330526 -0.6249262 1.0305355
-1.4369626 -0.8054125 0.26596767 -0.84074444 -0.5417423 0.7386373 0.42569253 0.29651907
0.008388153 -0.48494565 -0.079255395 1.9589716 0.41761845 0.79692835 0.36802092 0.67218375
-1.695756 0.9766636 -1.0381559 -0.07034701 -0.5489801 -0.4520093 1.082468 -0.38182506
1.0247983 0.12506862 -0.4731386 0.31734082 -1.1972122 0.26902014 -0.09506184 -0.6758402
1.730707 -0.5256177 0.7385831 -0.4820345 0.41177866 -0.78099144 1.0533155 0.85306495
2.3420122 -1.7271489 1.1944828 1.7176968 1.3308439 0.11546026 -0.044069182 -0.98087364
0.6454043 0.4116115 1.8007754 -0.09116637 -0.26432803 1.0917516 0.66521615 -0.72067314
0.016982002 -1.164156 0.910054 0.23570666 -0.9711838 -0.7639317 2.1511617 0.87503064
0.1707984 0.92363375 -1.3267093 0.20116208 0.21952975 1.7720596 -0.004019743 1.5365968
-1.6405398 -0.35345784 -0.96456057 2.531571 1.2976265 1.3693008 0.62178403 1.8857005
0.8673749 0.3987835 1.21139 0.5618093 0.20078 0.33301586 -0.8587875 0.19892581
1.2886544 -0.06758404 -0.4506622 0.9271375 0.97719353 0.6277185 -1.6096461 0.2807631
00000000: 1cf0 1f40 9a0f 9bbf eb72 a03f 4de1 833f
00000010: 4aaa 0c40 10da 01bf 9043 db3f 5ce1 7b3f
00000020: f1c3 b23f 70f6 1abf b87b d0be 0194 1ebf
00000030: 4a9b 86bf 0c7a 943e b2a6 e63f ee61 19bf
00000040: 6c4c 183f 31f6 c8bf ce25 2ebf b10f efbf
00000050: 381a 9ebf d332 08bd 7c74 69be a5eb b2bf
00000060: 019c e6bf 08c5 67bf 8f25 64bf 0677 ab3f
00000070: 1057 1dbe dc13 ac3f 1964 d5bf 1c63 0d3f
00000080: 6493 8d3e 8cb0 fb3d 4dd6 63bf 804e 0a3f
00000090: 2c24 7abf 11ce be3f 5299 a1bf b29c 5b3f
000000a0: 5a3a 8ebe 0297 63bf 878a cd3f 58bb 1f3f
000000b0: a0a4 dbbf 8153 aabe 2357 dcbe 0a35 b6bf
000000c0: 7374 223e e1ee ec3f 71a0 d03f 612a 403e
000000d0: 0ec5 323f f007 bbbf 1413 ef3d d9a9 c73f
000000e0: d705 533f be19 773d 4529 6fbf c4ad 47bf
000000f0: d484 023e a2cb 0ebf dff2 64bf fffa f8be
00000100: 68d1 d6bd aa30 1c40 090d 00c0 8af6 4fbe
00000110: 9071 66be fadf 5c3f 9f59 023f 7f3a dabf
00000120: 52a4 20be 7126 db3f 937f 30bf 2491 993e
00000130: b37c 1cbf 662b d9be 1aac b9bf dcfd c63f
00000140: cdda 38bf 3810 e63f 3c37 1a3f 9fd6 b43f
00000150: 0d9b 25c0 8bcb a83c b139 48bf d53a cfbf
00000160: 1750 0d3f 8c6c 82bf cdbc 85bf 14c6 4d3f
00000170: f7b0 fe3d af0f ad3e 307c ae3e 0e4e 6bbf
00000180: d4aa dcbe fb88 a53d 68ad 6fbe 0dc1 bfbe
00000190: 99c7 1abb d6da 243f cdb3 1940 323e 2dbe
000001a0: 853d e7be 473a 3c3f a259 03bd 1bd3 c03f
000001b0: 865e f43f 6526 bfbe e230 543f f438 743f
000001c0: dd13 46be 1ca2 3040 34fc 8c3e ecfc 003f
000001d0: d78e 183e b5eb 94be 16c7 9b3f 778e b3bf
000001e0: 7dd5 ccbe 0357 483f 01c1 a43f 5f8d df3f
000001f0: 6be2 013e 5aa0 733f f3d8 d5be e4a4 b0be
00000200: baf5 283f e67b 6fbf 7899 333e 45c9 57be
00000210: 0df2 023f 5796 f83e 3a89 dd3e d4fe 05bf
00000220: f308 613f ac49 ee3e f7e2 0cbf 48bd b3bf
00000230: 4453 c83e 2633 d83e b95c f6be 2089 ddbf
00000240: 9107 6bbe ec1a 883e 1157 cfbe e34c b23d
00000250: c2c3 07bf beb5 70be 5ab3 533f b2ef acbf
00000260: f7a6 d53f 0a83 ccbe 0aad 28be b45b 9abf
00000270: 019d 1abf ef76 31be 2afb 1fbf 96e8 833f
00000280: 64ee b7bf 832f 4ebf ea2c 883e 073b 57bf
00000290: a0af 0abf 5617 3d3f 5ff4 d93e 59d1 973e
000002a0: 776e 093c cc4a f8be a750 a2bd 95bf fa3f
000002b0: 16d2 d53e 7f03 4c3f 3d6d bc3e 3c14 2c3f
000002c0: 880e d9bf a006 7a3f 4be2 84bf 1812 90bd
000002d0: f689 0cbf c36d e7be 508e 8a3f 937e c3be
000002e0: 972c 833f fd11 003e 393f f2be 7f7a a23e
000002f0: 403e 99bf 02bd 893e c8af c2bd dd03 2dbf
00000300: cf87 dd3f e28e 06bf c813 3d3f 3acd f6be
00000310: a7d4 d23e 0eef 47bf 0bd3 863f 7762 5a3f
00000320: 87e3 1540 3713 ddbf d0e4 983f 7ddd db3f
00000330: 1859 aa3f 6e76 ec3d e381 34bd 891a 7bbf
00000340: 3739 253f bebe d23e cf7f e63f 6fb5 babd
00000350: 0156 87be 84be 8b3f 9b4b 2a3f 097e 38bf
00000360: d71d 8b3c 1003 95bf 4df9 683f 165d 713e
00000370: 809f 78bf 0791 43bf a2ac 0940 0202 603f
00000380: c7e5 2e3e 4373 6c3f 9cd1 a9bf 6ffd 4d3e
00000390: 68cc 603e d9d2 e23f 0cb8 83bb 34af c43f
000003a0: 35fd d1bf 6df8 b4be 71ed 76bf 4205 2240
000003b0: a018 a63f 4045 af3f 3d2d 1f3f a25e f13f
000003c0: 480c 5e3f 5a2d cc3e d40e 9b3f bcd2 0f3f
000003d0: 4699 4d3e 0e81 aa3e 7fd9 5bbf 35b3 4b3e
000003e0: a1f2 a43f 8069 8abd 32bd e6be e258 6d3f
000003f0: 5b29 7a3f 29b2 203f e208 cebf 2ec0 8f3e

self_attn.in_proj_weight f4 [384, 128]
-0.07170324 -0.042846784 0.061963864 0.0040884316 0.025912292 -0.07879268 0.02658949 0.017913751
-0.04150813 0.01433906 -0.06320678 -0.039710253 0.034290068 -0.052479472 -0.06104097 0.038224734
0.056468554 0.088846914 -0.0478071 -0.059878197 0.08854716 0.07142607 -0.0027185231 -0.019506097
-0.061573587 0.095199965 -0.056530956 0.05076758 0.034141697 -0.06649053 0.10491491 0.07400421
0.017153852 0.07026511 0.101508446 0.0020348877 -0.07933522 -0.049278233 -0.04508377 0.08844561
-0.101213396 0.061215885 0.045286022 -0.0534192 0.03805185 0.010023497 0.016172737 -0.038318627
-0.047254674 -0.010252051 -0.009423748 -0.059412334 -0.057121195 -0.041616574 -0.07475092 -0.10220376
-0.064615235 0.039757542 0.08496601 0.08704018 0.086787336 0.095021166 0.043562956 -0.08854814
0.06460222 0.056956984 -0.069802724 -0.075475514 -0.0072560087 0.03277234 0.004538238 0.030199982
0.025913425 0.09067307 0.033863373 -0.03908836 -0.034695297 -0.06080671 0.0046726316 -0.07473195
-0.000573799 0.091711126 -0.02666717 -0.016293079 0.09876501 -0.10306608 0.0022473037 0.044141404
0.10748755 -0.10796828 -0.093170345 -0.044842757 -0.09439976 -0.05145069 0.051633738 -0.097911805
0.012079701 -0.08374157 -0.049424883 0.081161775 -0.09665039 0.062486254 0.0563005 0.07558521
0.056600265 -0.043957695 -0.013605408 -0.041962355 0.011309922 -0.09392911 -0.008772127 -0.02012363
-0.0107632205 -0.0062736496 0.10618026 0.10026408 0.00023227185 0.05700185 -0.012758121 0.013403028
0.017839618 0.08846564 0.076559134 0.100353785 -0.07544811 0.05957631 0.03779515 -0.08141936
0.06446049 0.07301434 -0.0058155283 -0.103210606 0.015532672 0.053704746 0.060786314 -0.033543587
0.05286356 -0.04498627 -0.015800491 0.08110773 -0.03438174 -0.052527618 -0.09931599 0.02130086
-0.040410094 0.02567362 0.030331828 0.040010877 -0.03518656 -0.060096264 0.05048447 0.06759251
0.07116387 -0.013269395 0.040245183 0.06363217 0.08754773 -0.054625098 -0.04164298 -0.057059225
0.029313453 0.025602154 0.0884034 0.015630983 -0.06823167 0.025110431 -0.032597534 -0.022740088
0.022712074 0.036149897 -0.061528333 -0.004383549 -0.03795231 0.096232556 -0.08761743 -0.010115437
-0.04286097 0.022559218 0.013542898 0.057479583 -0.045381375 -0.040026456 -0.061721154 -0.083548695
-0.027202964 0.054306827 -0.0829942 -0.028067425 0.043287538 0.017453812 0.0008351207 0.007284157
-0.016111724 -0.046251327 0.0008413419 0.019138895 -0.0104160085 -0.028587528 0.00078663975 0.06922271
-0.003947675 0.008436374 -0.019533493 -0.07501732 0.0835968 -0.0063322857 0.079130195 0.08273194
0.050265856 0.09312508 0.05268795 -0.025956027 0.0022301674 0.09915719 0.030489095 -0.044832908
0.07684363 -0.007802397 0.08536982 0.09525565 0.02766905 -0.10034023 -0.040747628 0.038911797
-0.031361245 -0.009987958 -0.057915498 0.03635683 -0.08664611 -0.04208135 0.03431145 0.050507315
-0.038092174 -0.0038691238 -0.07334585 -0.02662874 0.10731106 -0.02202636 -0.064364225 -0.06564744
0.10550351 -0.0860734 0.014320388 0.027721845 -0.024197802 -0.085215874 -0.06268202 -0.101342335
-0.042388476 -0.046334524 0.09571176 -0.019574367 0.040285908 0.07329475 -0.021489471 -0.099897645
00000000: 26d9 92bd 1c80 2fbd d2cd 7d3d 40f8 853b
00000010: 0446 d43c 0e5e a1bd 34d2 d93c dcbf 923c
00000020: 6e04 2abd 60ee 6a3c 8e72 81bd 38a7 22bd
00000030: be73 0c3d b7f4 56bd 1906 7abd 8a91 1c3d
00000040: 924b 673d 5ff5 b53d 61d1 43bd d742 75bd
00000050: 3758 b53d d547 923d 4029 32bb 40cb 9fbc
00000060: 9634 7cbd 33f8 c23d 018d 67bd aaf1 4f3d
00000070: 2ad8 0b3d 302c 88bd a1dd d63d 858f 973d
00000080: 3c86 8c3c 27e7 8f3d a9e3 cf3d c05b 053b
00000090: 817a a2bd f9d7 49bd c2a9 38bd f922 b53d
000000a0: f848 cfbd 82bd 7a3d d67d 393d 17ce 5abd
000000b0: 42dc 1b3d 9839 243c b07c 843c fef3 1cbd
000000c0: 1e8e 41bd 38f8 27bc 1066 1abc 595a 73bd
000000d0: eaf7 69bd 2476 2abd 0317 99bd 3450 d1bd
000000e0: fe54 84bd ced8 223d a902 ae3d 1f42 b23d
000000f0: 8fbd b13d 759a c23d 126f 323d ba58 b5bd
00000100: 2b4e 843d ba4b 693d bbf4 8ebd e892 9abd
00000110: d0c3 edbb 4a3c 063d 80b5 943b f465 f73c
00000120: 6448 d43c cdb2 b93d 52b4 0a3d 1e1b 20bd
00000130: a81c 0ebd 7510 79bd e01c 993b 110d 99bd
00000140: 006b 16ba 0bd3 bb3d 1c75 dabc 1079 85bc
00000150: 4f45 ca3d 4f14 d3bd 8047 133b 9ecd 343d
00000160: 6f22 dc3d 791e ddbd 18d0 bebd 0aad 37bd
00000170: a954 c1bd f5bd 52bd e67d 533d fc85 c8bd
00000180: f0e9 453c b380 abbd bf71 4abd 2538 a63d
00000190: a4f0 c5bd 96f1 7f3d 5a9b 663d 6bcc 9a3d
000001a0: aed5 673d fc0c 34bd 38e9 5ebc b8e0 2bbd
000001b0: 404d 393c e85d c0bd f8b8 0fbc 50da a4bc
000001c0: 3858 30bc 3093 cdbb 0975 d93d 4157 cd3d
000001d0: 008e 7339 c67a 693d 7007 51bc 6098 5b3c
000001e0: 6424 923c 792d b53d 09cb 9c3d 4986 cd3d
000001f0: 8a84 9abd 4a06 743d 16cf 1a3d 32bf a6bd
00000200: dd03 843d 8b88 953d 3090 bebb 1560 d3bd
00000210: c07c 7e3c 82f9 5b3d 12fb 783d 0065 09bd
00000220: 7687 583d 8643 38bd 0870 81bc cf1b a63d
00000230: ded3 0cbd 3327 57bd 2f66 cbbd 247f ae3c
00000240: 0e85 25bd 7c51 d23c 747a f83c 72e2 233d
00000250: c81f 10bd 8027 76bd cec8 4e3d f16d 8a3d
00000260: 5dbe 913d e067 59bc 22d8 243d 9551 823d
00000270: 394c b33d 91be 5fbd d491 2abd efb6 69bd
00000280: c422 f03c 9cbb d13c d70c b53d 8c0c 803c
00000290: 0cbd 8bbd 64b4 cd3c fe84 05bd 6c49 babc
000002a0: ac0e ba3c ea11 143d 2205 7cbd e0a3 8fbb
000002b0: e273 1bbd 9315 c53d c470 b3bd 38bb 25bc
000002c0: fc8e 2fbd 1cce b83c 08e3 5d3c b66f 6b3d
000002d0: d2e1 39bd c8f2 23bd 52cf 7cbd 941b abbd
000002e0: c0d8 debc d670 5e3d ddf8 a9bd a8ed e5bc
000002f0: 464e 313d 4cfb 8e3c 00ec 5a3a f0af ee3b
00000300: bcfc 83bc 0872 3dbd 808d 5c3a 2cc9 9c3c
00000310: e8a7 2abc 6430 eabc 8036 4e3a a3c4 8d3d
00000320: 805b 81bb b838 0a3c b404 a0bc aea2 99bd
00000330: cd34 ab3d 107f cfbb 030f a23d 5d6f a93d
00000340: 92e3 4d3d 5db8 be3d 52cf 573d bca1 d4bc
00000350: 0028 123b ed12 cb3d 44c4 f93c b6a2 37bd
00000360: 3160 9d3d 40ab ffbb 5fd6 ae3d 6515 c33d
00000370: 34aa e23c 2e7f cdbd fce6 26bd fa61 1f3d
00000380: a674 00bd 88a4 23bc cd38 6dbd e6ea 143d
00000390: 8473 b1bd 7e5d 2cbd 2a8a 0c3d c2e0 4e3d
000003a0: 8a06 1cbd 2091 7dbb 5936 96bd 8424 dabc
000003b0: e7c5 db3d a070 b4bc 64d1 83bd 2a72 86bd
000003c0: 3912 d83d 4047 b0bd 10a0 6a3c ec18 e33c
000003d0: 783a c6bc a985 aebd 6e5f 80bd 928c cfbd
000003e0: 8a9f 2dbd 45c9 3dbd 8704 c43d 6c5a a0bc
000003f0: d602 253d 8f1b 963d b00a b0bc 2397 ccbd

self_attn.in_proj_bias f4 [384]
0.0 0.0 0.0 0.0 0.0 0.0 0.0 0.0
0.0 0.0 0.0 0.0 0.0 0.0 0.0 0.0
0.0 0.0 0.0 0.0 0.0 0.0 0.0 0.0
0.0 0.0 0.0 0.0 0.0 0.0 0.0 0.0
0.0 0.0 0.0 0.0 0.0 0.0 0.0 0.0
0.0 0.0 0.0 0.0 0.0 0.0 0.0 0.0
0.0 0.0 0.0 0.0 0.0 0.0 0.0 0.0
0.0 0.0 0.0 0.0 0.0 0.0 0.0 0.0
0.0 0.0 0.0 0.0 0.0 0.0 0.0 0.0
0.0 0.0 0.0 0.0 0.0 0.0 0.0 0.0
0.0 0.0 0.0 0.0 0.0 0.0 0.0 0.0
0.0 0.0 0.0 0.0 0.0 0.0 0.0 0.0
0.0 0.0 0.0 0.0 0.0 0.0 0.0 0.0
0.0 0.0 0.0 0.0 0.0 0.0 0.0 0.0
0.0 0.0 0.0 0.0 0.0 0.0 0.0 0.0
0.0 0.0 0.0 0.0 0.0 0.0 0.0 0.0
0.0 0.0 0.0 0.0 0.0 0.0 0.0 0.0
0.0 0.0 0.0 0.0 0.0 0.0 0.0 0.0
0.0 0.0 0.0 0.0 0.0 0.0 0.0 0.0
0.0 0.0 0.0 0.0 0.0 0.0 0.0 0.0
0.0 0.0 0.0 0.0 0.0 0.0 0.0 0.0
0.0 0.0 0.0 0.0 0.0 0.0 0.0 0.0
0.0 0.0 0.0 0.0 0.0 0.0 0.0 0.0
0.0 0.0 0.0 0.0 0.0 0.0 0.0 0.0
0.0 0.0 0.0 0.0 0.0 0.0 0.0 0.0
0.0 0.0 0.0 0.0 0.0 0.0 0.0 0.0
0.0 0.0 0.0 0.0 0.0 0.0 0.0 0.0
0.0 0.0 0.0 0.0 0.0 0.0 0.0 0.0
0.0 0.0 0.0 0.0 0.0 0.0 0.0 0.0
0.0 0.0 0.0 0.0 0.0 0.0 0.0 0.0
0.0 0.0 0.0 0.0 0.0 0.0 0.0 0.0
0.0 0.0 0.0 0.0 0.0 0.0 0.0 0.0
00000000: 0000 0000 0000 0000 0000 0000 0000 0000
00000010: 0000 0000 0000 0000 0000 0000 0000 0000
00000020: 0000 0000 0000 0000 0000 0000 0000 0000
00000030: 0000 0000 0000 0000 0000 0000 0000 0000
00000040: 0000 0000 0000 0000 0000 0000 0000 0000
00000050: 0000 0000 0000 0000 0000 0000 0000 0000
00000060: 0000 0000 0000 0000 0000 0000 0000 0000
00000070: 0000 0000 0000 0000 0000 0000 0000 0000
00000080: 0000 0000 0000 0000 0000 0000 0000 0000
00000090: 0000 0000 0000 0000 0000 0000 0000 0000
000000a0: 0000 0000 0000 0000 0000 0000 0000 0000
000000b0: 0000 0000 0000 0000 0000 0000 0000 0000
000000c0: 0000 0000 0000 0000 0000 0000 0000 0000
000000d0: 0000 0000 0000 0000 0000 0000 0000 0000
000000e0: 0000 0000 0000 0000 0000 0000 0000 0000
000000f0: 0000 0000 0000 0000 0000 0000 0000 0000
00000100: 0000 0000 0000 0000 0000 0000 0000 0000
00000110: 0000 0000 0000 0000 0000 0000 0000 0000
00000120: 0000 0000 0000 0000 0000 0000 0000 0000
00000130: 0000 0000 0000 0000 0000 0000 0000 0000
00000140: 0000 0000 0000 0000 0000 0000 0000 0000
00000150: 0000 0000 0000 0000 0000 0000 0000 0000
00000160: 0000 0000 0000 0000 0000 0000 0000 0000
00000170: 0000 0000 0000 0000 0000 0000 0000 0000
00000180: 0000 0000 0000 0000 0000 0000 0000 0000
00000190: 0000 0000 0000 0000 0000 0000 0000 0000
000001a0: 0000 0000 0000 0000 0000 0000 0000 0000
000001b0: 0000 0000 0000 0000 0000 0000 0000 0000
000001c0: 0000 0000 0000 0000 0000 0000 0000 0000
000001d0: 0000 0000 0000 0000 0000 0000 0000 0000
000001e0: 0000 0000 0000 0000 0000 0000 0000 0000
000001f0: 0000 0000 0000 0000 0000 0000 0000 0000
00000200: 0000 0000 0000 0000 0000 0000 0000 0000
00000210: 0000 0000 0000 0000 0000 0000 0000 0000
00000220: 0000 0000 0000 0000 0000 0000 0000 0000
00000230: 0000 0000 0000 0000 0000 0000 0000 0000
00000240: 0000 0000 0000 0000 0000 0000 0000 0000
00000250: 0000 0000 0000 0000 0000 0000 0000 0000
00000260: 0000 0000 0000 0000 0000 0000 0000 0000
00000270: 0000 0000 0000 0000 0000 0000 0000 0000
00000280: 0000 0000 0000 0000 0000 0000 0000 0000
00000290: 0000 0000 0000 0000 0000 0000 0000 0000
000002a0: 0000 0000 0000 0000 0000 0000 0000 0000
000002b0: 0000 0000 0000 0000 0000 0000 0000 0000
000002c0: 0000 0000 0000 0000 0000 0000 0000 0000
000002d0: 0000 0000 0000 0000 0000 0000 0000 0000
000002e0: 0000 0000 0000 0000 0000 0000 0000 0000
000002f0: 0000 0000 0000 0000 0000 0000 0000 0000
00000300: 0000 0000 0000 0000 0000 0000 0000 0000
00000310: 0000 0000 0000 0000 0000 0000 0000 0000
00000320: 0000 0000 0000 0000 0000 0000 0000 0000
00000330: 0000 0000 0000 0000 0000 0000 0000 0000
00000340: 0000 0000 0000 0000 0000 0000 0000 0000
00000350: 0000 0000 0000 0000 0000 0000 0000 0000
00000360: 0000 0000 0000 0000 0000 0000 0000 0000
00000370: 0000 0000 0000 0000 0000 0000 0000 0000
00000380: 0000 0000 0000 0000 0000 0000 0000 0000
00000390: 0000 0000 0000 0000 0000 0000 0000 0000
000003a0: 0000 0000 0000 0000 0000 0000 0000 0000
000003b0: 0000 0000 0000 0000 0000 0000 0000 0000
000003c0: 0000 0000 0000 0000 0000 0000 0000 0000
000003d0: 0000 0000 0000 0000 0000 0000 0000 0000
000003e0: 0000 0000 0000 0000 0000 0000 0000 0000
000003f0: 0000 0000 0000 0000 0000 0000 0000 0000

self_attn.out_proj.weight f4 [128, 128]
0.06423668 -0.007073432 -0.005813703 0.060045592 -0.022898793 -0.05251947 0.0024719238 0.00039487332
0.08296887 -0.003957778 -0.01294139 -0.016088977 0.014738731 -0.08199706 -0.060898613 0.080263145
0.04615014 -0.03087835 -0.055001467 -0.023601338 -0.07650663 -0.06832479 0.080752514 0.04288455
0.002634041 -0.07068972 -0.025580294 -0.04693374 0.012840025 0.06853663 -0.045829397 -0.017504469
0.08736501 -0.020696558 0.04522405 -0.07369901 -0.014718555 -0.04630197 -0.04508641 -0.0448394
-0.012337044 0.023031227 0.007855289 -0.06267721 0.05138705 -0.06081666 -0.014722861 0.049063303
-0.07765621 0.027774036 0.051286988 0.030191958 -0.082852714 -0.07762199 0.055089317 0.051682107
-0.00912983 0.048782773 -0.04000391 0.05902166 -0.010136656 -0.073738545 0.013258621 0.042335443
-0.019228213 0.06533895 0.008119546 -0.047462523 0.06639681 -0.05178344 0.08555574 0.08033239
0.05346655 -0.041657943 -0.068565965 -0.0467331 0.009094782 -0.013283126 -0.06015354 -0.06767659
0.019882582 -0.02130308 0.014406867 -0.059822783 0.08494999 -0.06325081 0.03586091 0.026169725
-0.03824232 -0.07790558 0.046206273 0.017574154 0.02911701 0.06307591 0.022464968 -0.028376356
0.02380833 -0.0046902597 0.031765647 0.014197387 -0.0034723133 0.027202837 0.040683873 0.0010947213
0.02113951 -0.041361757 -0.052639715 -0.0697781 -0.022514611 -0.0119120255 -0.057538234 0.033149026
-0.0039712936 -0.03497296 -0.037416276 -0.0003966242 0.062972434 0.086930074 -0.016033672 0.058577023
0.0067315996 0.067336746 -0.043695882 0.08207839 0.0058613494 -0.023539752 -0.071136124 0.052859433
0.013564587 -0.044943765 -0.00034213066 0.0052633807 0.06531908 -0.08329062 0.070142545 0.008595578
0.05421988 0.08203349 0.08058051 -0.039832186 -0.025807008 -0.06889527 -0.075412005 -0.03245949
-0.08216845 0.010812797 -0.060092658 -0.007705204 -0.019016892 -0.057323664 0.020625383 -0.07732097
0.059103034 0.012739003 -0.07995248 -0.058981344 0.03158316 0.051902525 -0.055026375 -0.062449995
0.04695203 -0.06910968 -0.036321238 -0.07305557 0.028151922 0.08010354 -0.03931946 -0.0041171536
-0.042910706 0.019909173 -0.008672759 0.021867804 -0.067036204 -0.076509744 0.012178019 -0.020356052
0.06952461 0.018610016 -0.0054144785 -0.06478798 0.055026717 -0.018468864 0.015697807 -0.07843641
-0.012135476 -0.042743944 0.054329924 -0.0633555 -0.08635649 0.07868946 -0.005909249 -0.038773656
0.08000847 -0.08099772 -0.04662926 -0.048700072 -0.050349005 0.038780577 0.034018025 0.070949696
0.026412092 0.06336375 -0.06783968 -0.008338451 0.060201503 -0.088057496 0.007764049 -0.06584289
-0.040338054 -0.003018558 -0.046199467 -0.05672126 -0.03406715 -0.04958723 0.015923694 -0.051220927
0.028693788 0.07498514 -0.08719818 0.0146733 0.08769158 0.010026015 -0.041603018 0.035425246
0.08147488 -0.029194027 -0.06505112 0.004305996 0.07567779 -0.07711942 0.067874424 -0.065110065
0.08491533 0.021911114 -0.04574166 0.012336612 -0.046019204 -0.0105186105 0.08589194 -0.012109019
0.00852368 -0.037965935 0.00563775 0.004941456 0.03647563 0.07320044 -0.028198138 -0.00043498725
0.040373586 -0.038479947 0.063273616 -0.08251103 0.021828063 0.047068022 -0.055291396 -0.022498965
00000000: 858e 833d 40c8 e7bb e080 bebb 5ef2 753d
00000010: 4096 bbbc a81e 57bd 0000 223b 0007 cf39
00000020: 95eb a93d 40b0 81bb 2008 54bc 08cd 83bc
00000030: b87a 713c 13ee a7bd d370 79bd 0161 a43d
00000040: ee07 3d3d 98f4 fcbc 3849 61bd 9857 c1bc
00000050: 82af 9cbd deed 8bbd 9361 a53d b6a7 2f3d
00000060: e09f 2c3b c6c5 90bd c48d d1bc 983d 40bd
00000070: f85e 523c ef5c 8c3d 9bb7 3bbd 8865 8fbc
00000080: 6dec b23d d48b a9bc da3c 393d 82ef 96bd
00000090: 1826 71bc 22a7 3dbd 87ac 38bd 85a9 37bd
000000a0: 5021 4abc fcab bc3c 78b3 003c e95c 80bd
000000b0: 3a7b 523d e41a 79bd 2838 71bc 9af6 483d
000000c0: 380a 9fbd 6086 e33c 4e12 523d 2055 f73c
000000d0: afae a9bd 47f8 9ebd 56a5 613d 9eb0 533d
000000e0: 4895 15bc 72d0 473d 24db 23bd b2c0 713d
000000f0: 3814 26bc 3c04 97bd b03a 593c ee67 2d3d
00000100: 7c84 9dbc 6dd0 853d d807 053c 1068 42bd
00000110: 0dfb 873d df1a 54bd d937 af3d 4f85 a43d
00000120: beff 5a3d 85a1 2abd 506c 8cbd 356b 3fbd
00000130: 4802 153c 78a1 59bc 8f63 76bd 069a 8abd
00000140: cce0 a23c cc83 aebc c80a 6c3c bc08 75bd
00000150: 43fa ad3d a489 81bd e4e2 123d e461 d63c
00000160: fba3 1cbd f68c 9fbd ca42 3d3d acf7 8f3c
00000170: cc86 ee3c f12d 813d 7408 b83c 8875 e8bc
00000180: b009 c33c c0b0 99bb b21c 023d 289c 683c
00000190: c08f 63bb 7cd8 de3c 22a4 263d c07c 8f3a
000001a0: c42c ad3c f26a 29bd be9c 57bd d2e7 8ebd
000001b0: 9070 b8bc a82a 43bc 36ad 6bbd 46c7 073d
000001c0: a021 82bb ce3f 0fbd cf41 19bd 00f2 cfb9
000001d0: b1f7 803d 6508 b23d 0c59 83bc 76ee 6f3d
000001e0: c094 dc3b d9e7 893d 74fa 32bd b718 a83d
000001f0: 9010 c03b 70d6 c0bc d1af 91bd 2283 583d
00000200: 003e 5e3c f416 38bd 0060 b3b9 7078 ac3b
00000210: 03c6 853d 4694 aabd e5a6 8f3d 78d4 0c3c
00000220: aa15 5e3d 2d01 a83d 6507 a53d 1327 23bd
00000230: 3869 d3bc f718 8dbd 9c71 9abd 3ef4 04bd
00000240: ef47 a8bd 2828 313c b823 76bd f07b fcbb
00000250: 50c9 9bbc 38cc 6abd 90f6 a83c 755a 9ebd
00000260: 0616 723d 40b7 503c 20be a3bd 6c96 71bd
00000270: 585d 013d be97 543d 5663 61bd 91cb 7fbd
00000280: c650 403d 6089 8dbd 94c5 14bd 299e 95bd
00000290: dc9e e63c 530d a43d 710d 21bd 30e9 86bb
000002a0: 23c3 2fbd 9018 a33c 3018 0ebc 1c24 b33c
000002b0: 474a 89bd 24b1 9cbd 5086 473c bcc1 a6bc
000002c0: eb62 8e3d 0874 983c f06b b1bb 8faf 84bd
000002d0: b263 613d 044c 97bc b098 803c 45a3 a0bd
000002e0: e0d3 46bc 4614 2fbd 0e89 5e3d 87c0 81bd
000002f0: acdb b0bd f127 a13d 60a2 c1bb 20d1 1ebd
00000300: 7bdb a33d 22e2 a5bd 53fe 3ebd ba79 47bd
00000310: c23a 4ebd 62d8 1e3d 7c56 0b3d 134e 913d
00000320: 2c5e d83c dbc4 813d 88ef 8abd 009e 08bc
00000330: da95 763d 7d57 b4bd 9069 fe3b a3d8 86bd
00000340: 8439 25bd 00d3 45bb a73b 3dbd 8d54 68bd
00000350: ff89 0bbd fb1b 4bbd 6872 823c 09cd 51bd
00000360: 3c0f eb3c cf91 993d f694 b2bd 4868 703c
00000370: a597 b33d 2844 243c ed67 2abd 101a 113d
00000380: 4ddc a63d 5028 efbc 8639 85bd 5019 8d3b
00000390: f5fc 9a3d c9f0 9dbd bf01 8b3d 6d58 85bd
000003a0: 17e8 ad3d f07e b33c 9b5b 3bbd 801f 4a3c
000003b0: a27e 3cbd 4056 2cbc 1de8 af3d e864 46bc
000003c0: e8a6 0b3c 2b82 1bbd e0bc b83b f0eb a13b
000003d0: 7867 153d 1dea 953d c8ff e6bc 000f e4b9
000003e0: c65e 253d 269d 1dbd 9995 813d 8bfb a8bd
000003f0: c4d0 b23c 66ca 403d 3b79 62bd c04f b8bc

self_attn.out_proj.bias f4 [128]
0.0 0.0 0.0 0.0 0.0 0.0 0.0 0.0
0.0 0.0 0.0 0.0 0.0 0.0 0.0 0.0
0.0 0.0 0.0 0.0 0.0 0.0 0.0 0.0
0.0 0.0 0.0 0.0 0.0 0.0 0.0 0.0
0.0 0.0 0.0 0.0 0.0 0.0 0.0 0.0
0.0 0.0 0.0 0.0 0.0 0.0 0.0 0.0
0.0 0.0 0.0 0.0 0.0 0.0 0.0 0.0
0.0 0.0 0.0 0.0 0.0 0.0 0.0 0.0
0.0 0.0 0.0 0.0 0.0 0.0 0.0 0.0
0.0 0.0 0.0 0.0 0.0 0.0 0.0 0.0
0.0 0.0 0.0 0.0 0.0 0.0 0.0 0.0
0.0 0.0 0.0 0.0 0.0 0.0 0.0 0.0
0.0 0.0 0.0 0.0 0.0 0.0 0.0 0.0
0.0 0.0 0.0 0.0 0.0 0.0 0.0 0.0
0.0 0.0 0.0 0.0 0.0 0.0 0.0 0.0
0.0 0.0 0.0 0.0 0.0 0.0 0.0 0.0
00000000: 0000 0000 0000 0000 0000 0000 0000 0000
00000010: 0000 0000 0000 0000 0000 0000 0000 0000
00000020: 0000 0000 0000 0000 0000 0000 0000 0000
00000030: 0000 0000 0000 0000 0000 0000 0000 0000
00000040: 0000 0000 0000 0000 0000 0000 0000 0000
00000050: 0000 0000 0000 0000 0000 0000 0000 0000
00000060: 0000 0000 0000 0000 0000 0000 0000 0000
00000070: 0000 0000 0000 0000 0000 0000 0000 0000
00000080: 0000 0000 0000 0000 0000 0000 0000 0000
00000090: 0000 0000 0000 0000 0000 0000 0000 0000
000000a0: 0000 0000 0000 0000 0000 0000 0000 0000
000000b0: 0000 0000 0000 0000 0000 0000 0000 0000
000000c0: 0000 0000 0000 0000 0000 0000 0000 0000
000000d0: 0000 0000 0000 0000 0000 0000 0000 0000
000000e0: 0000 0000 0000 0000 0000 0000 0000 0000
000000f0: 0000 0000 0000 0000 0000 0000 0000 0000
00000100: 0000 0000 0000 0000 0000 0000 0000 0000
00000110: 0000 0000 0000 0000 0000 0000 0000 0000
00000120: 0000 0000 0000 0000 0000 0000 0000 0000
00000130: 0000 0000 0000 0000 0000 0000 0000 0000
00000140: 0000 0000 0000 0000 0000 0000 0000 0000
00000150: 0000 0000 0000 0000 0000 0000 0000 0000
00000160: 0000 0000 0000 0000 0000 0000 0000 0000
00000170: 0000 0000 0000 0000 0000 0000 0000 0000
00000180: 0000 0000 0000 0000 0000 0000 0000 0000
00000190: 0000 0000 0000 0000 0000 0000 0000 0000
000001a0: 0000 0000 0000 0000 0000 0000 0000 0000
000001b0: 0000 0000 0000 0000 0000 0000 0000 0000
000001c0: 0000 0000 0000 0000 0000 0000 0000 0000
000001d0: 0000 0000 0000 0000 0000 0000 0000 0000
000001e0: 0000 0000 0000 0000 0000 0000 0000 0000
000001f0: 0000 0000 0000 0000 0000 0000 0000 0000

layernorm1.weight f4 [128]
1.0 1.0 1.0 1.0 1.0 1.0 1.0 1.0
1.0 1.0 1.0 1.0 1.0 1.0 1.0 1.0
1.0 1.0 1.0 1.0 1.0 1.0 1.0 1.0
1.0 1.0 1.0 1.0 1.0 1.0 1.0 1.0
1.0 1.0 1.0 1.0 1.0 1.0 1.0 1.0
1.0 1.0 1.0 1.0 1.0 1.0 1.0 1.0
1.0 1.0 1.0 1.0 1.0 1.0 1.0 1.0
1.0 1.0 1.0 1.0 1.0 1.0 1.0 1.0
1.0 1.0 1.0 1.0 1.0 1.0 1.0 1.0
1.0 1.0 1.0 1.0 1.0 1.0 1.0 1.0
1.0 1.0 1.0 1.0 1.0 1.0 1.0 1.0
1.0 1.0 1.0 1.0 1.0 1.0 1.0 1.0
1.0 1.0 1.0 1.0 1.0 1.0 1.0 1.0
1.0 1.0 1.0 1.0 1.0 1.0 1.0 1.0
1.0 1.0 1.0 1.0 1.0 1.0 1.0 1.0
1.0 1.0 1.0 1.0 1.0 1.0 1.0 1.0
00000000: 0000 803f 0000 803f 0000 803f 0000 803f
00000010: 0000 803f 0000 803f 0000 803f 0000 803f
00000020: 0000 803f 0000 803f 0000 803f 0000 803f
00000030: 0000 803f 0000 803f 0000 803f 0000 803f
00000040: 0000 803f 0000 803f 0000 803f 0000 803f
00000050: 0000 803f 0000 803f 0000 803f 0000 803f
00000060: 0000 803f 0000 803f 0000 803f 0000 803f
00000070: 0000 803f 0000 803f 0000 803f 0000 803f
00000080: 0000 803f 0000 803f 0000 803f 0000 803f
00000090: 0000 803f 0000 803f 0000 803f 0000 803f
000000a0: 0000 803f 0000 803f 0000 803f 0000 803f
000000b0: 0000 803f 0000 803f 0000 803f 0000 803f
000000c0: 0000 803f 0000 803f 0000 803f 0000 803f
000000d0: 0000 803f 0000 803f 0000 803f 0000 803f
000000e0: 0000 803f 0000 803f 0000 803f 0000 803f
000000f0: 0000 803f 0000 803f 0000 803f 0000 803f
00000100: 0000 803f 0000 803f 0000 803f 0000 803f
00000110: 0000 803f 0000 803f 0000 803f 0000 803f
00000120: 0000 803f 0000 803f 0000 803f 0000 803f
00000130: 0000 803f 0000 803f 0000 803f 0000 803f
00000140: 0000 803f 0000 803f 0000 803f 0000 803f
00000150: 0000 803f 0000 803f 0000 803f 0000 803f
00000160: 0000 803f 0000 803f 0000 803f 0000 803f
00000170: 0000 803f 0000 803f 0000 803f 0000 803f
00000180: 0000 803f 0000 803f 0000 803f 0000 803f
00000190: 0000 803f 0000 803f 0000 803f 0000 803f
000001a0: 0000 803f 0000 803f 0000 803f 0000 803f
000001b0: 0000 803f 0000 803f 0000 803f 0000 803f
000001c0: 0000 803f 0000 803f 0000 803f 0000 803f
000001d0: 0000 803f 0000 803f 0000 803f 0000 803f
000001e0: 0000 803f 0000 803f 0000 803f 0000 803f
000001f0: 0000 803f 0000 803f 0000 803f 0000 803f

layernorm1.bias f4 [128]
0.0 0.0 0.0 0.0 0.0 0.0 0.0 0.0
0.0 0.0 0.0 0.0 0.0 0.0 0.0 0.0
0.0 0.0 0.0 0.0 0.0 0.0 0.0 0.0
0.0 0.0 0.0 0.0 0.0 0.0 0.0 0.0
0.0 0.0 0.0 0.0 0.0 0.0 0.0 0.0
0.0 0.0 0.0 0.0 0.0 0.0 0.0 0.0
0.0 0.0 0.0 0.0 0.0 0.0 0.0 0.0
0.0 0.0 0.0 0.0 0.0 0.0 0.0 0.0
0.0 0.0 0.0 0.0 0.0 0.0 0.0 0.0
0.0 0.0 0.0 0.0 0.0 0.0 0.0 0.0
0.0 0.0 0.0 0.0 0.0 0.0 0.0 0.0
0.0 0.0 0.0 0.0 0.0 0.0 0.0 0.0
0.0 0.0 0.0 0.0 0.0 0.0 0.0 0.0
0.0 0.0 0.0 0.0 0.0 0.0 0.0 0.0
0.0 0.0 0.0 0.0 0.0 0.0 0.0 0.0
0.0 0.0 0.0 0.0 0.0 0.0 0.0 0.0
00000000: 0000 0000 0000 0000 0000 0000 0000 0000
00000010: 0000 0000 0000 0000 0000 0000 0000 0000
00000020: 0000 0000 0000 0000 0000 0000 0000 0000
00000030: 0000 0000 0000 0000 0000 0000 0000 0000
00000040: 0000 0000 0000 0000 0000 0000 0000 0000
00000050: 0000 0000 0000 0000 0000 0000 0000 0000
00000060: 0000 0000 0000 0000 0000 0000 0000 0000
00000070: 0000 0000 0000 0000 0000 0000 0000 0000
00000080: 0000 0000 0000 0000 0000 0000 0000 0000
00000090: 0000 0000 0000 0000 0000 0000 0000 0000
000000a0: 0000 0000 0000 0000 0000 0000 0000 0000
000000b0: 0000 0000 0000 0000 0000 0000 0000 0000
000000c0: 0000 0000 0000 0000 0000 0000 0000 0000
000000d0: 0000 0000 0000 0000 0000 0000 0000 0000
000000e0: 0000 0000 0000 0000 0000 0000 0000 0000
000000f0: 0000 0000 0000 0000 0000 0000 0000 0000
00000100: 0000 0000 0000 0000 0000 0000 0000 0000
00000110: 0000 0000 0000 0000 0000 0000 0000 0000
00000120: 0000 0000 0000 0000 0000 0000 0000 0000
00000130: 0000 0000 0000 0000 0000 0000 0000 0000
00000140: 0000 0000 0000 0000 0000 0000 0000 0000
00000150: 0000 0000 0000 0000 0000 0000 0000 0000
00000160: 0000 0000 0000 0000 0000 0000 0000 0000
00000170: 0000 0000 0000 0000 0000 0000 0000 0000
00000180: 0000 0000 0000 0000 0000 0000 0000 0000
00000190: 0000 0000 0000 0000 0000 0000 0000 0000
000001a0: 0000 0000 0000 0000 0000 0000 0000 0000
000001b0: 0000 0000 0000 0000 0000 0000 0000 0000
000001c0: 0000 0000 0000 0000 0000 0000 0000 0000
000001d0: 0000 0000 0000 0000 0000 0000 0000 0000
000001e0: 0000 0000 0000 0000 0000 0000 0000 0000
000001f0: 0000 0000 0000 0000 0000 0000 0000 0000

ffn.0.weight f4 [512, 128]
-0.039065324 -0.0032820776 0.07051759 0.08058303 -0.05217785 -0.008389339 0.016648501 0.0116431415
0.0025476292 0.08304001 0.081018664 0.07154221 -0.08745305 -0.046557475 -0.008847527 -0.059086047
-0.062230982 -0.06156702 -0.048621457 0.067246206 -0.013550989 -0.044531032 0.061803408 0.030563742
0.0042274147 0.019152053 0.03336048 -0.03884044 -0.034831904 -0.066324994 0.05831463 -0.07553574
-0.08562142 -0.032435592 -0.07562723 0.031361617 -0.081469215 -0.057142664 -0.029784199 -0.020095162
0.06643031 0.030542672 0.077128716 0.066401385 0.075695015 0.024896711 0.03367977 -0.044360496
0.054378502 0.041711025 0.0057681724 0.049248166 -0.064978026 -0.05973696 -0.06926707 -0.04017152
0.029830098 -0.0695877 -0.037843317 -0.027289957 -0.07626629 -0.0050350726 -0.082513444 0.033913217
0.079785325 0.0005353391 0.020381987 -0.052347135 0.08495084 0.068821795 -0.026410341 -0.07295812
-0.009513669 0.08241608 0.033968538 -0.04135239 0.08155114 0.07752573 -0.033328377 0.025026955
0.051619835 0.019949302 0.009740591 -0.078548156 -0.00017752498 -0.049404934 -0.028337803 0.0355276
0.058643483 0.00054971874 0.0764452 -0.06512189 0.008709319 -0.008354925 -0.07837927 -0.019770294
-0.0462097 -0.03857701 0.086411364 0.053141914 -0.007418275 0.01734721 0.06343413 0.014666915
-0.056979336 -0.060422227 -0.06819278 -0.08022698 -0.0028947815 0.058895685 0.013820253 0.07034337
-0.08166659 0.04212419 0.08341441 0.05654625 -0.0683174 -0.04142616 0.06003303 -0.031943474
-0.07044938 -0.061860718 0.02323468 -0.02226954 0.07288232 0.07323787 -0.023271121 0.036496304
-0.036602598 0.017338857 0.054345883 -0.02593657 0.011624947 -0.04908483 -0.022690184 0.08614198
0.030236036 0.028537907 0.06490829 0.013037041 0.009645104 -0.027883776 0.004322432 -0.07051106
-0.087078825 -0.060222197 -0.019333437 -0.057469323 0.08299766 0.0395369 0.086260475 0.06941771
-0.021790437 -0.08684262 0.059596352 0.0100491345 0.07793436 -0.015173718 -0.027545441 -0.0007048547
-0.03598187 0.030294083 0.033604622 -0.029929731 -0.06493849 -0.030521851 -0.060623616 0.049189784
-0.021433987 -0.06949849 0.054693826 -0.0461231 -0.085337915 -0.005633898 0.0806148 -0.010749452
-0.08673545 -0.03903205 -0.06821654 0.078540646 0.02790884 0.056660585 -0.08769128 0.043933414
-0.08403333 0.0153985545 0.07008255 0.023513295 0.048057325 0.056020238 -0.043885637 -0.010744043
0.02630137 0.03427711 -0.013100892 0.02964034 -0.054648213 0.06928637 -0.043473285 0.032245666
0.035087064 -0.03179239 -0.07963288 -0.049203664 -0.064697444 0.004554607 0.08074898 0.03368555
0.0056146234 0.07187953 0.060662724 0.0116487965 0.019678019 0.060574166 0.029835396 -0.06875501
-0.06636711 0.038025655 -0.039501775 0.05784615 -0.048146345 0.038993277 0.017396308 -0.001363337
0.06216026 -0.083269686 -0.076066546 0.0060257986 -0.015383601 -0.0084106475 -0.057476602 0.0678597
-0.0075802132 -0.053100392 0.022710398 -0.06487241 -0.013931833 -0.0011615679 0.012142085 -0.06877393
-0.0804379 -0.082524784 -0.07731631 0.04499676 0.014559366 -0.056683168 -0.037396528 0.08276964
0.01210431 -0.076205164 -0.06654604 -0.02276931 -0.028019447 0.00037867576 -0.016335055 0.07647469
00000000: f602 20bd 2018 57bb 876b 903d b708 a53d
00000010: 71b8 55bd 7073 09bc 7062 883c e0c2 3e3c
00000020: 20f6 263b e110 aa3d 1ded a53d b984 923d
00000030: 961a b3bd 0db3 3ebd 38f5 10bc 3604 72bd
00000040: eae5 7ebd b32d 7cbd 4b27 47bd 61b8 893d
00000050: f804 5ebc 2c66 36bd 9225 7d3d d060 fa3c
00000060: 2086 8a3b c4e4 9c3c 00a5 083d 2717 1fbd
00000070: e6ab 0ebd 66d5 87bd 52db 6e3d 7bb2 9abd
00000080: 485a afbd 2fdb 04bd 73e2 9abd 0a75 003d
00000090: 55d9 a6bd 6d0e 6abd fefd f3bc 9c9e a4bc
000000a0: 9d0c 883d a034 fa3c a9f5 9d3d 73fd 873d
000000b0: fd05 9b3d 30f4 cb3c ccf3 093d 5ab3 35bd
000000c0: febb 5e3d 2ed9 2a3d f002 bd3b 72b8 493d
000000d0: 3313 85bd beae 74bd e5db 8dbd e48a 24bd
000000e0: 405e f43c ff83 8ebd 9801 1bbd 308f dfbc
000000f0: 8031 9cbd 40fd a4bb cffc a8bd 96e8 0a3d
00000100: 7d66 a33d 0056 0c3a 20f8 a63c f369 56bd
00000110: b5fa ad3d 71f2 8c3d 805a d8bc 116b 95bd
00000120: 38df 1bbc c3c9 a83d 9822 0b3d 2061 29bd
00000130: 4904 a73d cfc5 9e3d 5683 08bd 5405 cd3c
00000140: 526f 533d b86c a33c 0097 1f3c dbdd a0bd
00000150: 0026 3ab9 d45c 4abd ae24 e8bc 6485 113d
00000160: 2634 703d 001b 103a 4d8f 9c3d a05e 85bd
00000170: 88b1 0e3c 18e3 08bc 5085 a0bd 50f5 a1bc
00000180: 6246 3dbd ed02 1ebd 71f8 b03d 56ab 593d
00000190: 0015 f3bb bc1b 8e3c c1e9 813d 804d 703c
000001a0: 2a63 69bd 4c7d 77bd a8a8 8bbd 0b4e a4bd
000001b0: 60b6 3dbb 9a3c 713d 586e 623c 2f10 903d
000001c0: d040 a7bd 6a8a 2c3d 2dd5 aa3d 0a9d 673d
000001d0: fee9 8bbd 7aae 29bd 32e5 753d 29d7 02bd
000001e0: c447 90bd aa61 7dbd a856 be3c 9c6e b6bc
000001f0: 5343 953d bdfd 953d 14a3 bebc 267d 153d
00000200: 9bec 15bd 380a 8e3c ca99 5e3d ee78 d4bc
00000210: 9076 3e3c 2d0d 49bd c4e0 b9bc 356b b03d
00000220: 90b1 f73c 54c8 e93c a3ee 843d 5099 553c
00000230: 8006 1e3c 846c e4bc 30a3 8d3b 1a68 90bd
00000240: 6256 b2bd 8dab 76bd 2861 9ebc f464 6bbd
00000250: adfa a93d 72f1 213d 55a9 b03d df2a 8e3d
00000260: dc81 b2bc 8bda b1bd 4e1b 743d 20a5 243c
00000270: 0d9c 9f3d 309b 78bc faa6 e1bc 00c6 38ba
00000280: ba61 13bd 4c2b f83c 00a5 093d 322f f5bc
00000290: 79fe 84bd f608 fabc 7850 78bd 3a7b 493d
000002a0: 5496 afbc 3955 8ebd a206 603d 93eb 3cbd
000002b0: a5c5 aebd 909c b8bb 5f19 a53d 781e 30bc
000002c0: 5ba2 b1bd 12e0 1fbd 1db5 8bbd ebd9 a03d
000002d0: 14a1 e43c ee14 683d 7c97 b3bd 86f3 333d
000002e0: ab19 acbd 384a 7c3c 7187 8f3d f49e c03c
000002f0: c2d7 443d 7a75 653d 6dc1 33bd c807 30bc
00000300: f875 d73c 2866 0c3d 20a5 56bc 4cd0 f23c
00000310: ced6 5fbd 03e6 8d3d 0b11 32bd 0814 043d
00000320: 74b7 0f3d bd38 02bd 9016 a3bd c889 49bd
00000330: 1880 84bd d03e 953b b95f a53d dcf9 093d
00000340: e0fa b73b 9335 933d 7a79 783d 98da 3e3c
00000350: cc33 a13c 9e1c 783d 5c69 f43c 6dcf 8cbd
00000360: 7beb 87bd cac0 1b3d 9dcc 21bd 16f0 6c3d
00000370: 1a35 45bd 6ab7 1f3d b482 8e3c 00b2 b2ba
00000380: c29b 7e3d 4c89 aabd c7c8 9bbd 1074 c53b
00000390: 800b 7cbc d0cc 09bc 966c 6bbd 07fa 8a3d
000003a0: 7063 f8bb cc7f 59bd 280b ba3c d3db 84bd
000003b0: 5842 64bc c03f 98ba 98ef 463c 59d9 8cbd
000003c0: a0bc a4bd c102 a9bd 0358 9ebd 864e 383d
000003d0: 688a 6e3c 9c2c 68bd 1a2d 19bd 2183 a93d
000003e0: 2851 463c 7411 9cbd 4a49 88bd b486 babc
000003f0: 0a89 e5bc 0089 c639 18d1 85bc c39e 9c3d

ffn.0.bias f4 [512]
-0.060727634 -0.08400866 -0.003943354 0.0698052 0.063788004 0.022426657 -0.029981077 0.0383152
-0.069566 -0.032381814 -0.022255518 0.0013460144 0.006732516 0.04018239 -0.048449595 0.06273935
-0.054644946 -0.081593856 -0.018865138 0.058568023 -0.041035995 0.034805194 0.031039245 -0.055643354
0.07264417 -0.027428579 0.031371817 0.0017196834 0.0009815916 -0.043411873 -0.018547103 -0.07880666
0.05701039 0.058128513 -0.04396016 -0.085509844 -0.014806166 -0.07907686 0.08481587 -0.019031048
0.078809015 -0.06321761 0.015335754 0.0392802 -0.042877715 -0.07764911 -0.0591042 -0.072567195
0.07262794 0.06324627 -0.03668906 -0.05452507 0.023016468 0.0076582506 0.016510293 -0.009634495
-0.009131923 0.03145773 0.01469218 -0.08306358 -0.029213235 0.007962406 0.05362252 -0.011114493
0.021665663 -0.033201654 0.046994634 -0.005112149 -0.07474581 0.03319723 -0.06316099 -0.018482327
0.06994938 -0.03297957 -0.075437166 0.00636255 0.02460774 0.040157147 -0.036204007 -0.052850734
-0.026893578 -0.03530795 -0.030102544 -0.016091138 0.025832132 -0.045873493 -0.006762482 -0.06994381
-0.083443426 0.07794737 0.06536863 0.07365344 0.0028044507 0.032442167 -0.012971237 0.025749184
0.04453183 0.086855285 0.083989866 0.08666911 0.033613242 0.05301886 -0.002891399 0.08198743
0.010633536 0.007897995 0.06298747 0.028760642 -0.08714412 0.08202203 -0.045961812 -0.013801642
0.055311434 0.07902122 0.024678282 0.052320264 -0.08671052 0.072231136 0.022816598 0.06712858
0.08261066 0.027808994 0.05510979 -0.0029752478 -0.07006089 0.08578736 0.0050315335 0.024995439
-0.034398183 0.030880585 0.03757534 0.043517835 0.014537513 0.04674699 -0.026348185 -0.029554434
0.025154777 -0.03832179 0.021263503 -0.08212923 -0.05093279 -0.063909866 -0.07744592 -0.06230768
0.03892558 0.015900202 -0.07279141 -0.04716071 0.08649386 0.084402926 -0.07266486 0.0404964
-0.06272099 0.06357571 -0.086546816 -0.03799634 -0.05112317 -0.010466091 -0.06437471 0.05995021
-0.043427553 0.07368254 0.036307342 -0.013754614 -0.04705406 0.033069946 0.020502977 -0.028482955
-0.00032486767 -0.017014429 -0.068330094 -0.002187878 0.04115402 0.08423277 -0.0044500455 0.016514294
-0.08741512 -0.07474064 -0.029745433 -0.05176873 0.025785692 0.02194149 0.06758686 0.024933018
-0.050725974 0.017647423 0.007888414 0.07384772 -0.03492111 -0.021866426 -0.0042035803 0.01954671
0.045123972 0.06450521 -0.01881963 0.0723291 0.083368756 0.0032268018 0.035402127 -0.07634428
-0.028253391 -0.001194112 -0.0373194 -0.011355214 -0.03429099 -0.05627973 -0.006144546 -0.055836733
0.030368999 0.015077047 0.020388685 -0.044510968 -0.07988906 0.00021851063 -0.052413493 0.044212006
-0.08087571 0.07457834 -0.057138763 -0.049214453 0.051345177 0.067242496 -0.0027500838 0.048586525
0.017668977 -0.054521628 -0.031679858 -0.0025437549 0.06942975 -0.004996501 0.005732052 0.0006947592
0.023717694 0.059848525 -0.044593725 -0.0098290965 -0.03741774 0.07608274 0.06781431 0.06318053
-0.045719426 -0.026923776 0.013611704 0.010139465 -0.050226808 0.022029579 -0.025775485 0.030942053
-0.051723413 0.0041030496 0.07174111 0.061597593 -0.0631154 0.025416091 0.0429113 0.036357462
00000000: 8abd 78bd bb0c acbd 4037 81bb 07f6 8e3d
00000010: 49a3 823d 1cb8 b73c e09a f5bc 66f0 1c3d
00000020: 9e78 8ebd cba2 04bd 3451 b6bc c06c b03a
00000030: 709c dc3b 4a96 243d 1573 46bd 7d7d 803d
00000040: 61d3 5fbd ae1a a7bd 108b 9abc 06e5 6f3d
00000050: 5c15 28bd e48f 0e3d 0446 fe3c 49ea 63bd
00000060: 77c6 943d e6b1 e0bc bc7f 003d 0067 e13a
00000070: c0a8 803a a6d0 31bd 18f0 97bc 6365 a1bd
00000080: ba83 693d 2a18 6e3d 920f 34bd c91f afbd
00000090: 9095 72bc 0cf3 a1bd f1b3 ad3d 00e7 9bbc
000000a0: 9f66 a13d 3c78 81bd d042 7b3c 46e4 203d
000000b0: 8ba0 2fbd 7f06 9fbd 3f17 72bd 1c9e 94bd
000000c0: f5bd 943d 4387 813d 4547 16bd ae55 5fbd
000000d0: 088d bc3c 10f2 fa3b 9840 873c 00da 1dbc
000000e0: 109e 15bc d2d9 003d 78b7 703c 3d1d aabd
000000f0: 9850 efbc c074 023c 4aa3 5b3d 9019 36bc
00000100: 307c b13c 75fe 07bd 727d 403d d083 a7bb
00000110: 5514 99bd d2f9 073d 8d5a 81bd 4068 97bc
00000120: 9f41 8f3d 9615 07bd cd7e 9abd f07c d03b
00000130: 2c96 c93c d27b 243d a74a 14bd 037a 58bd
00000140: ec4f dcbc 129f 10bd 9c99 f6bc 90d1 83bc
00000150: e89d d33c d8e5 3bbd d097 ddbb b33e 8fbd
00000160: 63e4 aabd dfa2 9f3d fddf 853d 9dd7 963d
00000170: e0ca 373b 14e2 043d 5085 54bc f4ef d23c
00000180: 0267 363d 2fe1 b13d e102 ac3d 937f b13d
00000190: 0aae 093d 4e2a 593d a07d 3dbb 07e9 a73d
000001a0: 4838 2e3c 9866 013c 93ff 803d 709b eb3c
000001b0: 9e78 b2bd 2bfb a73d 7442 3cbd 4820 62bc
000001c0: 3e8e 623d e1d5 a13d 1c2a ca3c c64d 563d
000001d0: 4995 b1bd ebed 933d e0e9 ba3c b57a 893d
000001e0: c72f a93d b0cf e33c ceba 613d 60fc 42bb
000001f0: 157c 8fbd 49b1 af3d 90df a43b 3cc3 cc3c
00000200: 1ce5 0cbd 48f9 fc3c 9ae8 193d c23f 323d
00000210: c02e 6e3c c679 3f3d 26d8 d7bc 241c f2bc
00000220: 6411 ce3c 4ff7 1cbd cc30 ae3c 5f33 a8bd
00000230: e79e 50bd 2de3 82bd f79b 9ebd 5636 7fbd
00000240: 6e70 1f3d 2441 823c aa13 95bd 972b 41bd
00000250: b123 b13d 71db ac3d 50d1 94bd 8edf 253d
00000260: dd73 80bd fb33 823d 753f b1bd 0da2 1bbd
00000270: 8766 51bd f879 2bbc e3d6 83bd 5a8e 753d
00000280: 17e1 31bd dfe6 963d 02b7 143d 085b 61bc
00000290: c2bb 40bd 5a74 073d dcf5 a73c 1655 e9bc
000002a0: 0053 aab9 d861 8bbc a6f0 8bbd 8062 0fbb
000002b0: 1e91 283d 3b82 ac3d b0d1 91bb fc48 873c
000002c0: b306 b3bd 9f11 99bd b2ac f3bc 730b 54bd
000002d0: 843c d33c a4be b33c fb6a 8a3d 5440 cc3c
000002e0: 0ac6 4fbd 5491 903c 683e 013c 793d 973d
000002f0: 7009 0fbd 3821 b3bc 30be 89bb 6c20 a03c
00000300: ead3 383d 4f1b 843d a02b 9abc 4721 943d
00000310: 3dbd aa3d c078 533b d201 113d 645a 9cbd
00000320: a873 e7bc c083 9cba 3adc 18bd 380b 3abc
00000330: b674 0cbd 9385 66bd 3058 c9bb 0fb5 64bd
00000340: 68c8 f83c b805 773c 2c06 a73c 2251 36bd
00000350: e09c a3bd 0020 6539 88af 56bd a617 353d
00000360: 2aa2 a5bd 87bc 983d 560a 6abd 1895 49bd
00000370: 524f 523d 6fb6 893d c03a 34bb aa02 473d
00000380: 88be 903c 1252 5fbd bdc2 01bd 20b5 26bb
00000390: 2f31 8e3d b0b9 a3bb f0d3 bb3b 8020 363a
000003a0: 9c4b c23c ba23 753d e9a7 36bd 380a 21bc
000003b0: 5843 19bd 45d1 9b3d 3be2 8a3d cb64 813d
000003c0: 4b44 3bbd 408f dcbc a003 5f3c 0020 263c
000003d0: a0ba 4dbd 6077 b43c 1c27 d3bc 307a fd3c
000003e0: eedb 53bd e072 863b 01ed 923d c24d 7c3d
000003f0: a642 81bd 6835 d03c c2c3 2f3d 90eb 143d

ffn.2.weight f4 [128, 512]
-0.02619955 0.041172285 0.013579905 0.0010753833 0.00064634904 -0.02208952 -0.030047499 -0.029963901
-0.001034122 0.03927223 0.02994613 -0.016104074 -0.034989245 0.019361015 -0.039260484 0.037545215
0.0014068931 0.020091627 0.022096526 -0.04285759 0.042222176 0.028816056 -0.017120292 -0.034398675
-0.0032431297 -0.0021864623 -0.00037759915 -0.03817416 -0.042731866 -0.0015244447 0.0059552267 0.015706502
-0.03683036 -0.032612767 0.02377538 -0.0031684488 0.008657638 0.040621456 -0.03463363 -0.012149651
0.020692024 0.022016767 0.005618345 0.031616297 0.024542626 -0.012804508 -0.04363139 -0.02054223
-0.007156756 -0.022810943 -0.020679088 0.026303899 -0.02144201 0.027012233 0.009252746 -0.039923932
0.010499433 -0.017697847 0.030991163 0.0036039203 -0.0011760145 -0.012954703 -0.020986233 -0.017133536
-0.0014555976 0.021867651 0.018630397 0.039113488 0.02438369 0.010983389 0.004622828 0.015523333
-0.008247152 -0.035161115 0.030720245 -0.030975305 0.008546863 -0.016522212 0.015570786 0.04369699
0.033748474 0.023756947 0.0057167932 -0.0129246 0.035417642 0.0066374913 -0.033684045 -0.022457559
-0.04089868 0.030694682 -0.022945218 0.021514002 0.04187992 -0.03034718 -0.0013873689 -0.009694681
-0.012348171 0.0061745234 0.022931565 -0.0046277344 -0.021936445 -0.03605505 -0.040931787 -0.008832946
0.006393049 0.001236774 0.017949298 0.043326464 -0.008697536 -0.0073525086 -0.0051848143 0.01770673
-0.044178504 -0.037109837 -0.0057387426 0.014517315 0.010525502 0.042580623 0.0038302168 -0.009881478
-0.030126525 0.026134852 -0.0005245395 0.03879108 -0.032385267 -0.016577804 -0.043573096 0.020893898
0.04160573 -0.018063195 -0.03153505 0.0111705735 0.034317147 -0.024033708 0.012125272 0.04260013
0.01252893 0.013446055 0.019250508 -0.029010419 0.028224904 0.025710437 0.026840042 -0.016387632
-0.015033906 0.0311835 0.028301854 0.024147559 0.013535675 -0.009348072 0.030230377 0.006580025
0.021177556 0.01310049 -0.039399207 0.038466062 0.0334444 -0.0011543557 -0.012820017 0.03167991
-0.02899192 0.03278468 0.024199944 -0.034334287 -0.012528945 -0.014191264 -0.023348242 -0.0012590215
0.023426283 0.037401747 0.016222484 0.028510202 0.02299017 0.005856991 0.031984944 0.037463117
-0.015655352 -0.025847482 -0.019487575 -0.015951265 -0.022702869 -0.011361584 -0.035489894 0.023205798
0.039645683 -0.008447386 -0.03726275 0.03337014 -0.03595646 -0.022268092 -0.024908239 -0.028387008
0.02863365 -0.01950888 -0.023457155 -0.024492966 0.033859808 0.03108954 -0.032815505 0.035010155
0.026344743 0.031495277 0.00441698 0.021503072 0.04183643 -0.010804404 0.03786819 -0.041692648
0.021012213 -0.04106356 0.0043236725 0.02588204 0.0016774014 0.027426455 -0.023752978 0.030586462
0.028798621 -0.005440552 -0.023768483 -0.03758124 0.014576539 -0.042187534 0.02905872 -0.032771114
0.0067768805 -0.04232476 0.04387727 0.015328728 -0.019460242 -0.030568909 0.013810307 -0.039350282
0.039437044 -0.026641982 0.0060049705 0.0270737 0.00824089 0.009050436 0.005938031 -0.021879071
0.0021885 0.00035497174 0.013744868 0.04161488 -0.03760425 -0.0116925165 -0.0137153175 -0.01515628
-0.002887912 0.025487322 -0.018001689 -0.0406961 -0.0061708316 0.013330612 0.024053592 0.009342819
00000000: 70a0 d6bc 45a4 283d 407e 5e3c e0f3 8c3a
00000010: c06f 293a 15f5 b4bc 2c26 f6bc db76 f5bc
00000020: 608b 87ba ebdb 203d 9651 f53c b1ec 83bc
00000030: e250 0fbd fe9a 9e3c 9acf 20bd 03c9 193d
00000040: 8067 b83a 3297 a43c c603 b53c 718b 2fbd
00000050: 29f1 2c3d a60f ec3c db3f 8cbc a0e5 0cbd
00000060: b08a 54bb c04a 0fbb 80f8 c5b9 825c 1cbd
00000070: 9c07 2fbd e0cf c7ba 1024 c33b ecaa 803c
00000080: 6edb 16bd f794 05bd 96c4 c23c c0a5 4fbb
00000090: c4d8 0d3c af62 263d fedb 0dbd 540f 47bc
000000a0: 5282 a93c 825c b43c 181a b83b 1780 013d
000000b0: 9e0d c93c 00ca 51bc d4b6 32bd 2e48 a8bc
000000c0: 3883 eabb 04de babc 3167 a9bc 467b d73c
000000d0: 27a7 afbc c248 dd3c d498 173c 4787 23bd
000000e0: d005 2c3c 13fb 90bc 2ee1 fd3c c02f 6c3b
000000f0: 8024 9aba f63f 54bc 52eb abbc a15b 8cbc
00000100: c0c9 beba ca23 b33c c69e 983c 7735 203d
00000110: 4ec0 c73c acf3 333c 187b 973b 9455 7e3c
00000120: 101f 07bc 1a05 10bd 06a9 fb3c ecbf fdbc
00000130: 2408 0c3c 9759 87bc 9c1c 7f3c 9dfb 323d
00000140: d73b 0a3d ee9d c23c f053 bb3b b4c1 53bc
00000150: 1712 113d 507f d93b 48f8 09bd eaf8 b7bc
00000160: 6085 27bd 6a73 fb3c 9cf7 bbbc 223e b03c
00000170: 478a 2b3d a69a f8bc 60d8 b5ba 70d6 1ebc
00000180: fc4f 4abc a853 ca3b fada bb3c 40a4 97bb
00000190: 0fb4 b3bc 76ae 13bd 17a8 27bd 10b8 10bc
000001a0: c87c d13b 401b a23a 680a 933c 1777 313d
000001b0: 1c80 0ebc 50ed f0bb 60e5 a9bb b40d 913c
000001c0: 85f4 34bd 7c00 18bd 100c bcbb 08da 6d3c
000001d0: 2873 2c3c 0569 2e3d 6004 7b3b ece5 21bc
000001e0: e7cb f6bc c218 d63c 4081 09ba 65e3 1e3d
000001f0: 6aa6 04bd 2dce 87bc b479 32bd ae29 ab3c
00000200: c56a 2a3d 44f9 93bc e62a 01bd c804 373c
00000210: 2390 0c3d 57e2 c4bc 14a9 463c 797d 2e3d
00000220: 2446 4d3c d84c 5c3c 3eb3 9d3c 42a7 edbc
00000230: ea37 e73c b29e d23c a6df db3c 5b3f 86bc
00000240: c650 76bc 8a74 ff3c 4ad9 e73c 1ad1 c53c
00000250: bcc4 5d3c a828 19bc b2a5 f73c 409d d73b
00000260: 8e7c ad3c 70a3 563c 1061 21bd 978e 1d3d
00000270: fffc 083d c04d 97ba 0c0b 52bc cbc2 013d
00000280: 7780 edbc 3b49 063d f63e c63c 1ca2 0cbd
00000290: 3446 4dbc 7a82 68bc d044 bfbc c005 a5ba
000002a0: 7ae8 bf3c 9332 193d 04e5 843c 3a8e e93c
000002b0: e255 bc3c 00ec bf3b a502 033d ed72 193d
000002c0: a73f 80bc 19be d3bc 68a4 9fbc 3aac 82bc
000002d0: 5efb b9bc f025 3abc da5d 11bd 161a be3c
000002e0: 8363 223d e866 0abc d3a0 18bd 21af 083d
000002f0: 1547 13bd 936b b6bc 5d0c ccbc df8b e8bc
00000300: 1e91 ea3c 16d1 9fbc 3829 c0bc 79a5 c8bc
00000310: 95b0 0a3d 7eaf fe3c 8d69 06bd cf66 0f3d
00000320: eed0 d73c 3101 013d 50bc 903b 3627 b03c
00000330: ad5c 2b3d f404 31bc ad1b 1b3d e9c5 2abd
00000340: ce21 ac3c 4332 28bd 98ad 8d3b 9206 d43c
00000350: 40dc db3a 72ad e03c 9b95 c2bc 7690 fa3c
00000360: 16eb eb3c a846 b2bb 1fb6 c2bc c9ee 19bd
00000370: 70d2 6e3c d6cc 2cbd 8e0c ee3c 013b 06bd
00000380: 9810 de3b ba5c 2dbd a7b8 333d 5825 7b3c
00000390: 166b 9fbc a66b fabc a044 623c c32d 21bd
000003a0: bd88 213d 4940 dabc 58c5 c43b aac9 dd3c
000003b0: cc04 073c 4848 143c d093 c23b bd3b b3bc
000003c0: f06c 0f3b 801b ba39 2832 613c 5d74 2a3d
000003d0: ea06 1abd f891 3fbc 36b6 60bc 0c52 78bc
000003e0: 2043 3dbb caca d03c 4778 93bc f4b0 26bd
000003f0: b034 cabb a468 5a3c 0a0c c53c a012 193c
