data/simple_transformer_trained_weights.pth (torch, 803386 bytes, 13 tensors)

embed.weight f4 [10, 128]
000000 1c f0 1f 40 9a 0f 9b bf eb 72 a0 3f 4d e1 83 3f
       2.49903 -1.2114136 1.253507 1.0303131
000010 4a aa 0c 40 10 da 01 bf 90 43 db 3f 5c e1 7b 3f
       2.1978936 -0.5072336 1.7129993 0.98390746
000020 f1 c3 b2 3f 70 f6 1a bf b8 7b d0 be 01 94 1e bf
       1.3966047 -0.60532284 -0.4071939 -0.61944586
000030 4a 9b 86 bf 0c 7a 94 3e b2 a6 e6 3f ee 61 19 bf
       -1.051614 0.28999364 1.8019621 -0.59915054
000040 6c 4c 18 3f 31 f6 c8 bf ce 25 2e bf b1 0f ef bf
       0.5949161 -1.5700132 -0.68026435 -1.8676664
000050 38 1a 9e bf d3 32 08 bd 7c 74 69 be a5 eb b2 bf
       -1.2351751 -0.033251595 -0.22798342 -1.3978163
000060 01 9c e6 bf 08 c5 67 bf 8f 25 64 bf 06 77 ab 3f
       -1.8016359 -0.9053502 -0.8911981 1.3395698
000070 10 57 1d be dc 13 ac 3f 19 64 d5 bf 1c 63 0d 3f
       -0.15365243 1.3443561 -1.6671172 0.55229354
000080 64 93 8d 3e 8c b0 fb 3d 4d d6 63 bf 80 4e 0a 3f
       0.27651513 0.12289533 -0.8899887 0.5402603
000090 2c 24 7a bf 11 ce be 3f 52 99 a1 bf b2 9c 5b 3f
       -0.97711444 1.4906636 -1.2624915 0.85785973
0000a0 5a 3a 8e be 02 97 63 bf 87 8a cd 3f 58 bb 1f 3f
       -0.27778894 -0.88902295 1.60579 0.6239524
0000b0 a0 a4 db bf 81 53 aa be 23 57 dc be 0a 35 b6 bf
       -1.7159615 -0.33266833 -0.4303523 -1.4234936
0000c0 73 74 22 3e e1 ee ec 3f 71 a0 d0 3f 61 2a 40 3e
       0.15864734 1.85104 1.6298963 0.18766166
0000d0 0e c5 32 3f f0 07 bb bf 14 13 ef 3d d9 a9 c7 3f
       0.6983193 -1.4611797 0.11673561 1.5598708
0000e0 d7 05 53 3f be 19 77 3d 45 29 6f bf c4 ad 47 bf
       0.82430786 0.060327284 -0.9342235 -0.7799952
0000f0 d4 84 02 3e a2 cb 0e bf df f2 64 bf ff fa f8 be
       0.12745982 -0.5577947 -0.8943309 -0.48628995
000100 68 d1 d6 bd aa 30 1c 40 09 0d 00 c0 8a f6 4f be
       -0.1048916 2.4404702 -2.0007956 -0.20308891
000110 90 71 66 be fa df 5c 3f 9f 59 02 3f 7f 3a da bf
       -0.22504258 0.8627926 0.50918 -1.7049102
000120 52 a4 20 be 71 26 db 3f 93 7f 30 bf 24 91 99 3e
       -0.15687683 1.7121106 -0.6894466 0.29993546
000130 b3 7c 1c bf 66 2b d9 be 1a ac b9 bf dc fd c6 3f
       -0.61127776 -0.42415923 -1.4505646 1.5546222
000140 cd da 38 bf 38 10 e6 3f 3c 37 1a 3f 9f d6 b4 3f
       -0.72208863 1.79737 0.6024053 1.4127997
000150 0d 9b 25 c0 8b cb a8 3c b1 39 48 bf d5 3a cf bf
       -2.5875885 0.02060487 -0.7821303 -1.6189829
000160 17 50 0d 3f 8c 6c 82 bf cd bc 85 bf 14 c6 4d 3f
       0.5520033 -1.0189376 -1.0448242 0.8038037
000170 f7 b0 fe 3d af 0f ad 3e 30 7c ae 3e 0e 4e 6b bf
       0.12436097 0.33801028 0.34079123 -0.91915977
000180 d4 aa dc be fb 88 a5 3d 68 ad 6f be 0d c1 bf be
       -0.43099082 0.080827676 -0.23405993 -0.37451974
000190 99 c7 1a bb d6 da 24 3f cd b3 19 40 32 3e 2d be
       -0.0023617505 0.6439642 2.4015992 -0.16918257
0001a0 85 3d e7 be 47 3a 3c 3f a2 59 03 bd 1b d3 c0 3f
       -0.45164123 0.73526424 -0.032067902 1.5064424
0001b0 86 5e f4 3f 65 26 bf be e2 30 54 3f f4 38 74 3f
       1.9091346 -0.3733398 0.8288709 0.95399404
0001c0 dd 13 46 be 1c a2 30 40 34 fc 8c 3e ec fc 00 3f
       -0.19343515 2.7598944 0.27536166 0.5038593
0001d0 d7 8e 18 3e b5 eb 94 be 16 c7 9b 3f 77 8e b3 bf
       0.14898239 -0.2908608 1.2170131 -1.4027852
0001e0 7d d5 cc be 03 57 48 3f 01 c1 a4 3f 5f 8d df 3f
       -0.4000663 0.7825777 1.28714 1.7465018
0001f0 6b e2 01 3e 5a a0 73 3f f3 d8 d5 be e4 a4 b0 be
       0.12684028 0.9516655 -0.41767082 -0.34500802
000200 cd 6b 23 3f a6 ae 6c bf f9 8a 36 3e 13 9a 4e be
       0.63836366 -0.9245399 0.17826451 -0.20175962
000210 11 31 fe 3e 85 06 f1 3e ee 65 e6 3e 19 48 00 bf
       0.4964681 0.47075287 0.4499964 -0.5011001
000220 b3 04 66 3f 8d b8 e5 3e e6 91 11 bf 52 16 b4 bf
       0.8985092 0.44867364 -0.5686325 -1.4069312
000230 f4 80 cd 3e f4 ff d0 3e 53 3c ee be 3a 34 dd bf
       0.40137446 0.40820277 -0.465304 -1.7281563
000240 5f 3a 57 be 87 ce 80 3e af f5 c2 be f4 b3 cd 3d
       -0.2101836 0.25157568 -0.38078067 0.10044089
000250 58 bb 0c bf 73 d6 6c be 9b 9d 58 3f c6 3b ae bf
       -0.54973364 -0.23128681 0.84615487 -1.3611991
000260 f1 b3 d7 3f 31 95 d6 be d7 70 2c be 55 96 9c bf
       1.6851789 -0.419107 -0.1683992 -1.2233378
000270 88 89 1f bf be 58 41 be be a3 23 bf 24 7b 81 3f
       -0.6231923 -0.18881509 -0.63921726 1.0115705
000280 9e c2 b4 bf 47 2d 52 bf b8 df 80 3e 59 a3 57 bf
       -1.4121892 -0.8210034 0.25170684 -0.84233624
000290 11 a7 06 bf 76 17 41 3f 37 18 e2 3e 80 df 8e 3e
       -0.52598673 0.75426424 0.441591 0.27904892
0002a0 6f a2 f0 3c 49 21 f2 be 42 a2 75 bd 2d 5f fd 3f
       0.02937433 -0.4729102 -0.059969194 1.979467
0002b0 e7 05 cc 3e e6 78 4e 3f 1c f7 b2 3e 9b cc 2b 3f
       0.39848253 0.80653226 0.34954154 0.6710908
0002c0 fb 04 d8 bf 4e 41 7e 3f 4b db 84 bf 46 ac 3b bd
       -1.687652 0.993184 -1.0379423 -0.04581859
0002d0 22 df 10 bf 9a a3 f0 be 6a b7 8c 3f 7e 3d ce be
       -0.56590474 -0.46999818 1.0993474 -0.4028129
0002e0 d8 d8 85 3f 58 82 d1 3d 5b bf fe be 8f 07 9b 3e
       1.04568 0.10229939 -0.49755368 0.30279204
0002f0 b9 8a 96 bf 32 1c 95 3e 0c ff a4 bd c8 4c 2e bf
       -1.1761085 0.29123074 -0.08056459 -0.6808591
000300 b4 cb de 3f 7e 0d 0c bf 16 9e 39 3f f7 45 f1 be
       1.7405915 -0.5470809 0.72506845 -0.4712369
000310 95 22 d1 3e 8d 21 4c bf 34 8e 84 3f d5 77 57 3f
       0.40846696 -0.79738694 1.0355897 0.84167224
000320 bc 9f 14 40 9d 4f df bf a0 77 9a 3f 12 65 da 3f
       2.3222494 -1.7446171 1.2067757 1.7062094
000330 05 b2 a9 3f 05 ef 04 3e 4a 64 80 bd 01 ed 7f bf
       1.3257452 0.12981804 -0.062691286 -0.99971014
000340 25 e2 28 3f 97 9e c8 3e 7d 47 e3 3f ea 55 c7 bd
       0.6597007 0.39183494 1.7756191 -0.09733184
000350 51 ba 90 be c3 a6 8d 3f 46 18 2f 3f 96 f1 3c bf
       -0.28267148 1.1066517 0.68396413 -0.7380613
000360 bd 32 32 3b 80 a2 93 bf 2e 77 6e 3f 17 ee 80 3e
       0.0027190887 -1.1533966 0.93150604 0.25181648
000370 4e 2c 73 bf 2f ee 48 bf b0 c6 09 40 fe ff 63 3f
       -0.9498948 -0.7848844 2.152752 0.8906249
000380 5b 26 2d 3e 8d f3 67 3f 73 25 aa bf e4 1e 51 3e
       0.16909163 0.90606004 -1.3292679 0.2042194
000390 24 e0 50 3e 0b 7d e5 3f 78 66 04 bc 9e b5 c1 3f
       0.20398003 1.7928785 -0.008081071 1.513355
0003a0 23 65 d4 bf 8c af bd be 00 bd 71 bf db 78 21 40
       -1.6593364 -0.37047994 -0.94429016 2.5230014
0003b0 b8 fb a2 3f f0 a7 ad 3f a1 ee 23 3f fa e7 f1 3f
       1.2733068 1.3566875 0.64035994 1.8898919
0003c0 45 1b 60 3f e1 08 c3 3e 6b a9 9d 3f 7c a8 11 3f
       0.8754161 0.38092712 1.2317327 0.5689771
0003d0 5f a5 44 3e ea f1 b3 3e 05 4a 58 bf c2 29 59 3e
       0.19203709 0.35145503 -0.84487945 0.21207336
0003e0 66 eb a6 3f e2 5a 42 bd ad 06 e2 be 84 18 6f 3f
       1.3040588 -0.047449954 -0.44145718 0.9339678
0003f0 4f 95 7d 3f bc 71 25 3f ac 78 cc bf 16 94 99 3e
       0.9905595 0.6462667 -1.5974326 0.29995793

self_attn.in_proj_weight f4 [384, 128]
000000 26 d9 92 bd 1c 80 2f bd d2 cd 7d 3d 40 f8 85 3b
       -0.07170324 -0.042846784 0.061963864 0.0040884316
000010 04 46 d4 3c 0e 5e a1 bd 34 d2 d9 3c dc bf 92 3c
       0.025912292 -0.07879268 0.02658949 0.017913751
000020 6e 04 2a bd 60 ee 6a 3c 8e 72 81 bd 38 a7 22 bd
       -0.04150813 0.01433906 -0.06320678 -0.039710253
000030 be 73 0c 3d b7 f4 56 bd 19 06 7a bd 8a 91 1c 3d
       0.034290068 -0.052479472 -0.06104097 0.038224734
000040 92 4b 67 3d 5f f5 b5 3d 61 d1 43 bd d7 42 75 bd
       0.056468554 0.088846914 -0.0478071 -0.059878197
000050 37 58 b5 3d d5 47 92 3d 40 29 32 bb 40 cb 9f bc
       0.08854716 0.07142607 -0.0027185231 -0.019506097
000060 96 34 7c bd 33 f8 c2 3d 01 8d 67 bd aa f1 4f 3d
       -0.061573587 0.095199965 -0.056530956 0.05076758
000070 2a d8 0b 3d 30 2c 88 bd a1 dd d6 3d 85 8f 97 3d
       0.034141697 -0.06649053 0.10491491 0.07400421
000080 3c 86 8c 3c 27 e7 8f 3d a9 e3 cf 3d c0 5b 05 3b
       0.017153852 0.07026511 0.101508446 0.0020348877
000090 81 7a a2 bd f9 d7 49 bd c2 a9 38 bd f9 22 b5 3d
       -0.07933522 -0.049278233 -0.04508377 0.08844561
0000a0 f8 48 cf bd 82 bd 7a 3d d6 7d 39 3d 17 ce 5a bd
       -0.101213396 0.061215885 0.045286022 -0.0534192
0000b0 42 dc 1b 3d 98 39 24 3c b0 7c 84 3c fe f3 1c bd
       0.03805185 0.010023497 0.016172737 -0.038318627
0000c0 1e 8e 41 bd 38 f8 27 bc 10 66 1a bc 59 5a 73 bd
       -0.047254674 -0.010252051 -0.009423748 -0.059412334
0000d0 ea f7 69 bd 24 76 2a bd 03 17 99 bd 34 50 d1 bd
       -0.057121195 -0.041616574 -0.07475092 -0.10220376
0000e0 fe 54 84 bd ce d8 22 3d a9 02 ae 3d 1f 42 b2 3d
       -0.064615235 0.039757542 0.08496601 0.08704018
0000f0 8f bd b1 3d 75 9a c2 3d 12 6f 32 3d ba 58 b5 bd
       0.086787336 0.095021166 0.043562956 -0.08854814
000100 2b 4e 84 3d ba 4b 69 3d bb f4 8e bd e8 92 9a bd
       0.06460222 0.056956984 -0.069802724 -0.075475514
000110 d0 c3 ed bb 4a 3c 06 3d 80 b5 94 3b f4 65 f7 3c
       -0.0072560087 0.03277234 0.004538238 0.030199982
000120 64 48 d4 3c cd b2 b9 3d 52 b4 0a 3d 1e 1b 20 bd
       0.025913425 0.09067307 0.033863373 -0.03908836
000130 a8 1c 0e bd 75 10 79 bd e0 1c 99 3b 11 0d 99 bd
       -0.034695297 -0.06080671 0.0046726316 -0.07473195
000140 00 6b 16 ba 0b d3 bb 3d 1c 75 da bc 10 79 85 bc
       -0.000573799 0.091711126 -0.02666717 -0.016293079
000150 4f 45 ca 3d 4f 14 d3 bd 80 47 13 3b 9e cd 34 3d
       0.09876501 -0.10306608 0.0022473037 0.044141404
000160 6f 22 dc 3d 79 1e dd bd 18 d0 be bd 0a ad 37 bd
       0.10748755 -0.10796828 -0.093170345 -0.044842757
000170 a9 54 c1 bd f5 bd 52 bd e6 7d 53 3d fc 85 c8 bd
       -0.09439976 -0.05145069 0.051633738 -0.097911805
000180 f0 e9 45 3c b3 80 ab bd bf 71 4a bd 25 38 a6 3d
       0.012079701 -0.08374157 -0.049424883 0.081161775
000190 a4 f0 c5 bd 96 f1 7f 3d 5a 9b 66 3d 6b cc 9a 3d
       -0.09665039 0.062486254 0.0563005 0.07558521
0001a0 ae d5 67 3d fc 0c 34 bd 38 e9 5e bc b8 e0 2b bd
       0.056600265 -0.043957695 -0.013605408 -0.041962355
0001b0 40 4d 39 3c e8 5d c0 bd f8 b8 0f bc 50 da a4 bc
       0.011309922 -0.09392911 -0.008772127 -0.02012363
0001c0 38 58 30 bc 30 93 cd bb 09 75 d9 3d 41 57 cd 3d
       -0.0107632205 -0.0062736496 0.10618026 0.10026408
0001d0 00 8e 73 39 c6 7a 69 3d 70 07 51 bc 60 98 5b 3c
       0.00023227185 0.05700185 -0.012758121 0.013403028
0001e0 64 24 92 3c 79 2d b5 3d 09 cb 9c 3d 49 86 cd 3d
       0.017839618 0.08846564 0.076559134 0.100353785
0001f0 8a 84 9a bd 4a 06 74 3d 16 cf 1a 3d 32 bf a6 bd
       -0.07544811 0.05957631 0.03779515 -0.08141936
000200 dd 03 84 3d 8b 88 95 3d 30 90 be bb 15 60 d3 bd
       0.06446049 0.07301434 -0.0058155283 -0.103210606
000210 c0 7c 7e 3c 82 f9 5b 3d 12 fb 78 3d 00 65 09 bd
       0.015532672 0.053704746 0.060786314 -0.033543587
000220 76 87 58 3d 86 43 38 bd 08 70 81 bc cf 1b a6 3d
       0.05286356 -0.04498627 -0.015800491 0.08110773
000230 de d3 0c bd 33 27 57 bd 2f 66 cb bd 24 7f ae 3c
       -0.03438174 -0.052527618 -0.09931599 0.02130086
000240 0e 85 25 bd 7c 51 d2 3c 74 7a f8 3c 72 e2 23 3d
       -0.040410094 0.02567362 0.030331828 0.040010877
000250 c8 1f 10 bd 80 27 76 bd ce c8 4e 3d f1 6d 8a 3d
       -0.03518656 -0.060096264 0.05048447 0.06759251
000260 5d be 91 3d e0 67 59 bc 22 d8 24 3d 95 51 82 3d
       0.07116387 -0.013269395 0.040245183 0.06363217
000270 39 4c b3 3d 91 be 5f bd d4 91 2a bd ef b6 69 bd
       0.08754773 -0.054625098 -0.04164298 -0.057059225
000280 c4 22 f0 3c 9c bb d1 3c d7 0c b5 3d 8c 0c 80 3c
       0.029313453 0.025602154 0.0884034 0.015630983
000290 0c bd 8b bd 64 b4 cd 3c fe 84 05 bd 6c 49 ba bc
       -0.06823167 0.025110431 -0.032597534 -0.022740088
0002a0 ac 0e ba 3c ea 11 14 3d 22 05 7c bd e0 a3 8f bb
       0.022712074 0.036149897 -0.061528333 -0.004383549
0002b0 e2 73 1b bd 93 15 c5 3d c4 70 b3 bd 38 bb 25 bc
       -0.03795231 0.096232556 -0.08761743 -0.010115437
0002c0 fc 8e 2f bd 1c ce b8 3c 08 e3 5d 3c b6 6f 6b 3d
       -0.04286097 0.022559218 0.013542898 0.057479583
0002d0 d2 e1 39 bd c8 f2 23 bd 52 cf 7c bd 94 1b ab bd
       -0.045381375 -0.040026456 -0.061721154 -0.083548695
0002e0 c0 d8 de bc d6 70 5e 3d dd f8 a9 bd a8 ed e5 bc
       -0.027202964 0.054306827 -0.0829942 -0.028067425
0002f0 46 4e 31 3d 4c fb 8e 3c 00 ec 5a 3a f0 af ee 3b
       0.043287538 0.017453812 0.0008351207 0.007284157
000300 bc fc 83 bc 08 72 3d bd 80 8d 5c 3a 2c c9 9c 3c
       -0.016111724 -0.046251327 0.0008413419 0.019138895
000310 e8 a7 2a bc 64 30 ea bc 80 36 4e 3a a3 c4 8d 3d
       -0.0104160085 -0.028587528 0.00078663975 0.06922271
000320 80 5b 81 bb b8 38 0a 3c b4 04 a0 bc ae a2 99 bd
       -0.003947675 0.008436374 -0.019533493 -0.07501732
000330 cd 34 ab 3d 10 7f cf bb 03 0f a2 3d 5d 6f a9 3d
       0.0835968 -0.0063322857 0.079130195 0.08273194
000340 92 e3 4d 3d 5d b8 be 3d 52 cf 57 3d bc a1 d4 bc
       0.050265856 0.09312508 0.05268795 -0.025956027
000350 00 28 12 3b ed 12 cb 3d 44 c4 f9 3c b6 a2 37 bd
       0.0022301674 0.09915719 0.030489095 -0.044832908
000360 31 60 9d 3d 40 ab ff bb 5f d6 ae 3d 65 15 c3 3d
       0.07684363 -0.007802397 0.08536982 0.09525565
000370 34 aa e2 3c 2e 7f cd bd fc e6 26 bd fa 61 1f 3d
       0.02766905 -0.10034023 -0.040747628 0.038911797
000380 a6 74 00 bd 88 a4 23 bc cd 38 6d bd e6 ea 14 3d
       -0.031361245 -0.009987958 -0.057915498 0.03635683
000390 84 73 b1 bd 7e 5d 2c bd 2a 8a 0c 3d c2 e0 4e 3d
       -0.08664611 -0.04208135 0.03431145 0.050507315
0003a0 8a 06 1c bd 20 91 7d bb 59 36 96 bd 84 24 da bc
       -0.038092174 -0.0038691238 -0.07334585 -0.02662874
0003b0 e7 c5 db 3d a0 70 b4 bc 64 d1 83 bd 2a 72 86 bd
       0.10731106 -0.02202636 -0.064364225 -0.06564744
0003c0 39 12 d8 3d 40 47 b0 bd 10 a0 6a 3c ec 18 e3 3c
       0.10550351 -0.0860734 0.014320388 0.027721845
0003d0 78 3a c6 bc a9 85 ae bd 6e 5f 80 bd 92 8c cf bd
       -0.024197802 -0.085215874 -0.06268202 -0.101342335
0003e0 8a 9f 2d bd 45 c9 3d bd 87 04 c4 3d 6c 5a a0 bc
       -0.042388476 -0.046334524 0.09571176 -0.019574367
0003f0 d6 02 25 3d 8f 1b 96 3d b0 0a b0 bc 23 97 cc bd
       0.040285908 0.07329475 -0.021489471 -0.099897645

self_attn.in_proj_bias f4 [384]
000000 00 00 00 00 00 00 00 00 00 00 00 00 00 00 00 00
       0.0 0.0 0.0 0.0
000010 00 00 00 00 00 00 00 00 00 00 00 00 00 00 00 00
       0.0 0.0 0.0 0.0
000020 00 00 00 00 00 00 00 00 00 00 00 00 00 00 00 00
       0.0 0.0 0.0 0.0
000030 00 00 00 00 00 00 00 00 00 00 00 00 00 00 00 00
       0.0 0.0 0.0 0.0
000040 00 00 00 00 00 00 00 00 00 00 00 00 00 00 00 00
       0.0 0.0 0.0 0.0
000050 00 00 00 00 00 00 00 00 00 00 00 00 00 00 00 00
       0.0 0.0 0.0 0.0
000060 00 00 00 00 00 00 00 00 00 00 00 00 00 00 00 00
       0.0 0.0 0.0 0.0
000070 00 00 00 00 00 00 00 00 00 00 00 00 00 00 00 00
       0.0 0.0 0.0 0.0
000080 00 00 00 00 00 00 00 00 00 00 00 00 00 00 00 00
       0.0 0.0 0.0 0.0
000090 00 00 00 00 00 00 00 00 00 00 00 00 00 00 00 00
       0.0 0.0 0.0 0.0
0000a0 00 00 00 00 00 00 00 00 00 00 00 00 00 00 00 00
       0.0 0.0 0.0 0.0
0000b0 00 00 00 00 00 00 00 00 00 00 00 00 00 00 00 00
       0.0 0.0 0.0 0.0
0000c0 00 00 00 00 00 00 00 00 00 00 00 00 00 00 00 00
       0.0 0.0 0.0 0.0
0000d0 00 00 00 00 00 00 00 00 00 00 00 00 00 00 00 00
       0.0 0.0 0.0 0.0
0000e0 00 00 00 00 00 00 00 00 00 00 00 00 00 00 00 00
       0.0 0.0 0.0 0.0
0000f0 00 00 00 00 00 00 00 00 00 00 00 00 00 00 00 00
       0.0 0.0 0.0 0.0
000100 00 00 00 00 00 00 00 00 00 00 00 00 00 00 00 00
       0.0 0.0 0.0 0.0
000110 00 00 00 00 00 00 00 00 00 00 00 00 00 00 00 00
       0.0 0.0 0.0 0.0
000120 00 00 00 00 00 00 00 00 00 00 00 00 00 00 00 00
       0.0 0.0 0.0 0.0
000130 00 00 00 00 00 00 00 00 00 00 00 00 00 00 00 00
       0.0 0.0 0.0 0.0
000140 00 00 00 00 00 00 00 00 00 00 00 00 00 00 00 00
       0.0 0.0 0.0 0.0
000150 00 00 00 00 00 00 00 00 00 00 00 00 00 00 00 00
       0.0 0.0 0.0 0.0
000160 00 00 00 00 00 00 00 00 00 00 00 00 00 00 00 00
       0.0 0.0 0.0 0.0
000170 00 00 00 00 00 00 00 00 00 00 00 00 00 00 00 00
       0.0 0.0 0.0 0.0
000180 00 00 00 00 00 00 00 00 00 00 00 00 00 00 00 00
       0.0 0.0 0.0 0.0
000190 00 00 00 00 00 00 00 00 00 00 00 00 00 00 00 00
       0.0 0.0 0.0 0.0
0001a0 00 00 00 00 00 00 00 00 00 00 00 00 00 00 00 00
       0.0 0.0 0.0 0.0
0001b0 00 00 00 00 00 00 00 00 00 00 00 00 00 00 00 00
       0.0 0.0 0.0 0.0
0001c0 00 00 00 00 00 00 00 00 00 00 00 00 00 00 00 00
       0.0 0.0 0.0 0.0
0001d0 00 00 00 00 00 00 00 00 00 00 00 00 00 00 00 00
       0.0 0.0 0.0 0.0
0001e0 00 00 00 00 00 00 00 00 00 00 00 00 00 00 00 00
       0.0 0.0 0.0 0.0
0001f0 00 00 00 00 00 00 00 00 00 00 00 00 00 00 00 00
       0.0 0.0 0.0 0.0
000200 00 00 00 00 00 00 00 00 00 00 00 00 00 00 00 00
       0.0 0.0 0.0 0.0
000210 00 00 00 00 00 00 00 00 00 00 00 00 00 00 00 00
       0.0 0.0 0.0 0.0
000220 00 00 00 00 00 00 00 00 00 00 00 00 00 00 00 00
       0.0 0.0 0.0 0.0
000230 00 00 00 00 00 00 00 00 00 00 00 00 00 00 00 00
       0.0 0.0 0.0 0.0
000240 00 00 00 00 00 00 00 00 00 00 00 00 00 00 00 00
       0.0 0.0 0.0 0.0
000250 00 00 00 00 00 00 00 00 00 00 00 00 00 00 00 00
       0.0 0.0 0.0 0.0
000260 00 00 00 00 00 00 00 00 00 00 00 00 00 00 00 00
       0.0 0.0 0.0 0.0
000270 00 00 00 00 00 00 00 00 00 00 00 00 00 00 00 00
       0.0 0.0 0.0 0.0
000280 00 00 00 00 00 00 00 00 00 00 00 00 00 00 00 00
       0.0 0.0 0.0 0.0
000290 00 00 00 00 00 00 00 00 00 00 00 00 00 00 00 00
       0.0 0.0 0.0 0.0
0002a0 00 00 00 00 00 00 00 00 00 00 00 00 00 00 00 00
       0.0 0.0 0.0 0.0
0002b0 00 00 00 00 00 00 00 00 00 00 00 00 00 00 00 00
       0.0 0.0 0.0 0.0
0002c0 00 00 00 00 00 00 00 00 00 00 00 00 00 00 00 00
       0.0 0.0 0.0 0.0
0002d0 00 00 00 00 00 00 00 00 00 00 00 00 00 00 00 00
       0.0 0.0 0.0 0.0
0002e0 00 00 00 00 00 00 00 00 00 00 00 00 00 00 00 00
       0.0 0.0 0.0 0.0
0002f0 00 00 00 00 00 00 00 00 00 00 00 00 00 00 00 00
       0.0 0.0 0.0 0.0
000300 00 00 00 00 00 00 00 00 00 00 00 00 00 00 00 00
       0.0 0.0 0.0 0.0
000310 00 00 00 00 00 00 00 00 00 00 00 00 00 00 00 00
       0.0 0.0 0.0 0.0
000320 00 00 00 00 00 00 00 00 00 00 00 00 00 00 00 00
       0.0 0.0 0.0 0.0
000330 00 00 00 00 00 00 00 00 00 00 00 00 00 00 00 00
       0.0 0.0 0.0 0.0
000340 00 00 00 00 00 00 00 00 00 00 00 00 00 00 00 00
       0.0 0.0 0.0 0.0
000350 00 00 00 00 00 00 00 00 00 00 00 00 00 00 00 00
       0.0 0.0 0.0 0.0
000360 00 00 00 00 00 00 00 00 00 00 00 00 00 00 00 00
       0.0 0.0 0.0 0.0
000370 00 00 00 00 00 00 00 00 00 00 00 00 00 00 00 00
       0.0 0.0 0.0 0.0
000380 00 00 00 00 00 00 00 00 00 00 00 00 00 00 00 00
       0.0 0.0 0.0 0.0
000390 00 00 00 00 00 00 00 00 00 00 00 00 00 00 00 00
       0.0 0.0 0.0 0.0
0003a0 00 00 00 00 00 00 00 00 00 00 00 00 00 00 00 00
       0.0 0.0 0.0 0.0
0003b0 00 00 00 00 00 00 00 00 00 00 00 00 00 00 00 00
       0.0 0.0 0.0 0.0
0003c0 00 00 00 00 00 00 00 00 00 00 00 00 00 00 00 00
       0.0 0.0 0.0 0.0
0003d0 00 00 00 00 00 00 00 00 00 00 00 00 00 00 00 00
       0.0 0.0 0.0 0.0
0003e0 00 00 00 00 00 00 00 00 00 00 00 00 00 00 00 00
       0.0 0.0 0.0 0.0
0003f0 00 00 00 00 00 00 00 00 00 00 00 00 00 00 00 00
       0.0 0.0 0.0 0.0

self_attn.out_proj.weight f4 [128, 128]
000000 14 9f 95 3d fa c6 6a 3b bf aa 0c 3b a3 90 47 3d
       0.07305732 0.0035824166 0.0021464077 0.04872192
000010 20 72 2e bc a3 6c 1f bd 0b e9 64 3c cd d0 95 3b
       -0.010647327 -0.038921963 0.013971577 0.00457201
000020 86 cc 95 3d a3 c4 05 3c 73 08 a7 bc d7 aa 15 bc
       0.073144004 0.008164558 -0.020389771 -0.00913497
000030 9f 0f 84 3b b6 e7 8d bd 11 58 95 bd f4 5b 98 3d
       0.0040301825 -0.06928961 -0.07292188 0.07439414
000040 35 0a 72 3d fb 7d b7 bc e6 78 33 bd 74 60 7b bc
       0.059091765 -0.02239894 -0.04381647 -0.01534282
000050 1f 6a b7 bd 81 4c 69 bd 86 12 b9 3d bf bb 70 3d
       -0.08955788 -0.056957725 0.09036736 0.0587728
000060 ce 73 20 3c de da 9b bd 9d a5 d9 bc 1d 7b 84 bd
       0.009793235 -0.07610105 -0.026568228 -0.064687945
000070 cd 49 36 3b 55 d8 62 3d d6 0a 76 bd a6 bf de bc
       0.0027814985 0.05538209 -0.060068928 -0.027190994
000080 fa f5 c5 3d 9e cd cc bc fe b2 18 3d 3b 95 a9 bd
       0.09666057 -0.02500039 0.037280075 -0.082804166
000090 d1 ed 0f bc 2e 31 6e bd 99 5e 68 bd 85 d7 6d bd
       -0.008784727 -0.05815237 -0.05673084 -0.058066864
0000a0 c6 7e 4a 3b 97 63 19 3d 77 f9 b6 3c 6b 08 89 bd
       0.0030898317 0.037448492 0.022335751 -0.06691059
0000b0 c0 4c 83 3d 8a b9 45 bd 56 7e cd 39 31 ae 73 3d
       0.06411123 -0.048272647 0.00039194775 0.059492294
0000c0 fa a5 bf bd f3 1b 74 3c cb c5 7c 3d 5e 63 44 3d
       -0.093578294 0.014899242 0.061712068 0.047946326
0000d0 d5 a4 8b bd b9 95 83 bd 7d d4 38 3d 07 74 7a 3d
       -0.068185486 -0.06425042 0.04512452 0.06114581
0000e0 e1 47 17 3b 74 bc 29 3d b3 e2 56 bd 21 dd 3e 3d
       0.0023083615 0.04143949 -0.05246229 0.046597604
0000f0 9c d3 8d 3a e0 67 b2 bd ec f8 e8 3c 40 b4 69 3d
       0.0010820511 -0.08711219 0.028439008 0.057056665
000100 91 12 7c bc 9c c8 88 3d 0f 0e ff bb b4 57 6e bd
       -0.015385286 0.06678888 -0.0077836583 -0.05818911
000110 02 98 5e 3d 6b 45 2d bd fb ef cc 3d f4 18 b5 3d
       0.054344185 -0.04230253 0.1000671 0.0884265
000120 35 8b 8b 3d 67 8f 65 bd b3 50 a5 bd c2 47 38 bd
       0.06813661 -0.056044962 -0.08072033 -0.04499031
000130 f6 28 b2 3c b6 de 00 bc 9d 07 96 bd 2c 1e a6 bd
       0.021748047 -0.007865598 -0.07325671 -0.081112236
000140 34 90 4a 3b f1 10 82 bc f5 f5 d2 3b 59 5b 4f bd
       0.0030908706 -0.015877219 0.006438012 -0.050624225
000150 e3 35 b8 3d ce 74 46 bd 7e f3 3f 3d 3f 6c 2a 3d
       0.08994653 -0.048451237 0.04686307 0.041607138
000160 22 ba e6 bc df f8 af bd 0f 44 ee 3c b6 30 0a 3d
       -0.028164927 -0.0859239 0.029085187 0.03373786
000170 92 a7 18 3d 22 94 4b 3d b8 ed fd 3b 32 d2 22 bd
       0.037269183 0.049701817 0.0077492855 -0.03975124
000180 ed b4 11 3d 3f 7d 87 bc 24 89 2c 3d 3c e6 8b 3b
       0.035572935 -0.016539214 0.042122975 0.0042693894
000190 97 7a e4 3b 33 2a 27 3d 53 ee dd 3c 52 0d 57 3c
       0.0069726217 0.04081173 0.02709118 0.013125734
0001a0 81 f8 03 3c c2 7b ec bc 4a f6 35 bd 93 b7 7a bd
       0.008054853 -0.028867606 -0.044424333 -0.061210226
0001b0 5e 85 df bc 48 ba c3 bc ff aa 91 bd b4 b7 91 3c
       -0.027285274 -0.023892537 -0.07112693 0.017787792
0001c0 68 bb 45 3c 54 9f d4 bc e6 c1 3a bd e1 cd 5f 3c
       0.012068607 -0.02595488 -0.045595072 0.013659925
0001d0 bb aa 7a 3d c6 ce bf 3d ee f6 93 bb 88 e3 51 3d
       0.061197978 0.09365611 -0.0045155203 0.05124238
0001e0 cf 2c e9 3b f2 8d 9c 3d 29 7e 6b bd 10 ca c0 3d
       0.0071159373 0.076442614 -0.057493363 0.0941354
0001f0 44 05 b4 3c a4 8b 97 bc d3 a8 9c bd aa ef 83 3d
       0.021975167 -0.018499203 -0.07649388 0.06442197
000200 c2 1d 69 3c 82 fa 62 bd 3b e8 e5 3a ab 04 30 bc
       0.014228286 -0.055414684 0.0017540524 -0.0107433
000210 16 7d 92 3d 02 aa d0 bd 5a ca 48 3d 07 00 ce ba
       0.071527645 -0.101886764 0.049021102 -0.0015716561
000220 d9 6f 75 3d 70 4a 87 3d 23 59 a7 3d 96 d6 bc bc
       0.05992112 0.06605995 0.08171298 -0.023051541
000230 33 74 8c bc ab 9c b1 bd 63 c7 59 bd be 38 b8 bc
       -0.017145252 -0.0867246 -0.053168666 -0.022487994
000240 27 7a bf bd 3d 00 d4 3c ec 2e 96 bd ae 6f c2 3b
       -0.093494706 0.02587902 -0.073331684 0.0059337234
000250 13 5e 03 bb 04 ea a6 bd b2 78 29 3b 5a a4 bb bd
       -0.0020045086 -0.08150104 0.0025859294 -0.09162207
000260 72 41 3b 3d c3 bc 93 3c a7 17 af bd c8 6a 39 bd
       0.04571671 0.018034345 -0.08549433 -0.04526785
000270 60 e2 85 3c 5d 4f 8d 3d 3f e8 0d bd 30 3f 9a bd
       0.016343296 0.06899903 -0.034645315 -0.07531583
000280 57 41 84 3d 1f cb 36 bd 55 a3 4f bd 9a 75 ad bd
       0.06457775 -0.044627305 -0.050692875 -0.08469696
000290 4c 92 d5 3c bc cd ca 3d d3 8d c9 bc 15 d2 8f 3c
       0.026070736 0.09902522 -0.02460376 0.01755623
0002a0 7f 7e 7a bd d4 f0 fb 3b 18 4c d0 bc ae 78 12 3d
       -0.061155792 0.007688621 -0.02542691 0.03575962
0002b0 87 de bb bd cd 75 c2 bd 3c be ac bb e6 41 46 bc
       -0.09173303 -0.09495125 -0.005271701 -0.012100672
0002c0 47 13 ae 3d 72 b9 0f 3d 1d 29 81 3b 0f 7f a6 bd
       0.084997706 0.035088964 0.0039416687 -0.08129703
0002d0 a7 b2 29 3d 40 ce 02 bd 20 4d 9c 3c f8 c7 9b bd
       0.04143014 -0.031934977 0.019079745 -0.076065004
0002e0 03 79 02 bd bb 20 40 bd c1 d1 a3 3d 23 65 95 bd
       -0.031853687 -0.046906214 0.07998992 -0.07294681
0002f0 f0 a1 b1 bd e7 1a bd 3d 84 87 b9 bc 76 6c 70 bd
       -0.08673465 0.09233647 -0.022647627 -0.058697186
000300 ac fa c5 3d 6a f0 c3 bd d6 e0 ce bc 11 3d 72 bd
       0.096669525 -0.0956734 -0.025253695 -0.05914027
000310 02 25 3e bd 3c b4 42 3d 73 18 71 3c 46 a0 52 3d
       -0.046422012 0.047535166 0.014715302 0.05142238
000320 8e 98 43 3b 28 33 a3 3d 78 86 55 bd c2 7a 02 3c
       0.0029845568 0.07968742 -0.052130193 0.007963838
000330 29 02 13 3d c5 94 d8 bd 83 07 a8 3c 4e 26 47 bd
       0.035890732 -0.105752505 0.020511394 -0.048620515
000340 bd 2a cb bc 09 86 70 3c 94 04 72 bd 82 b5 96 bd
       -0.024800653 0.014680394 -0.059086397 -0.073588386
000350 39 3e 95 bc 96 a0 85 bd a0 29 8d 3b 4a 00 87 bd
       -0.018218147 -0.0652477 0.0043079406 -0.06591852
000360 a0 f9 ae 3c 10 9f 89 3d b6 9c 93 bd 58 ce 9d b9
       0.021359265 0.06719792 -0.072076246 -0.00030099112
000370 47 be d1 3d bd 79 d3 3c e6 93 d8 bc 50 48 c1 3c
       0.10241371 0.025814885 -0.026437711 0.023594052
000380 a2 77 b9 3d 64 14 1d bd 67 44 5c bd 46 b2 7e bc
       0.09056021 -0.038349524 -0.05377617 -0.015545433
000390 7a b8 73 3d 50 78 ac bd c4 0c b4 3d 38 96 aa bd
       0.059502102 -0.08421385 0.08791497 -0.08329433
0003a0 4d ea db 3d e6 81 1e 3d 74 e7 53 bd 7d 47 e8 3c
       0.10738049 0.0386981 -0.051734403 0.0283544
0003b0 99 c3 7a bd 74 1a 4f bc b1 18 c4 3d 1a c4 0a 3c
       -0.061221693 -0.012640584 0.09575022 0.008469606
0003c0 22 71 f6 bb 15 8a be bc 23 b6 4b 3c ba ce 43 bc
       -0.0075208107 -0.023259202 0.0124335615 -0.011951143
0003d0 71 a2 2a 3d bf a1 ba 3d 71 d5 e7 bc 7f 46 8a bc
       0.041658822 0.09112882 -0.028300019 -0.016879318
0003e0 9e 3e 3f 3d 08 c8 df bc aa 37 9d 3d be 6e cb bd
       0.046690576 -0.027317062 0.07676633 -0.09933232
0003f0 d3 dc 76 3b ff c7 6e 3d 34 3d 92 bd 59 52 10 bd
       0.0037668243 0.0582962 -0.0714058 -0.035234783

self_attn.out_proj.bias f4 [128]
000000 95 b0 1e 3c 87 83 4b 3c f8 77 87 3b 7a 66 6a bc
       0.009685655 0.012421495 0.0041341744 -0.014306659
000010 b0 de 93 bc ca e8 09 bc f0 d2 56 3c 80 49 89 3c
       -0.018050522 -0.008417318 0.013111815 0.01675868
000020 a1 4a 87 3c bb bd 0a bc 0c 20 8a bc fa 4e 7b 3c
       0.016515078 -0.008468087 -0.016860984 0.015338654
000030 51 9c 28 3c 1e 7b 64 bc 36 80 b2 bc 9d 9b 51 3c
       0.010291175 -0.013945369 -0.021789651 0.012793449
000040 62 89 82 bc 11 6d 83 bc a8 e8 5c 3c 4f ae 51 3c
       -0.01593465 -0.016043218 0.013483204 0.012797906
000050 f0 92 57 bc 80 8b 7c bc 90 dc 71 3c cf d9 50 3c
       -0.013157591 -0.015414119 0.014762059 0.012747242
000060 bf b2 0f 3c 66 04 81 bb 6c 56 1a bc c5 aa 68 bc
       0.008770644 -0.003937292 -0.009420019 -0.014200871
000070 8a a4 14 bc 4f c1 75 bc bb 8b c2 bb 90 88 8c bc
       -0.009072432 -0.014999702 -0.0059370673 -0.017154962
000080 ec 7c 80 3c 74 4f 57 3c 06 ef 37 bc 36 d6 42 bc
       0.015684567 0.013141502 -0.011226421 -0.011891892
000090 f8 60 51 3c f6 9c 5d 3c f0 30 6f 3c db 50 8a bc
       0.012779467 0.013526192 0.01459907 -0.016884258
0000a0 ea f7 fc bb 8d 38 96 3c f4 03 0c bc c2 53 67 bc
       -0.0077199833 0.018337512 -0.008545864 -0.0141190905
0000b0 9d 8c 97 3b eb c2 3e 3c 9c a7 80 3b c4 fe 8d 3a
       0.0046249167 0.011643152 0.0039262306 0.0010833372
0000c0 0a fc 9a 3c 46 78 cf 3b 90 d1 e9 3b c2 43 6e bc
       0.01891901 0.0063314764 0.0071355775 -0.014542522
0000d0 c1 d0 72 bc 06 0a 77 bc 04 d2 04 bc b6 50 8e bc
       -0.014820279 -0.015078073 -0.008106712 -0.01737247
0000e0 3a 68 58 bc 34 e7 82 3c 1e 92 01 bc 72 13 63 bc
       -0.013208443 0.015979387 -0.007908372 -0.013859617
0000f0 2b ba 1c bc 8a ed 6d bc 77 95 3f 3c a8 ea 15 bc
       -0.00956587 -0.014521966 0.01169335 -0.009150185
000100 8e 5c b5 b9 03 c4 3d bc e6 df 71 3c 20 e6 5a 3c
       -0.0003459197 -0.011582377 0.014762854 0.01336053
000110 b5 1e 2f bb 6f 0f 54 bc 44 ab 80 3c 21 07 7b 3c
       -0.0026721184 -0.012943133 0.015706666 0.015321524
000120 f6 4b 99 bc 8a e8 5e bb c1 db 27 3c c7 19 77 bc
       -0.018712979 -0.0034013116 0.0102452645 -0.015081829
000130 4e af 51 bc a0 f5 4e 3c 84 66 75 bc c3 14 14 3c
       -0.012798144 0.012631804 -0.014978055 0.009038153
000140 11 73 22 3c dc 6a 8e 3c 27 ab a4 bc e4 c7 50 bc
       0.009915129 0.017384939 -0.020101143 -0.01274297
000150 6b 8f 0c 3b bd 9d 62 3c 3d 11 4e bc 21 86 3c bc
       0.0021447788 0.013831553 -0.012577352 -0.011506588
000160 f2 4a 88 bc 38 65 3a 3c ff 22 9f 3c 3f a1 8f bb
       -0.0166373 0.0113766715 0.019425867 -0.0043832357
000170 54 e6 08 bc 60 6e 06 bc 75 fa f4 bb 35 ff 75 bc
       -0.008355696 -0.008205026 -0.007476146 -0.015014459
000180 ad 92 1d bc 66 1e 41 bc 4d 4b 6b bb a6 e6 27 bc
       -0.00961749 -0.011787033 -0.0035903037 -0.010247862
000190 00 da 89 bc 22 69 ce bb 39 77 7c 3c 72 fb ce bc
       -0.016827583 -0.006299154 0.015409284 -0.025266383
0001a0 6a dc 4b 3c 1a 15 65 bb cf 8e 8b 3c 7b 97 fc 3a
       0.0124426875 -0.0034955204 0.01703587 0.0019271219
0001b0 4b 59 6b 3c 2f d3 46 bc fc 3a 49 3c c4 37 57 3c
       0.014364551 -0.012135311 0.012282129 0.013135854
0001c0 ad 85 47 3b fb 73 75 bc 2d 51 67 bc c8 03 4e bc
       0.0030444667 -0.014981265 -0.014118475 -0.012574144
0001d0 d8 59 89 3c 86 71 67 bc 5e 1f 82 3c 1e 31 72 3c
       0.016766474 -0.014126187 0.015884098 0.014782218
0001e0 65 76 50 3c 9c 1f 81 3c f6 9c 51 3c d6 3c 6b 3c
       0.01272354 0.015762143 0.01279377 0.014357766
0001f0 e0 45 07 bb ff 0a 41 bc 34 f4 21 3c 01 0a 94 3c
       -0.0020641014 -0.011782407 0.009884883 0.018071176

layernorm1.weight f4 [128]
000000 9a 75 81 3f 53 22 82 3f 19 9b 81 3f 3a 5d 7b 3f
       1.0114014 1.0166725 1.0125457 0.9818913
000010 c2 1d 7c 3f 48 7a 7c 3f 35 fb 81 3f 80 10 82 3f
       0.98482907 0.98624086 1.0154787 1.0161285
000020 01 44 80 3f 3a 32 81 3f 90 e3 7b 3f 15 9a 82 3f
       1.0020753 1.0093453 0.9839411 1.0203272
000030 47 a0 7c 3f 4f 54 7c 3f a4 9c 7c 3f b8 a3 7c 3f
       0.98682064 0.98566145 0.98676515 0.98687315
000040 d1 2d 7b 3f 0b 78 7b 3f da 52 7c 3f 0b e3 81 3f
       0.98116785 0.98230046 0.9856392 1.0147413
000050 ab 3e 7d 3f fc fb 7b 3f 2a 59 82 3f 80 97 81 3f
       0.9892375 0.9843137 1.0183461 1.0124359
000060 92 63 82 3f 54 f6 81 3f d3 16 83 3f a9 9e 82 3f
       1.0186636 1.0153298 1.024134 1.0204669
000070 54 c7 82 3f b3 58 81 3f 4e 64 81 3f 7e 9b 7c 3f
       1.021708 1.0105194 1.0108736 0.9867476
000080 64 68 7a 3f 05 3f 82 3f 4f 19 81 3f ff 76 80 3f
       0.9781554 1.0175482 1.0085849 1.0036315
000090 b3 62 82 3f 55 12 81 3f 18 a2 7c 3f a9 55 7e 3f
       1.0186371 1.008372 0.98684835 0.9934946
0000a0 17 2a 7c 3f ba 2f 7c 3f e2 8d 7f 3f b2 21 7d 3f
       0.98501724 0.98510325 0.9982587 0.9887954
0000b0 46 08 7d 3f dc ee 81 3f 9c d4 81 3f 59 41 81 3f
       0.9884075 1.0151019 1.0143008 1.0098068
0000c0 b2 5c 7c 3f 94 de 81 3f b5 09 83 3f ad f7 80 3f
       0.9857894 1.014605 1.0237337 1.0075585
0000d0 5f 78 7c 3f e4 51 82 3f c5 00 7d 3f 77 96 82 3f
       0.9862117 1.0181241 0.988293 1.0202168
0000e0 fd df 7b 3f e8 93 7b 3f 0a b5 7c 3f 85 13 82 3f
       0.98388654 0.9827256 0.98713744 1.0162207
0000f0 4c a4 81 3f 93 21 82 3f c4 3a 7f 3f c2 12 80 3f
       1.0128264 1.0166496 0.99699044 1.0005724
000100 e3 e4 7e 3f c1 85 7b 3f 97 9d 7d 3f a8 18 7a 3f
       0.99568003 0.9825097 0.9906859 0.9769387
000110 f9 bb 81 3f bc 42 7c 3f 52 ba 7b 3f d3 85 81 3f
       1.013549 0.9853933 0.9833118 1.0118965
000120 00 8e 81 3f cc 17 81 3f fb 36 82 3f 00 38 80 3f
       1.012146 1.0085387 1.0173029 1.001709
000130 44 48 82 3f 4f 93 81 3f 0a 40 80 3f 51 27 81 3f
       1.0178304 1.012308 1.0019543 1.0090123
000140 ab aa 81 3f 0d 08 82 3f fa 86 7c 3f 07 77 80 3f
       1.0130209 1.0158707 0.9864346 1.0036324
000150 ee d8 81 3f e4 06 82 3f 6f 04 7b 3f 5d 4c 7c 3f
       1.0144327 1.0158353 0.9805364 0.9855402
000160 63 61 7b 3f 11 52 7b 3f 10 37 83 3f cf b3 80 3f
       0.98195475 0.981721 1.0251179 1.0054873
000170 58 ef 7d 3f 31 a4 7b 3f 9c 91 81 3f 28 85 81 3f
       0.99193335 0.9829741 1.0122561 1.0118761
000180 b6 4b 81 3f c4 2d 7c 3f 11 8d 81 3f 6f f6 7c 3f
       1.010123 0.9850733 1.0121175 0.9881353
000190 ca 6b 81 3f 8b 6b 82 3f 07 64 82 3f d2 32 7b 3f
       1.011102 1.018907 1.0186776 0.9812442
0001a0 29 6e 7f 3f 24 8f 82 3f 06 32 7a 3f 0a a2 81 3f
       0.99777466 1.0199933 0.9773258 1.0127575
0001b0 47 0e 7a 3f 66 3e 7b 3f b7 aa 81 3f a5 6b 7c 3f
       0.97678035 0.9814209 1.0130223 0.9860175
0001c0 e0 ca 81 3f dc 57 7d 3f 2f 92 7b 3f 69 e1 80 3f
       1.0140038 0.9896219 0.98269933 1.006879
0001d0 6d 08 81 3f ec 07 7d 3f 02 b5 7b 3f 25 26 7b 3f
       1.0080696 0.9884021 0.9832307 0.9810508
0001e0 4f 2d 7a 3f 6e 62 81 3f 43 e7 7b 3f bd 77 82 3f
       0.97725385 1.0108163 0.9839975 1.0192791
0001f0 6c cc 80 3f 35 23 81 3f 14 73 7c 3f 31 39 83 3f
       1.0062385 1.0088869 0.98613095 1.0251828

layernorm1.bias f4 [128]
000000 47 4c 1d 3c ee 90 4f 3c 9b f9 b5 bb 5e 4c 6c bc
       0.0096007055 0.012668831 -0.005553437 -0.014422504
000010 e6 9d 8e bc 07 75 da bb f8 af 3b 3c b0 1c 8b 3c
       -0.017409276 -0.006666783 0.011455528 0.016981453
000020 12 cd 34 3c d7 39 12 bc 16 44 8d bc 77 60 76 3c
       0.011035221 -0.008924923 -0.01724438 0.015037647
000030 ee 4f 23 3c f6 74 5f bc 7a d4 ba bc ad c3 3d 3c
       0.009967787 -0.0136387255 -0.022806395 0.011582297
000040 47 89 81 bc 88 1e 82 bc e7 c1 41 3c e0 b4 56 3c
       -0.01581253 -0.015883699 0.011826015 0.013104647
000050 4d 70 06 bc f1 67 6c bc e2 04 5a 3c 16 60 7b 3c
       -0.0082054855 -0.014429078 0.013306828 0.015342733
000060 3b fa 04 3b fe b7 fb bb 3f 5c 24 bc 9f dd 4e bc
       0.002029075 -0.0076818457 -0.010031759 -0.012626081
000070 c7 d8 b0 bb 4e 05 72 bc c8 52 e5 bb f1 bf 8b bc
       -0.0053969356 -0.014771773 -0.0069983937 -0.017059298
000080 da bf 8a 3c 44 14 55 3c 04 3e 39 bc 75 56 41 bc
       0.016937185 0.01300532 -0.01130629 -0.011800398
000090 e3 6e 5c 3c 06 dd 49 3c 7b f9 6e 3c 9c 5c 8c bc
       0.013454172 0.0123207625 0.014585848 -0.017134003
0000a0 95 a6 42 bc d5 7b aa 3c 43 d2 8a bb eb 50 68 bc
       -0.011880537 0.020811 -0.004236491 -0.014179449
0000b0 36 a3 50 38 bf 31 40 3c b8 fc f2 3b b5 f0 57 3b
       4.9743066e-05 0.01173061 0.0074153803 0.003294987
0000c0 3b 39 98 3c 68 f7 b7 3b de a0 fd 3b 9f 67 72 bc
       0.018581977 0.00561421 0.007740124 -0.014795213
0000d0 82 8c 70 bc 1d 2c 66 bc f4 f1 19 bc 41 dc 9a bc
       -0.014681937 -0.014048603 -0.009396065 -0.018903853
0000e0 10 4f 4a bc 41 09 83 3c 10 69 0f bc 40 09 55 bc
       -0.0123479515 0.015995624 -0.008753076 -0.013002694
0000f0 33 ba 29 bc f8 68 6b bc 8a 48 3f 3c c4 ff 0a bc
       -0.010359335 -0.014368288 0.0116750095 -0.008483831
000100 d0 24 a0 ba e0 29 55 bc c5 30 78 3c 9e 17 4e 3c
       -0.0012218002 -0.013010472 0.015148346 0.012578873
000110 3e 9f 5e bb 6a d6 41 bc 6b ef 80 3c ad 32 78 3c
       -0.0033969427 -0.011830905 0.015739163 0.015148801
000120 38 2b 98 bc 25 5d 11 bb f6 40 24 3c 05 0f 83 bc
       -0.018575296 -0.0022180763 0.0100252535 -0.015998373
000130 bc 40 57 bc c0 ae 49 3c 92 a4 74 bc 4d 04 1f 3c
       -0.0131379925 0.01230973 -0.014931815 0.009705615
000140 da 93 12 3c 76 f9 8f 3c 76 20 a6 bc 2e ef 53 bc
       0.008946383 0.017575007 -0.02027915 -0.012935443
000150 a3 aa 3c 3c e1 fa 58 3c 53 28 46 bc 0f 1c 3b bc
       0.011515292 0.013243408 -0.012094575 -0.011420264
000160 85 2c 87 bc 91 6b 4b 3c d3 0a 9f 3c 16 4d 97 bb
       -0.01650072 0.012415783 0.019414341 -0.0046173437
000170 40 24 46 bc 87 46 10 bc 14 dd 0f bc 9a 9f 71 bc
       -0.012093604 -0.0088058775 -0.0087807365 -0.014747525
000180 a7 69 1e bc b7 23 41 bc 6f 87 e3 bb 3b 27 49 bc
       -0.009668744 -0.0117883 -0.006943635 -0.01227742
000190 1a 7e 3e bc c5 8c f8 bb 75 fa 70 3c 0a 56 cf bc
       -0.011626745 -0.0075851404 0.014708151 -0.025309581
0001a0 08 a5 5f 3c 40 c6 25 bb bc 32 8c 3c 1c a8 a5 ba
       0.013650186 -0.0025295168 0.017114036 -0.0012638601
0001b0 1e 07 7b 3c 9a 0e 44 bc b4 d5 20 3c 3c 93 53 3c
       0.015321521 -0.011966372 0.009816576 0.012913521
0001c0 43 74 90 3a a8 cf 73 bc 47 4b 84 bc e8 e9 48 bc
       0.0011020977 -0.014881052 -0.016149176 -0.012262799
0001d0 4c 8d 88 3c 38 eb 13 bc 07 3b 89 3c 22 9d 8b 3c
       0.016668938 -0.0090282485 0.01675178 0.0170427
0001e0 95 c0 4f 3c c0 13 47 3c cf 6f 4d 3c 0b 2b 66 3c
       0.0126801925 0.012150705 0.012538864 0.014048348
0001f0 16 e4 08 bc 0b d8 ac bc a6 e7 1e 3c df ce 92 3c
       -0.008355161 -0.021099111 0.009698784 0.01792091

ffn.0.weight f4 [512, 128]
000000 5d fa 2e bd 8e 69 5d 3c 81 7d 8b 3d f4 1e 8a 3d
       -0.042719234 0.013513936 0.06811047 0.06744185
000010 0a ff 78 bd b1 33 5d bc cb d8 d3 3b 76 84 86 3c
       -0.0607901 -0.013501094 0.0064650527 0.016420584
000020 bd 1a 2c bc 99 d4 c1 3d 96 e9 af 3d 0f bd b7 3d
       -0.010504422 0.09464378 0.08589475 0.08971607
000030 51 5f bf bd 37 ad 30 bd 85 27 11 3c f6 0d 4a bd
       -0.09344352 -0.04313394 0.00885952 -0.04932972
000040 4a 87 3d bd b4 64 33 bd 58 d3 42 bd fa b8 93 3d
       -0.0462716 -0.04379721 -0.047564834 0.07213016
000050 da b1 89 3b d9 12 22 bd 49 94 3a 3d 7e d4 37 3d
       0.0042021098 -0.039568756 0.045551572 0.044880383
000060 8b db 02 3b bf a3 1a 3d c4 37 4c 3d 98 21 9f bc
       0.0019967284 0.037753817 0.04985787 -0.019425198
000070 1d 42 fc bc 52 66 89 bd 34 ec 8a 3d 0f 2c ac bd
       -0.030793244 -0.06708969 0.067833334 -0.08406841
000080 63 de 9d bd 89 d3 bc bc 9a 4f ba bd 73 a7 0c 3d
       -0.077084325 -0.023050087 -0.09097214 0.03433938
000090 f6 73 a9 bd 9f 1a 92 bd 6a f1 0c bd e2 6a b0 bc
       -0.08274071 -0.07133984 -0.034409918 -0.02153534
0000a0 4e 75 91 3d c6 07 45 3d a2 aa a0 3d 97 50 64 3d
       0.07102452 0.048103116 0.078450456 0.05574092
0000b0 4f 8f 75 3d 8e a8 88 3c 20 38 88 3c 7c 98 47 bd
       0.059951123 0.016681936 0.016628325 -0.048729405
0000c0 5c cf 80 3d 76 2f 46 3d ed 95 e0 3b 3f 70 32 3d
       0.06289551 0.048385106 0.00685381 0.043564077
0000d0 0d 0c 8e bd f6 55 51 bd 7d 8c 99 bd c7 b2 2b bd
       -0.06935892 -0.05110737 -0.07497499 -0.041918542
0000e0 cf 7f dc 3c 4c 6c 57 bd 73 4b 15 bd 9a c8 69 bc
       0.026916413 -0.052593514 -0.036448907 -0.014269019
0000f0 a2 34 9a bd bb c0 68 3c 7b d6 bd bd 8f 28 19 3d
       -0.0752957 0.014206107 -0.092694245 0.037392195
000100 b7 ed 8c 3d 10 95 81 bb e3 46 89 3c 09 fb 17 bd
       0.06881278 -0.003954537 0.016757434 -0.03710464
000110 49 04 9c 3d 25 a2 94 3d 11 4c 34 bd 8f f8 a3 bd
       0.07618005 0.07257489 -0.044017855 -0.08006393
000120 c6 19 a9 bc 08 45 bf 3d 3c 83 f7 3c d0 6c 42 bd
       -0.020642173 0.093393385 0.030213945 -0.047467053
000130 04 cf 88 3d d1 e7 b5 3d 0b a1 ab bc 81 d5 2c 3d
       0.0668011 0.08882106 -0.020950815 0.0421958
000140 b7 8d 61 3d 70 85 f7 3c f5 9a 9a b8 b6 b3 a2 bd
       0.05506679 0.030214995 -7.372155e-05 -0.079444334
000150 be e0 81 bb 69 dd 4d bd 91 d1 e2 bc 01 ac 2d 3d
       -0.003963559 -0.05025998 -0.02768782 0.042400364
000160 f5 b1 86 3d 0b f4 84 3b 7c ae 63 3d e1 c4 8b bd
       0.06576911 0.0040574125 0.055586323 -0.06824661
000170 9c 95 41 3c ba e5 19 bc fe 11 a9 bd c9 da b2 bb
       0.011815455 -0.00939315 -0.08255385 -0.00545821
000180 7f f8 4d bd db 4d 28 bd 69 1f bf 3d e5 12 4f 3d
       -0.050285812 -0.041089874 0.09332163 0.05055513
000190 69 2a c3 bc c9 5c 3c 3c 3e 6c 85 3d c1 4d cf 39
       -0.023823934 0.011496731 0.06514786 0.00039540048
0001a0 b2 db 37 bd 4b d3 8a bd ff c2 5e bd 31 b6 bc bd
       -0.044887252 -0.06778582 -0.05438518 -0.09214438
0001b0 ee 23 95 bc b7 00 30 3d 32 3d b3 3c e1 4d 7e 3d
       -0.01820561 0.04296943 0.021879766 0.06208599
0001c0 64 aa af bd a9 81 28 3d d0 9e 91 3d 85 71 1c 3d
       -0.08577421 0.04113928 0.07110369 0.0381942
0001d0 b5 39 8c bd 57 6d 3e bd f9 1e 9c 3d bc 44 ff bc
       -0.06846944 -0.046490993 0.07623095 -0.031160705
0001e0 f8 d9 a2 bd 10 7e 47 bd 1e 17 b7 3c 50 ed 9f bb
       -0.079517305 -0.048704207 0.02234989 -0.004880585
0001f0 c4 2d 8a 3d e3 df a4 3d 83 1e 82 bc e4 11 18 3d
       0.0674701 0.080505155 -0.01588369 0.037126437
000200 1d e6 02 bd 9a 4a b5 3b fb ec a2 3d dc 4a 33 bd
       -0.031957734 0.005532575 0.07955357 -0.043772563
000210 52 6b 8b bb 0a 11 fb bc 6f 28 d6 bc c9 65 c2 3d
       -0.004254737 -0.030647773 -0.026142327 0.0949207
000220 43 71 60 3c 43 de 85 3c 69 e0 2d 3d 72 a0 15 3c
       0.013698879 0.016341334 0.042450342 0.009132491
000230 ce 0d 4a bc 3f 5b b4 bb ba cd 19 bc e1 9b 8c bd
       -0.012332393 -0.0055040414 -0.009387428 -0.06865669
000240 89 a4 85 bd ae 7f 8a bd b1 fa 60 bc a6 e2 9d bd
       -0.06525523 -0.06762634 -0.0137316445 -0.077092454
000250 a8 80 cc 3d c8 8c 6c 3d 8a de c1 3d 2e 8f 70 3d
       0.09985477 0.057751447 0.09466274 0.058730297
000260 b8 86 08 bb e9 ec e2 bd 11 68 83 3d bb 45 44 bc
       -0.0020832252 -0.11080343 0.064163335 -0.011979516
000270 d9 e5 5e 3d fa 17 5c bb 69 40 b3 bc d1 b1 5d 3c
       0.05441842 -0.0033583627 -0.0218813 0.013531164
000280 c0 c2 bf bc 7d 62 08 3d 53 a0 4f 3d f1 d1 82 bc
       -0.023408294 0.03329705 0.050690006 -0.015969248
000290 36 cb b2 bd ad 24 21 bd 5f e1 9b bd fc ed 88 3d
       -0.08730166 -0.039341617 -0.076113455 0.06686017
0002a0 d7 a5 0d bd cd 46 b2 bd ef a4 80 3d 7e 20 7d bd
       -0.034581985 -0.087049104 0.062814586 -0.061798565
0002b0 e9 65 ba bd 3b 73 91 bc 19 aa 96 3d f9 81 dc bc
       -0.09101469 -0.017755141 0.07356662 -0.026917445
0002c0 60 78 86 bd c5 92 73 bd 01 e1 aa bd f8 98 d1 3d
       -0.065659285 -0.059466142 -0.08343697 0.102342546
0002d0 32 56 4c 3d 76 92 33 3d d8 92 a4 bd 1a 6f 47 3d
       0.04988689 0.043840848 -0.08035821 0.04868994
0002e0 6b f9 b8 bd 09 48 9a bb 12 48 5b 3d df 5d 31 39
       -0.09031948 -0.0047082943 0.05353553 0.00016915005
0002f0 87 e8 3a 3d 23 57 93 3d 81 28 6c bd af 9b a4 bc
       0.04563191 0.071943544 -0.057655815 -0.020093767
000300 42 bf 0b 3c 3c b1 1b 3d e5 f7 1d bd db ee c8 3c
       0.008529486 0.03801082 -0.03856649 0.024527958
000310 c1 da a0 bd aa 63 b4 3d 2e c5 c3 bc b2 2d 39 3c
       -0.07854224 0.08808072 -0.023897734 0.0113023985
000320 58 aa 9e 3c 64 47 3d bc f8 a1 91 bd a6 dd d8 bc
       0.019368336 -0.011552665 -0.07110971 -0.026472878
000330 cf 2d 23 bd 58 3f f8 3b a4 a8 8f 3d c2 d6 29 3d
       -0.03983861 0.0075759105 0.070145875 0.041464575
000340 3d e4 2f bb 67 8d 7b 3d 80 c0 a2 3d 30 18 a7 3b
       -0.0026838921 0.06141415 0.07946873 0.005099319
000350 79 01 fb 3b 4c c3 8e 3d 28 fa e0 3c 5b 46 b1 bd
       0.0076600877 0.06970844 0.027463034 -0.08655997
000360 80 d8 5a bd da 5c 54 3d 14 36 46 bd 02 57 55 3d
       -0.053429127 0.051846363 -0.048391417 0.05208493
000370 ec d5 fd bc a9 55 4a 3d 38 c5 9e 3c ae e2 9e bc
       -0.030985795 0.0493981 0.01938115 -0.019395199
000380 0f f1 9b 3d 4a d6 d8 bd 90 76 66 bd 95 9b 87 3c
       0.07614338 -0.105877474 -0.056265414 0.01655368
000390 be 8f 13 bd 5a ba 7f bc 40 b9 1f bd a7 10 9e 3d
       -0.036025755 -0.0156083945 -0.038995028 0.0771802
0003a0 96 03 ff 3b 89 a8 95 bd 70 69 e6 3c 3b 2f 5a bd
       0.00778241 -0.07307536 0.028126448 -0.0532677
0003b0 9e dc b6 ba f0 32 ad 3c 07 2f 5e 3c 1e ec af bd
       -0.0013951247 0.021142453 0.013561017 -0.08589958
0003c0 33 32 ab bd 73 75 94 bd c1 2a b3 bd c8 07 4b 3d
       -0.08359184 -0.07248964 -0.08748389 0.049567968
0003d0 df e8 15 3c 2a 13 4b bd 7e a2 0c bd 2b 07 bb 3d
       0.009149759 -0.049578823 -0.034334652 0.091322266
0003e0 ff 10 08 3d 9e 8a 77 bd ff f9 b2 bd 47 b4 25 bd
       0.033219334 -0.06043493 -0.08739089 -0.04045513
0003f0 33 7a 10 bc 1d 61 bf bb d3 d5 91 3b 2b 54 c2 3d
       -0.008818197 -0.005840434 0.0044505387 0.0948871
