data/brevitas/ffn.2.weight.npy (npy, 528 bytes, 1 tensors)

array f4 [5, 20]
00000000: e843 633e 5107 47be 7cec 15bd 8c45 13be
00000010: 577c 21be d80e a13c 2c28 c83d e4da f33d
00000020: aef0 53be 8544 54be f8d5 28bd 440d efbd
00000030: 0408 213e 18ed 423e 0076 98bc acba 5c3e
00000040: 7889 d9bd f8b9 c7bd 7049 0e3e e807 0fbe
00000050: ecfe 8d3d 949a 16be be72 313e 1864 9e3d
00000060: 864a 633e b5f5 5cbe e82a c43d 9268 013e
00000070: d02a 10be 645c a9bd 28e2 85bd fa5e 403e
00000080: e3d0 ccbd e56f 5dbe 0a16 27be 8c49 bdbd
00000090: da17 373e d696 4ebe 40e8 cf3b b2f8 323e
000000a0: 20ca db3c a876 253e 388d acbd 66d0 223e
000000b0: a875 0cbe e88c 483e 082e 29bd 503f 063d
000000c0: cc3b e73d e011 513c ae05 05be 925d 61be
000000d0: 6cf4 ec3d 5858 ca3d e0e6 55bd 8443 f43d
000000e0: 0416 333e 958b 2dbe 30c7 f4bc a2db 56be
000000f0: ec2a cd3d d614 573e 2dc8 2cbe 1841 d53d
00000100: 46fe c9bd 600c 77bc e0a4 463d 4046 4bbb
00000110: 1076 cdbc 4015 66bc 446b 363e e062 0a3d
00000120: fda8 f4bd 3cd7 fbbd 7294 36be a073 9c3d
00000130: c827 1fbe a1f4 60be 329c 4c3e a474 913d
00000140: 0c8c 333e 5698 b3bd f0e9 58be f0ac 623e
00000150: c07c 1fbb fc01 bc3d dae2 48be bb30 5dbe
00000160: 8d9d 18be f0cd 563e ccc1 30bd cf8f 35be
00000170: 1e7d 5fbe 28ea 0cbd 00d9 d7bd 7cab 443e
00000180: 5ac4 ecbd 7061 91bd 24d0 a23d dcee 353e
0.22193873 -0.19436385 -0.036602482 -0.14381999 -0.15770088 0.019660398 0.09773287 0.119069844
-0.20697281 -0.20729263 -0.04121968 -0.11672452 0.15725714 0.19035757 -0.018610954 0.21555585
-0.10621923 -0.097522676 0.13895202 -0.1396786 0.06933388 -0.14707404 0.17328927 0.07733935
0.22196397 -0.21578105 0.09578496 0.12637547 -0.14078832 -0.08269575 -0.065372765 0.1878623
-0.100007795 -0.21624716 -0.16317001 -0.092425436 0.17880192 -0.20174727 0.006344825 0.17477682
0.02682978 0.16158545 -0.08425373 0.1589981 -0.13716757 0.19585001 -0.041303664 0.032775223
0.11290702 0.012760609 -0.12990448 -0.2200835 0.11570057 0.098801315 -0.052222133 0.1192694
0.17488867 -0.16947778 -0.029880136 -0.20982221 0.10017952 0.21004042 -0.16873236 0.10412806
-0.09862952 -0.015078634 0.04849708 -0.0031017214 -0.02508071 -0.014043152 0.17814356 0.0337857
-0.119462945 -0.12296912 -0.17830065 0.07639241 -0.15542519 -0.21968319 0.19981459 0.071023256
0.17533892 -0.0876929 -0.2118299 0.22136283 -0.0024335831 0.09180066 -0.19617787 -0.2160062
-0.14903851 0.20976996 -0.04315357 -0.1773064 -0.21825072 -0.034402996 -0.10539436 0.19206041
-0.115608886 -0.07098663 0.07949856 0.17766899
