data/brevitas/ffn.0.weight.npy (npy, 528 bytes, 1 tensors)

array f4 [20, 5]
-0.1497165 0.2883188 -0.30421996 -0.19248345 -0.27791527 0.41499394 -0.3232475 0.2100969
-0.26924038 0.41594517 0.44053072 0.20069999 0.069740474 -0.44624138 -0.086406946 -0.40213183
0.052915633 -0.15365732 -0.06610358 0.30261225 0.3548038 0.12571341 0.0038426816 0.26520306
0.4137714 -0.011436343 -0.25901338 -0.36215508 0.046140283 -0.08169687 -0.2842866 0.2103669
-0.34417495 -0.3236655 0.25979215 0.39702404 0.0024689436 -0.20527722 -0.32207888 0.06827754
-0.414458 0.15492159 0.4305886 -0.38600457 -0.031523347 -0.34118047 0.018723488 -0.11092988
-0.047228634 -0.28210193 -0.2076552 0.23628646 0.091424644 0.43613023 -0.09988204 -0.07447341
-0.03934449 0.0577181 0.087747514 -0.15664291 0.3039711 -0.32484955 0.40970016 -0.23438515
-0.34495053 -0.03401643 -0.21954298 0.1742205 -0.32081956 -0.23768474 -0.38898286 0.31681818
0.2871998 0.031564176 0.12516856 0.3941658 -0.19877811 0.36700052 0.11177707 -0.37348133
-0.319389 0.106221616 0.062027693 0.011161923 0.26791412 0.38362598 0.23649085 0.043207258
-0.23915653 -0.12614945 -0.41214922 0.05337435 -0.2734507 0.2762609 -0.02935648 0.4140386
-0.27228314 0.30132133 -0.036217898 -0.13410297
00000000: 484f 19be 869e 933e b8c2 9bbe 621a 45be
00000010: e94a 8ebe 167a d43e b280 a5be a423 573e
00000020: e0d9 89be c4f6 d43e 3e8d e13e 4c84 4d3e
00000030: 18d4 8e3d c079 e4be 20f6 b0bd 39e4 cdbe
00000040: 10be 583d 5858 1dbe 5061 87bd feef 9a3e
00000050: d8a8 b53e 04bb 003e 80d5 7b3b b2c8 873e
00000060: d8d9 d33e 805f 3bbc 679d 84be 646c b9be
00000070: 98fd 3c3d b050 a7bd 038e 91be 6c6a 573e
00000080: b337 b0be 7cb7 a5be 7a03 853e bc46 cb3e
00000090: 00ce 213b 3134 52be 86e7 a4be 18d5 8b3d
000000a0: d733 d4be c4a3 1e3e 1c76 dc3e 64a2 c5be
000000b0: a01e 01bd 35af aebe 0062 993c 342f e3bd
000000c0: d072 41bd aa6f 90be 91a3 54be 14f5 713e
000000d0: d83c bb3d 764c df3e f48e ccbd 8485 98bd
000000e0: b027 21bd d069 6c3d f8b4 b33d 0067 20be
000000f0: 1aa2 9b3e ae52 a6be 38c4 d13e a902 70be
00000100: 5b9d b0be d054 0bbd e0cf 60be dc66 323e
00000110: 7642 a4be a163 73be c328 c7be fe35 a23e
00000120: da0b 933e 7049 013d 302c 003e 1ad0 c93e
00000130: 7d8c 4bbe 7ee7 bb3e 60eb e43d f238 bfbe
00000140: f486 a3be b88a d93d c010 7e3d 80e0 363c
00000150: 0a2c 893e a06a c43e a82a 723e 18fa 303d
00000160: 73e5 74be 522d 01be 3905 d3be 109f 5a3d
00000170: bb01 8cbe 1272 8d3e 007d f0bc defc d33e
00000180: b268 8bbe ca46 9a3e 3859 14bd 4a52 09be
