data/brevitas/self_attn.in_proj_weight.npy (npy, 428 bytes, 1 tensors)

array f4 [15, 5]
000000 ee 69 07 bf 3a de e2 3e 34 c7 ff 3e fe cc c7 3e
       -0.5289601 0.4431017 0.49956667 0.39023584
000010 6c 10 ef be a8 33 e7 3e 4a 1d ae be 00 f8 a4 3a
       -0.46692216 0.45156598 -0.3400672 0.0012586117
000020 b0 51 33 3e 75 24 e7 be c2 be 89 be e8 e3 c5 be
       0.1751163 -0.45145002 -0.2690335 -0.3865044
000030 dc 7a 7b 3e b8 d6 89 3d ee 20 c2 3e 94 73 c5 be
       0.24558586 0.067304075 0.37915748 -0.38564742
000040 38 dd 5b be 56 be 9a be 44 ae e8 3e 82 f9 99 3e
       -0.21471107 -0.3022334 0.45445454 0.30073172
000050 1e 43 88 3e 3c dc e1 3e 00 19 7b bb f0 de f8 be
       0.26613706 0.44113338 -0.0038314462 -0.48607588
000060 4e b3 02 3f c6 dd d1 3e d6 e6 42 be d8 46 ec 3e
       0.5105485 0.40989512 -0.1903337 0.461478
000070 7a 7b 32 be 02 39 c3 be 6a 10 af 3e b4 a7 07 bf
       -0.17429915 -0.3812943 0.3419221 -0.5299027
000080 74 79 9f be dd 0c af be a8 04 c5 3e 58 46 de 3e
       -0.3114735 -0.341895 0.38480115 0.43413043
000090 00 65 26 bd ec 2e 00 3e b4 ca 7e 3e 38 cd 77 3e
       -0.040623665 0.125179 0.24882013 0.24199378
0000a0 c0 d3 ae 3e 72 61 9a be 08 94 b6 3e 20 c3 53 3d
       0.34145927 -0.3015247 0.35659814 0.051699758
0000b0 e6 84 ac 3e 68 74 a8 be 6e 48 5d be 06 5c c2 be
       0.33695143 -0.3290131 -0.21609661 -0.37960833
0000c0 80 5f 7d 3e fc 69 e5 3e 00 ae 50 3b cc ef 60 3e
       0.24743462 0.44807422 0.0031841993 0.21966475
0000d0 d8 9f 14 be 0c a0 38 3e 48 ee 1b 3e c8 39 f3 bd
       -0.145141 0.18029803 0.15227616 -0.11876255
0000e0 58 f5 09 3f 4a 1c 05 3f 70 29 31 3e 78 63 22 3e
       0.5388999 0.5199629 0.17300963 0.15858257
0000f0 38 1e b0 be 9e 7d b9 3e cd 6d ee be b8 d4 aa be
       -0.34398055 0.3622865 -0.46568146 -0.33365417
000100 a0 3b 07 3f be 0d 82 3e 96 ac 19 be 32 bb a0 be
       0.52825356 0.2540111 -0.15007243 -0.3139282
000110 44 7a 87 be 78 b2 6a 3e 68 40 ab bd f8 5e f7 3d
       -0.2646047 0.22919643 -0.08361894 0.12078661
000120 f6 81 e9 be c8 a8 e0 3e e7 ec f7 be
       -0.45606965 0.4387877 -0.4842293
