data/quanted_transformer_model/layernorm2/bias.npy (npy, 640 bytes, 1 tensors)

array f4 [128]
0	0x3bc1cd6e	0.0059143817
1	0x3bc26619	0.005932581
2	0x3d09d145	0.03364684
3	0x3cbe5841	0.023235442
4	0x3d8053f0	0.0626601
5	0x3cc0f530	0.023554415
6	0x3cb037b9	0.021510946
7	0x3d23a89c	0.03995572
8	0x3d0893bb	0.03334401
9	0x3d5b4a8e	0.053537898
10	0x3d594123	0.053040635
11	0x3ca99db6	0.020705085
12	0x3ca1401d	0.019683892
13	0xbb1ba8c6	-0.002375172
14	0xbc38321a	-0.011242414
15	0x3d58843b	0.05286048
16	0xbb14588b	-0.0022635784
17	0x3c8e52da	0.017373491
18	0x3cbccf15	0.023047963
19	0x3bab44f9	0.005226728
20	0x3cda4e66	0.026648711
21	0xbd0e11b6	-0.03468486
22	0x3cc8e8cb	0.024525067
23	0x3a5167dc	0.00079881935
24	0x3d98a85b	0.07453986
25	0x3db25dcd	0.08709297
26	0x3cb12ff9	0.02162932
27	0x3baf0581	0.0053412323
28	0x3d42535a	0.04744277
29	0x3cfa7cec	0.030577146
30	0x3cd46134	0.025925256
31	0xbb6d4c26	-0.0036208718
32	0x3cae1a13	0.021252668
33	0x3cc04b48	0.023473397
34	0x3d11c6de	0.035590045
35	0x3d30580c	0.043052718
36	0x3ca102ff	0.019654749
37	0xbafb4387	-0.0019169905
38	0x3c9bedc4	0.019034274
39	0x3c58f52d	0.013242048
40	0x3d577a65	0.05260696
41	0x3d5b764a	0.053579606
42	0x3c94774c	0.018123291
43	0x3af3953b	0.0018583903
44	0x3d0757c5	0.033042688
45	0x3a6ebd55	0.0009107192
46	0x39f91132	0.00047505792
47	0xbb61814f	-0.003440935
48	0x3d1aa7fd	0.037757862
49	0x3bb0d6c4	0.005396696
50	0xbb4377b8	-0.0029825997
51	0x3c8f3698	0.017482087
52	0xbb3c4160	-0.002872549
53	0x3d9bc355	0.07605616
54	0xbc9a21f8	-0.018815026
55	0x3d34a374	0.044101194
56	0x3c85d9bc	0.016339175
57	0x3ca1431a	0.019685317
58	0x3c88f8fb	0.016720286
59	0x3bdc954f	0.006731666
60	0x3d182602	0.037145622
61	0x3b89214d	0.004184878
62	0x3c21c5eb	0.0098738475
63	0x3d25d610	0.04048735
64	0x3cc6026a	0.024171073
65	0x3c29921d	0.0103497775
66	0x3cb78a42	0.022404794
67	0x3d2d57f8	0.04232022
68	0x3cc44617	0.023959203
69	0x3d25fad9	0.04052243
70	0x3c8c31aa	0.017113525
71	0x3cb5f4be	0.022211429
72	0xbc8d86fd	-0.017276281
73	0x3ce41824	0.027843542
74	0x3cfce45e	0.030870613
75	0xbabcd7d1	-0.001440758
76	0x3c96affc	0.018394463
77	0x3c80116f	0.015633313
78	0x3bfdc9d2	0.007745006
79	0xbbffa9eb	-0.007802238
80	0x3b4e2215	0.003145342
81	0xbcececd8	-0.02892153
82	0xbc5cd9ec	-0.013479691
83	0x3cb6534a	0.022256512
84	0x3cb893f3	0.022531485
85	0x3c8d3771	0.01723835
86	0x3ca28bf8	0.019842133
87	0x3b5e7572	0.0033944515
88	0xbc567241	-0.013088764
89	0x3c8eb7aa	0.017421562
90	0x3cde609b	0.027145674
91	0x3ce136a2	0.027491871
92	0x3d807bf6	0.06273644
93	0x3d8d24b0	0.06891763
94	0x3cbca551	0.023028048
95	0x3d85b5e8	0.065288365
96	0x3cd727bf	0.02626407
97	0x3c39c9d2	0.011339622
98	0x3d21792a	0.03942219
99	0x3cbd0197	0.023072047
100	0xbb8fe59a	-0.0043913843
101	0x3b5725d6	0.0032828948
102	0xbc93c7dc	-0.018039636
103	0xbca68fa5	-0.020332167
104	0x3c939523	0.01801545
105	0x3c9815a5	0.018565008
106	0x3d37b537	0.044850554
107	0x3c971c18	0.018446013
108	0x3b11a11e	0.0022221277
109	0x3cbe02ae	0.023194637
110	0x3cec3018	0.028831527
111	0x3cd55fd1	0.026046665
112	0xbc5104ca	-0.012757489
113	0xbae1db00	-0.0017231405
114	0x3c6f53f7	0.014607421
115	0x3c2c1ae1	0.010504455
116	0x3cda37e6	0.026637983
117	0xbb64cff0	-0.003491398
118	0x3cb01d42	0.021498326
119	0x3ca04596	0.019564431
120	0x3a5e763e	0.00084862474
121	0x3d125602	0.035726555
122	0x3c5f8434	0.0136423595
123	0x3c027b34	0.007963944
124	0xbba23e0e	-0.004951245
125	0x3d2604c7	0.0405319
126	0x3bb527a8	0.005528409
127	0x3d1dfca1	0.038571004
