quantized_weights_npy/self_attn_in_proj_weight.npy (npy, 428 bytes, 1 tensors)

array f4 [15, 5]
0.51369333 -0.20866364 0.07730365 -0.22854987 0.010280669 -0.3837739 -0.24691018 -0.09007007
-0.16596079 0.26712543 0.32393044 -0.41950387 0.016743124 0.5095626 -0.093147874 -0.32263815
-0.44522896 0.22682238 0.5454328 -0.36640018 -0.41175258 -0.12814787 -0.06599632 0.53811026
-0.39641297 0.047213733 -0.37200803 -0.24220386 0.45697272 -0.41231257 -0.5123779 0.25957406
-0.3952862 0.12790275 -0.27825117 -0.010457218 -0.029624045 -0.49848694 0.14761174 0.29103547
-0.065372616 -0.020565689 0.1566422 -0.18817398 -0.4820069 0.077851474 -0.09861648 -0.41162345
-0.0074955225 0.43900937 -0.3566593 -0.04384294 -0.625618 0.46185398 -0.29730913 -0.54910356
-0.11545395 0.40884525 -0.4064661 -0.3731018 -0.59463185 0.001319522 0.44971007 -0.25909016
0.18072815 0.10110229 0.47937894 0.071327396 -0.3099877 -0.5172259 -0.14401868 -0.4731457
-0.5209145 -0.3721542 0.32939273
00000000: 6881 033f ecab 55be 6051 9e3d fa08 6abe
00000010: 4070 283c 037e c4be 06d6 7cbe a876 b8bd
00000020: a0f1 29be aac4 883e 36da a53e 36c9 d6be
00000030: e028 893c b272 023f 50c4 bebd d430 a5be
00000040: 0df5 e3be 2044 683e 7ca1 0b3f ce98 bbbe
00000050: 3cd1 d2be 3239 03be 1429 87bd 98c1 093f
00000060: a4f6 cabe 3063 413d d677 bebe 4a04 78be
00000070: 54f8 e93e a21a d3be 332b 03bf e4e6 843e
00000080: f462 cabe f0f8 023e f076 8ebe c054 2bbc
00000090: 20ae f2bc ae39 ffbe 8827 173e 9a02 953e
000000a0: 14e2 85bd 6079 a8bc d066 203e aeb0 40be
000000b0: 9cc9 f6be 9870 9f3d 70f7 c9bd 4fc0 d2be
000000c0: 009d f5bb d6c5 e03e 0c9c b6be a894 33bd
000000d0: 8028 20bf 2078 ec3e e738 98be 0d92 0cbf
000000e0: 1f73 ecbd 2a54 d13e 531c d0be 3307 bfbe
000000f0: cb39 18bf d0f3 ac3a 6640 e63e 77a7 84be
00000100: cd10 393e b80e cf3d 2871 f53e 1914 923d
00000110: b5b6 9ebe eb68 04bf a279 13be 2740 f2be
00000120: a75a 05bf ff8a bebe 2aa6 a83e
